results/Weights/model1.pth (torch, 146514 bytes, 15 tensors)

model.0.weight f4 [128, 21]
000000 b0 03 00 3e c4 4c 27 3e 0d 20 d5 bd f3 46 11 3e
       0.12501407 0.16337878 -0.10406504 0.14187221
000010 06 a3 bf bd 51 9d f9 3d 30 f0 a5 bd de a6 f4 3d
       -0.09357266 0.12188209 -0.08102453 0.1194589
000020 11 af 6f be d4 46 15 3e 0e b8 4b 3d c3 00 bd bd
       -0.23406626 0.145778 0.049736075 -0.09228661
000030 a4 a0 00 be 51 5a 7f be 3a 50 ef 3c c0 4f e1 3d
       -0.1256128 -0.24936797 0.02921306 0.11001539
000040 b9 eb 35 bd bf 4d f0 bd 36 88 28 be 84 f4 d3 bb
       -0.044414256 -0.11733579 -0.1645821 -0.0064683575
000050 1b 70 de bd 64 6d ca bd 64 64 4d bc 1a 9f 09 bd
       -0.10861226 -0.09884146 -0.012536142 -0.033598997
000060 ea 0d 30 be 08 34 06 3e b9 7b 29 be 8f b9 ae bd
       -0.17192808 0.13105786 -0.16551103 -0.08531486
000070 77 24 de bc 40 ad 75 bd 45 e6 9c 3b 28 e3 55 be
       -0.027116997 -0.059979677 0.0047881925 -0.20887434
000080 c9 22 14 bd 70 69 39 bd e2 d3 f6 bd 3a 05 14 3c
       -0.036165986 -0.04526657 -0.12052132 0.009034449
000090 d1 bd f6 3c 82 1b b9 3d 1e 45 87 3e fc 53 a1 be
       0.030119808 0.0903845 0.2641992 -0.31509387
0000a0 15 5a 91 bc 67 7f 09 bd 92 fb 4b be ff 25 c0 bd
       -0.01774315 -0.033568766 -0.19920185 -0.09382247
0000b0 d2 55 98 bd 9e 19 cd bd b4 8a 42 3d 60 69 92 3d
       -0.07438244 -0.10014652 0.04749556 0.07149005
0000c0 52 13 be 3c 01 ee a9 3d 7e 2b 47 be b4 5f 2a be
       0.023202572 0.08297349 -0.19450185 -0.1663807
0000d0 a5 e6 6a 3e a5 cc 98 bd ae 8f a3 bd b4 53 e4 3c
       0.22939546 -0.07460908 -0.07986389 0.027871944
0000e0 93 ab bf bc 1b 53 c7 3d 48 90 14 be 6e 02 39 be
       -0.023397243 0.09732648 -0.14508164 -0.18067333
0000f0 d5 22 ae be 3f d5 ba bb 16 5d f9 3c 49 31 28 be
       -0.3401095 -0.0057016904 0.030439895 -0.16425051
000100 1c 41 ce 3d a1 99 c4 3d b8 1a cf bd cd df 5c 3e
       0.100710124 0.09599615 -0.10112518 0.21569748
000110 51 55 73 be 1c df 75 be 55 69 28 3e 72 03 ac 3b
       -0.23763014 -0.2401089 0.16446431 0.005249434
000120 31 88 60 39 90 92 16 bc ab 4e 0d bd fc 69 ce bd
       0.0002141304 -0.009190217 -0.03449885 -0.10078809
000130 22 1a 30 3d 87 c2 29 3d ac 16 87 bd fe a4 b8 3c
       0.042993672 0.04144528 -0.06596121 0.022539612
000140 d1 e1 1e be 98 ba 35 3e e0 40 fc 3d 5b d1 9f bd
       -0.1551583 0.17746961 0.123170614 -0.07803603
000150 8e b8 95 bd 8a 6f 90 be 66 71 ed bd ea a2 23 be
       -0.07310592 -0.28210098 -0.11593895 -0.15980116
000160 a9 04 6a 3e af 3a 93 be 6b 72 15 be 4f d6 e3 bd
       0.2285334 -0.2875571 -0.14594428 -0.111248605
000170 4a 51 05 3c 06 d1 9c 3d 7b 55 8b be 37 d4 fb bc
       0.008137057 0.076570556 -0.27213654 -0.03074084
000180 7a de ba 3d b4 2a a5 be c7 e2 b7 bd ed 5e 52 3d
       0.09124465 -0.32259142 -0.08978801 0.05136006
000190 b7 8a 85 bd 9b ba bc 3d f2 fc c2 be 0e a1 18 be
       -0.065205984 0.0921528 -0.38083607 -0.14905187
0001a0 68 fc 61 3e 42 10 30 be 1a 4d 13 bd 39 6f ee bd
       0.22068942 -0.17193702 -0.0359622 -0.11642308
0001b0 e0 f9 58 3d f8 6a 9c bd be 78 13 be 64 c7 5d be
       0.052972674 -0.0763759 -0.14401528 -0.21658093
0001c0 25 16 b9 3d 0c 6f 23 3e d6 fc 92 bd 1a f2 80 3d
       0.09037427 0.1596033 -0.07177131 0.06296177
0001d0 f8 83 26 bd 3f 51 25 be 61 4c 53 be 8c f6 ee bc
       -0.0406532 -0.16144274 -0.20634605 -0.029170297
0001e0 b1 85 1a 3e e1 4f a5 3c ec 3c 20 3e cd 2a 02 bc
       0.15090062 0.02017969 0.1564824 -0.007944775
0001f0 bc 3a da bd b3 6f cd 3d ef 78 12 be b5 72 be bd
       -0.10655734 0.100310706 -0.14303945 -0.092992224
000200 48 45 6b be c4 63 e3 3c 0a 8c 18 be d1 0c 91 3d
       -0.22975647 0.027757533 -0.1489717 0.07082523
000210 f4 da 33 be 15 08 54 3e 38 33 67 be ed 50 8a bd
       -0.17563993 0.20706208 -0.22578132 -0.067537166
000220 00 9e 84 bd 9a 4d 1f 3e d4 a7 73 3e 4e 52 c3 3d
       -0.064754486 0.15556946 0.2379449 0.09537183
000230 ba 2a 1f be 35 2e 87 be f3 e3 ca bc 7d 0d 09 be
       -0.15543643 -0.2640244 -0.024766898 -0.13384052
000240 53 98 71 3b d9 e0 1a be e3 bb 7f 3e 34 83 11 3e
       0.0036864474 -0.15124835 0.24974017 0.14210206
000250 c1 4e cc 3c d6 b3 e9 bd a7 b0 68 be 32 13 88 3d
       0.024939897 -0.11411254 -0.22723638 0.06644286
000260 d8 50 94 bc 8b c8 24 be b1 4e e4 3b 54 f7 fe bc
       -0.018104956 -0.16092126 0.0069673886 -0.031123795
000270 fb df a3 3c db 30 5d 3d 07 f2 58 3c 0d 25 17 3d
       0.020004263 0.05400167 0.013241298 0.03690057
000280 59 96 ab 3d f8 c8 4a 3e f0 44 e0 3d 45 b6 3a be
       0.08378286 0.19803226 0.10950649 -0.18233593
000290 dd 20 5e be 07 a3 a4 bd 6b c1 62 3e 8b 38 06 bd
       -0.21692224 -0.080389075 0.22144096 -0.032768767
0002a0 61 e8 80 be 58 8c 36 bd fc c8 7d 3e 46 16 5d bd
       -0.2517729 -0.044567436 0.247837 -0.05397632
0002b0 b1 60 3a be be 23 d6 bd f8 db 91 bd e4 9a b2 bc
       -0.18200947 -0.10456036 -0.07122034 -0.021802373
0002c0 cc 2d d0 bb 18 e4 b6 3d 65 9a 1f be 76 ef 8b bc
       -0.0063531157 0.08930224 -0.1558624 -0.017081957
0002d0 89 bd 39 3c f1 84 7c be 21 c4 88 bd 2e 27 c0 3c
       0.011336693 -0.24660088 -0.066780336 0.023456182
0002e0 18 b9 2f bd f1 00 7f bd 95 33 09 be 7d 98 df bd
       -0.04290113 -0.062256757 -0.13398583 -0.10917757
0002f0 b9 75 ba 3c 48 3f 9e 3d 89 65 3a 3e 97 00 3f 3e
       0.022761213 0.07726914 0.18202795 0.18652569
000300 a6 7f 11 be 26 23 5b be 3c 99 17 3d b2 c9 43 bd
       -0.1420885 -0.21400127 0.03701137 -0.047799774
000310 50 24 3c 3c 09 29 a2 3c ed 9d 2c 3d 6d 78 df bd
       0.011483267 0.019794958 0.042142797 -0.10911641
000320 ba fc bb bc 2c 01 86 3d 77 fd 7b be 0c ed 44 be
       -0.022947658 0.06543192 -0.24608408 -0.19231051
000330 8b 21 57 be c4 56 26 be ae 23 08 3e eb cd 1b 3e
       -0.2100889 -0.16244036 0.1329486 0.1521527
000340 1d 15 fe bd 7d 1e c1 3d d7 df 33 bd 84 9b 04 bd
       -0.12406371 0.09429643 -0.043914642 -0.032374874
000350 73 16 58 3e 96 a3 61 be 9f 24 92 3d 0d d6 6e bd
       0.21102314 -0.2203506 0.07135891 -0.058309603
000360 ba 55 69 bd b1 53 9c bd 9e 72 94 3d e4 3d 5a 3d
       -0.05696652 -0.0763315 0.07248424 0.05328168
000370 29 40 86 be 83 e7 86 3d b6 51 fe 3b e3 7c c2 bd
       -0.26220825 0.06587126 0.0077612055 -0.094964765
000380 5f b0 36 bd 45 6b 6c bc 6d 7b 9a b9 db 23 06 3e
       -0.044601794 -0.014429872 -0.00029465128 0.13099615
000390 ef ce 89 be 1c e8 4d 3d b8 16 8d bd fb fd 4a be
       -0.2691569 0.050270185 -0.06889099 -0.19823448
0003a0 33 5a 86 3d 8b 73 e8 bc f5 64 46 be a7 3a 3c be
       0.06560173 -0.028375408 -0.1937445 -0.18381749
0003b0 0b ba 83 bd 7c 53 db 3d e7 68 5d bc 21 a3 22 3e
       -0.06431969 0.10709283 -0.01351378 0.15882541
0003c0 56 26 f7 bd a2 03 0a 3e 36 c6 75 bd af 6f b1 3d
       -0.12067859 0.13477948 -0.06000348 0.0866388
0003d0 20 00 cf be 92 e4 5f 3d d8 38 55 3d ce c0 ca be
       -0.40429783 0.05466134 0.052056164 -0.39600223
0003e0 58 dc 31 3b f6 68 c6 bd 37 af f0 3b ee 49 7d 3d
       0.0027139392 -0.096879885 0.007345106 0.061838083
0003f0 f3 d1 a7 bd 07 8a 2f 3e 57 ef 93 bd 1c c4 5c 3b
       -0.081943415 0.17142497 -0.07223385 0.0033686226

model.0.bias f4 [128]
000000 b8 d5 7e bd 34 1c 11 be 62 66 92 3c f5 bf 49 3c
       -0.062215537 -0.14170915 0.017871086 0.0123138325
000010 83 94 ef bd e4 ef 20 3e 4b 9b 47 be 41 6b 12 be
       -0.11698248 0.15716511 -0.19492833 -0.14298727
000020 85 bd 61 3e 87 ea ef 3b 3c 51 bb 3d 55 7c 08 be
       0.22044952 0.007321659 0.091463536 -0.13328679
000030 fe 31 84 be f2 e3 85 be 41 fd 9e be 61 6e 46 3d
       -0.2581939 -0.2615047 -0.31052592 0.04844511
000040 db 3d c3 3d 8b c2 e6 3c a1 44 61 bd e2 c3 34 be
       0.09533282 0.028168937 -0.05499709 -0.17652848
000050 4d d0 6f bd 0e 95 f9 bd f5 04 18 be 1f f0 47 be
       -0.05854826 -0.12186633 -0.14845641 -0.19525193
000060 9e d9 df 3c db c2 15 be 71 0c ff bd d8 04 12 39
       0.027325448 -0.14625113 -0.12453545 0.0001392545
000070 d1 b8 38 be 77 0c 3c be 04 bb 05 3e 5b 67 95 be
       -0.18039252 -0.1836413 0.13059622 -0.29180416
000080 59 5b 6b 3d f4 67 32 bd 74 9c 0d bd 3f 63 11 be
       0.057460163 -0.04355617 -0.034573033 -0.14198016
000090 d3 37 7d 3e d1 e7 aa be 7c 0c f0 bc a0 e5 43 be
       0.24728326 -0.33379987 -0.029302828 -0.19130564
0000a0 14 60 2d be 2b 6a 3d 3d d7 b4 3a be f1 71 1f 3e
       -0.16931182 0.046243828 -0.18233047 0.15570809
0000b0 6f ca cc 3d f5 4b 59 3e 1f 78 41 bc 70 33 9a 3d
       0.09999549 0.21220382 -0.011808424 0.07529342
0000c0 5a 79 90 bc 5d 6a fd 3d 32 f7 34 3e 85 87 09 3e
       -0.01763599 0.12373803 0.17672423 0.13430603
0000d0 91 21 33 be b4 1a f0 bd ef bc 65 be 9e 76 17 3e
       -0.17493273 -0.11723843 -0.22435354 0.14791343
0000e0 fb d2 4c be a7 95 e8 3d df 6d 4d 3e 09 0b c6 3d
       -0.20002358 0.11356669 0.20061444 0.096700735
0000f0 68 18 b4 be de af 09 3e cf 15 08 3e c5 7c 54 3d
       -0.3517487 0.13445994 0.1328957 0.051876802
000100 bb ca b4 bd 6c ae ed 3d 1c 97 45 3d e3 51 15 3e
       -0.0882773 0.11605534 0.048239812 0.14582019
000110 1e cd 89 be fd f9 12 be 9e c5 38 bd 77 7a b8 bc
       -0.26914304 -0.14353175 -0.045110337 -0.022519333
000120 73 47 e8 3d f5 28 6b bd b2 34 2f 3d e4 b7 51 3d
       0.11341753 -0.057412107 0.042774864 0.051200762
000130 f9 1d 2d be 2a 27 3e bd 41 70 de 3d 82 20 2a 3d
       -0.16905965 -0.04642407 0.108612545 0.041534908
000140 f1 2c b6 bd cc 2e 36 3d b2 9c cd 3d 8a 5a 2c be
       -0.08895291 0.044478223 0.10039653 -0.16831413
000150 ab e0 55 be 26 0b 0c 3e c1 6e 27 be 38 19 a8 bd
       -0.20886485 0.13676128 -0.16350843 -0.08207935
000160 0b f5 97 3c 1d f1 05 be a2 b8 ff bc fe e8 14 be
       0.018549463 -0.13080259 -0.03121597 -0.14542004
000170 4d ad ae 3d c1 0c f2 3c 8d a1 ec 3d e6 1d ce 3d
       0.08529148 0.029547097 0.11554251 0.100642964
000180 ed f6 cd 3d 17 04 56 bd 28 bb 81 be ac ae 0d be
       0.10056863 -0.052249994 -0.253381 -0.13836163
000190 c1 02 a0 bd 61 fb bd bd 6f f9 4e be c9 75 2b 3d
       -0.07813025 -0.09276462 -0.20212339 0.041860376
0001a0 e2 b8 13 3e 03 5f 54 be 5f 72 e5 bd c2 bd 61 3e
       0.14425996 -0.20739369 -0.11203455 0.22045043
0001b0 a6 ce 81 3c 2c 7f d9 bd 36 f9 a8 3d fe 84 e8 bd
       0.015845608 -0.10619959 0.08250658 -0.11353491
0001c0 5d 58 36 3b 23 b2 ef bd e1 48 6e 3c c4 71 50 be
       0.0027823665 -0.11703899 0.014543743 -0.20355898
0001d0 e2 4b 4a 3e 1f 5f 02 be f5 88 5c be cb 13 0b be
       0.1975551 -0.12731598 -0.2153662 -0.13581769
0001e0 ea d8 30 be 2b fe 4a be 02 e6 57 3d e9 b6 18 be
       -0.17270246 -0.1982352 0.052709587 -0.14913525
0001f0 81 7a 7a be 7a 56 2d bd 55 2a 10 3e 20 c4 29 be
       -0.24460794 -0.0423188 0.14078648 -0.16578722

model.3.weight f4 [128, 128]
000000 e6 58 c7 3a 5a 11 07 3b f3 d1 36 3d 3a 7c 0e bd
       0.0015208989 0.0020609708 0.044633817 -0.03478644
000010 41 34 e1 3d e2 55 19 3d 80 ec a4 bd c7 73 d7 bd
       0.10996295 0.03743542 -0.08052921 -0.1052013
000020 0e 49 fc 3d 80 75 31 bc 03 34 1f 3c 1d d4 f2 3d
       0.123186216 -0.010831237 0.00971699 0.11856864
000030 80 89 e5 3b 10 4e 5c 3c cc 36 00 be 33 99 eb 3c
       0.0070049167 0.013446346 -0.12520903 0.028759575
000040 21 33 a1 bd cc ef 32 bd 8e 49 98 3c db 68 bf bb
       -0.0787108 -0.04368572 0.018589761 -0.005841357
000050 40 ba f2 3d d2 14 e9 bb 08 64 38 bb cd e2 9b 3d
       0.118519306 -0.0071130777 -0.0028135795 0.07611618
000060 a3 d0 09 be 35 2e 10 3d d8 e7 9b 3d a0 69 32 bd
       -0.13458495 0.035200316 0.0761258 -0.043557763
000070 d6 a7 38 bc 2e 78 4f bd 04 55 14 3d 6c 5a db bd
       -0.011270484 -0.05065172 0.03621389 -0.10710606
000080 19 24 24 bc 5d 10 16 3c 87 7b c6 bb 2f 22 70 3d
       -0.010018372 0.009159175 -0.006057206 0.05862635
000090 82 52 01 3c 0f 92 f5 bd 39 fe 34 3d da 86 00 3b
       0.007893207 -0.11990749 0.044187758 0.0019611628
0000a0 61 b7 8e bc d4 03 be bc 7f 3d f9 3d 70 e7 cb 3c
       -0.017421426 -0.023195185 0.121699326 0.024890631
0000b0 ad e1 3f 3d 81 0f 98 3d 4a 48 d4 bb 78 e1 da bb
       0.04684608 0.07424832 -0.006478344 -0.00667971
0000c0 c2 ed d8 bc 91 82 75 bc 0c 1b 34 3d 2b b5 95 3d
       -0.02648056 -0.014984743 0.043971106 0.07309946
0000d0 b9 47 f4 bc 45 1b e3 3d 13 32 0d 3d b6 9e 40 bc
       -0.029819356 0.110891856 0.034471583 -0.01175659
0000e0 3d c1 29 bd 9d cf bb 3c d0 f2 f8 3d 14 c0 50 3c
       -0.041444052 0.022926146 0.12155688 0.0127411075
0000f0 dc b2 5c bd bf 17 79 3d d0 58 e0 bb 5b 79 97 3c
       -0.05388151 0.06081366 -0.006846525 0.018490484
000100 4e ee 17 ba ca 41 ca 3c b5 6e f9 3b 7d 53 d9 3c
       -0.0005795703 0.024689574 0.0076120743 0.026529068
000110 4e ae 04 3c ee 46 70 bc 07 d3 df 3b 15 66 da bb
       0.008098198 -0.014665348 0.0068305763 -0.006665001
000120 94 63 06 bd 60 82 86 3b 5f 2a 25 3b b6 39 a3 3c
       -0.03280981 0.0041048974 0.0025202257 0.01992498
000130 af 18 82 3c 68 10 ec bc 8e 34 03 3d ea 30 ab 3b
       0.01588091 -0.028816417 0.032032542 0.005224337
000140 1f b9 e1 bd ff 17 04 3e 28 5f 67 bc 3e 71 4f 3c
       -0.11021637 0.12899779 -0.014121808 0.012661276
000150 6c 6f 20 3e 34 2c 8e 3d 45 14 b9 bd ab 1f 43 bd
       0.15667504 0.06942025 -0.09037069 -0.047637623
000160 14 03 6d bd 3e 64 6a 3d 90 bc 38 bd 03 43 b7 bc
       -0.057864264 0.057224505 -0.045101702 -0.02237082
000170 14 f2 9c 3b 85 08 1d 3d 0c ba 2e 3c a1 b3 06 bc
       0.0047896 0.038338203 0.010664474 -0.008221538
000180 e3 ab fc 3b cd 71 83 3d 73 ca 2b be a1 f8 02 bd
       0.00771092 0.0641819 -0.16776447 -0.031975392
000190 dd e0 e5 3c 42 81 9b bd e3 53 61 bd 57 4d 01 bd
       0.028061325 -0.07593013 -0.05501164 -0.031567898
0001a0 3d 11 19 3e 2a 74 a0 3d e2 ed f7 3d da 6b 9f 3c
       0.14947982 0.078346565 0.121059194 0.019460607
0001b0 bd 9e bc 3d 0e 3b 76 bd de d1 f8 bc ef 6d 6a bc
       0.092099644 -0.060114913 -0.03037351 -0.014308437
0001c0 a9 90 c1 3b a7 aa ab 3d e2 45 81 3c 24 ac 17 bd
       0.0059071374 0.08382159 0.015780393 -0.0370294
0001d0 06 62 a2 3c 02 54 d3 3d c1 ee 0d bd 89 1e ae bd
       0.019822132 0.103187576 -0.03465152 -0.08501918
0001e0 51 01 1c 3e 06 78 7b 3d bc e5 88 3d 4e 7b 9a 3b
       0.15234877 0.06139376 0.06684443 0.004714406
0001f0 7b dd 82 bc fd 0d d2 3d 38 c9 3f 3d 7e ef 99 39
       -0.01597475 0.10256574 0.046822757 0.0002936087
000200 d5 3d 81 3d e6 7e 9a 3d 95 7f 34 ba 3e 1d c1 bb
       0.06310622 0.07543735 -0.0006885466 -0.0058933785
000210 28 54 b3 3d b5 59 e3 ba 93 87 40 3d d0 f2 f6 3c
       0.08756286 -0.001734546 0.047004294 0.030145079
000220 87 31 2a 3c 84 a5 44 bd fc 77 55 ba a3 90 d8 3d
       0.010387785 -0.04800941 -0.0008143184 0.10574462
000230 7f b7 01 bc c0 df f3 bd 15 d3 2b bd 82 1f 6b bd
       -0.007917284 -0.11907911 -0.04194935 -0.057403095
000240 69 cd 1c 3d 70 8a 44 3d 12 0d d8 3d 82 23 9d bd
       0.038281832 0.047983587 0.10549368 -0.07672788
000250 3f 69 75 3c 01 08 ad 3d 02 e8 4e bd da 66 8a 3c
       0.014978706 0.08448792 -0.05051423 0.016894747
000260 81 a2 be 3c ad b8 22 bd 0b 24 e8 3c b6 73 8e 3d
       0.023270847 -0.0397269 0.0283375 0.06955664
000270 fe 94 56 bd 9e df a6 3c 48 77 ed bc 7a 8d fd 3b
       -0.052388184 0.0203703 -0.028987542 0.0077378126
000280 77 eb 23 3d 38 47 88 3b 85 57 db 3c dd 51 b6 3d
       0.04001948 0.0041588806 0.026775131 0.08902333
000290 d2 bc 71 bd fb 90 f7 bc c9 44 5c 3c 22 31 6c 3d
       -0.059017964 -0.0302205 0.013444134 0.057664044
0002a0 86 53 4d 3c 6d f2 ca bd cb 4e fe bc 0d 12 86 3d
       0.012532121 -0.0990952 -0.03104343 0.06546412
0002b0 cd 8e b8 3d cf 0a 6a 3c 44 91 5c 3d fc bc eb 3c
       0.09011612 0.0142848035 0.053849474 0.028776638
0002c0 e5 4e 2b bd 01 c3 40 bc bb 8d ba 3d 72 80 1c 3d
       -0.041823287 -0.011765243 0.09109064 0.038208432
0002d0 46 a8 61 bd ff c4 67 3d ee 63 05 be b4 2e 13 bd
       -0.05509212 0.056584354 -0.13026401 -0.03593321
0002e0 7b 5c 04 3c 86 24 84 3d e6 38 15 bd d4 c4 7d bc
       0.00807869 0.06452279 -0.036431216 -0.015488822
0002f0 1f 62 a4 3b 2d 9c 02 bd 03 18 f6 3b fa 7b ed 3c
       0.0050165798 -0.031887222 0.0075101866 0.02898978
000300 87 7f e9 bc 42 2c 43 3d 92 a7 c0 3c 0a 84 70 3d
       -0.028503193 0.04764963 0.023517404 0.058719672
000310 7a a4 a4 bd d5 a8 4c 3d 06 e3 d2 bc 08 b7 14 3d
       -0.08039184 0.0499657 -0.025743019 0.036307365
000320 24 91 41 bd d2 15 4a 3d 43 5e 9c 3d c7 c3 15 bd
       -0.047257558 0.049337216 0.076351665 -0.03656366
000330 2c 43 85 bc ab 3f 20 bc 68 64 59 bd 17 25 2e 3d
       -0.016267382 -0.009780805 -0.05307427 0.04251584
000340 30 f0 a9 bd 9b ee 7f bd 36 73 73 3d de e9 93 3d
       -0.08297765 -0.06248341 0.059436046 0.07222341
000350 f9 30 89 3d b9 ad b9 3d 19 57 49 3d 74 55 b2 3b
       0.06698794 0.09066338 0.04915533 0.0054423157
000360 b0 6d 89 bc 00 03 40 3d d3 43 3b bd 1f 4e cc 3c
       -0.016775936 0.04687786 -0.04571898 0.024939595
000370 85 22 ba 3d 75 03 aa bd e6 d6 51 3a 99 8d 2d bd
       0.09088615 -0.083014406 0.00080047396 -0.042371366
000380 3f d4 dd bc f7 80 d3 3c 9c 8e aa bd ae c4 80 bd
       -0.027078746 0.025818331 -0.08327982 -0.06287514
000390 70 e4 06 3d c0 56 8c 3d 81 96 ab 3c 6f 47 af 3d
       0.0329327 0.06852484 0.02094579 0.08558547
0003a0 f3 ea 50 bd 25 dc d2 3d 71 df 69 bd 42 0a 1e 3c
       -0.051005315 0.102958955 -0.057097856 0.009646
0003b0 80 4e 56 3d ab dd 88 3d ae 49 66 bd ca 75 0f bc
       0.052320957 0.06682905 -0.05622261 -0.00875611
0003c0 a7 e9 e6 ba fb 09 d8 3c 96 b2 cd 3c 8b c8 2e 3d
       -0.0017617241 0.026371947 0.02510957 0.04267172
0003d0 81 d5 e4 3b 4e a8 8b 3d 3b f9 17 3e 55 b3 41 3d
       0.0069834595 0.06819211 0.14841168 0.047290165
0003e0 40 8b 0e 3d b0 65 ff bc 5a b1 5e bd ed 97 42 3d
       0.034800768 -0.031176418 -0.054368354 0.04750817
0003f0 d0 0a 9a bc e4 cb 02 3d b0 23 73 bd ae e4 91 3c
       -0.018803984 0.031932727 -0.059360206 0.017809238

model.3.bias f4 [128]
000000 7b a7 f7 3c 56 97 87 3d 1d 2a 04 bd 6b 22 4e 3d
       0.030231228 0.06620662 -0.032266725 0.050325792
000010 56 b3 98 3c 12 92 4c bd d5 f4 ff 3b 39 72 25 bd
       0.018640202 -0.04994399 0.0078111687 -0.040392134
000020 e7 43 78 3c a1 11 73 3b 6e e8 c8 bc d5 79 bd bc
       0.015152908 0.0037089365 -0.024524894 -0.023129383
000030 d5 87 13 3c 5d 7f e1 3b bf 1f e3 3c 6a 77 0e 3d
       0.009004553 0.006881638 0.027725099 0.03478185
000040 0c 72 21 bd 87 72 84 3c 2c 98 ec 3c 1a e5 8a bd
       -0.039415404 0.016167892 0.028881155 -0.06781979
000050 aa 6c 5c bd 76 9b fa bc fb 75 84 bd 70 bc a1 be
       -0.053814568 -0.030591708 -0.064678155 -0.3158908
000060 83 7d 0f 3c a2 11 a0 3c 74 13 0b 3d 9b 22 a7 bd
       0.008757952 0.019539658 0.0339541 -0.08160897
000070 df 28 8a 3d 95 46 41 3d 3e 28 ae 3c e2 a1 e1 bc
       0.06746077 0.047186453 0.021259423 -0.027543012
000080 e3 0d 08 bd 15 c0 a0 3d f9 f3 02 bd 9d 58 86 3c
       -0.03321637 0.07849137 -0.03197095 0.016399676
000090 70 f6 fc 3c 36 f9 1d bd 2f 88 77 bd 41 71 56 bd
       0.03087923 -0.038567744 -0.06043261 -0.0523541
0000a0 4c 90 58 3d ee 8b 4d 3c cf 77 9b bd 80 7b cc 3c
       0.052871987 0.012545569 -0.07591211 0.024961233
0000b0 d1 08 42 bd 60 d4 04 bd 79 49 47 3c 99 0d b1 b8
       -0.04737169 -0.0324291 0.012163513 -8.4425505e-05
0000c0 10 ae 79 3d 83 ae 56 bd cb 81 c5 bc c9 30 3b be
       0.060957015 -0.05241252 -0.024109742 -0.18280329
0000d0 25 8a 4c 3d 9e 33 9a bb 2f 09 e8 bd ee cc 84 bd
       0.049936432 -0.0047058603 -0.11329877 -0.064844
0000e0 15 50 81 3d 80 a1 45 be 18 f1 9a bc 83 36 5c 3b
       0.063141026 -0.19299889 -0.01891379 0.0033601827
0000f0 43 0c 14 bc 04 1b 2e 3d d5 5b 7c bd a9 3e 48 3d
       -0.009036127 0.042506233 -0.061611015 0.048887882
000100 0d ca 36 3d f2 d3 09 bd 27 25 05 be ee f7 dd 3c
       0.044626284 -0.033649392 -0.13002454 0.027095761
000110 64 02 0c be 51 0a 00 3d 48 d7 a1 3d e0 cb 3e 3c
       -0.13672787 0.03125984 0.0790239 0.011645287
000120 7e f7 90 3d a8 9d 01 be 06 e7 15 be 83 e1 b7 bd
       0.070784554 -0.12657797 -0.1463891 -0.0897856
000130 c9 cf e3 3c dc cd 8d 3a 46 d0 ce bd 40 0c c4 bc
       0.02780904 0.0010818797 -0.10098319 -0.023931623
000140 29 37 6c 3d d1 ae b8 3c 41 e5 11 3d df ba ab bd
       0.057669792 0.022544296 0.035619024 -0.08385252
000150 b4 5e a4 3c 2a 5c 44 3d fe c4 30 bd 05 c2 d9 bd
       0.02006469 0.047939457 -0.043156616 -0.106327094
000160 09 38 1d bd b7 a1 cd bc 35 b2 1c 3c 62 a0 ab 3d
       -0.038383517 -0.025101526 0.009563972 0.083802
000170 94 b8 93 bd 0f 35 29 be ba 34 a5 3d 89 61 ad bc
       -0.0721294 -0.16524146 0.080666974 -0.021164672
000180 7f 48 22 bd 21 82 2f 3d e6 3d 6c 3d 75 9d 90 bc
       -0.03961992 0.04284871 0.05767622 -0.017653206
000190 80 9d 49 bd f4 03 c6 bc dd 9f fb 3c 20 f6 7c bd
       -0.04922247 -0.024171807 0.030715877 -0.06175816
0001a0 14 23 e3 bc 9b 02 07 b9 6c 41 66 bb 97 dd 76 3d
       -0.027726687 -0.00012875574 -0.003513421 0.06026992
0001b0 2e ba 72 3d 70 1d 9c 3c f8 9d 9e bd 17 7b 2d bd
       0.059259586 0.019057006 -0.07744974 -0.042353716
0001c0 ac 1b 24 3d 71 b3 59 bd 3f b9 67 bd d6 3d be 3c
       0.040065452 -0.053149644 -0.05657315 0.023222845
0001d0 b4 93 98 3d 91 c5 dc bd 4a 37 15 3d dd fe 63 bd
       0.07450047 -0.1077987 0.03642968 -0.05566298
0001e0 53 84 51 3d 4b ac 85 bc 77 47 6d bd 2e 50 e2 bd
       0.051151585 -0.016317507 -0.057929482 -0.11050449
0001f0 8d 94 82 3c 5b 8c ec 3d c0 90 02 3d ee ce 92 3c
       0.015939975 0.11550208 0.031876326 0.017920937

model.6.weight f4 [64, 128]
000000 65 bc 95 3d 02 9d 3f 3c 58 80 36 bd b2 f8 86 bc
       0.07311324 0.011695148 -0.044555992 -0.016476009
000010 d4 47 dc bd 94 fb 45 3d 84 34 92 3d a9 e2 8c bd
       -0.10755888 0.048335627 0.07138923 -0.068791695
000020 00 a8 b8 3d b8 c2 30 3d 68 21 0e bd 99 eb 89 be
       0.090164185 0.04315445 -0.034699827 -0.2693756
000030 7d 36 8f bc 4e 05 f3 3c 4f aa a6 3d 91 b3 a0 3d
       -0.017482037 0.029665615 0.081379525 0.078467496
000040 c8 5b 81 bd b6 af 35 bc 3c 52 34 bd ee 26 9a 3d
       -0.06316334 -0.011089256 -0.044023737 0.075269565
000050 02 5d a5 be 2f 99 27 bd 8a 84 71 3d a6 cc 90 3e
       -0.32297522 -0.04091757 0.05896429 0.28281134
000060 26 1e 4a 3c 3d 72 3a 3d f1 57 90 3c e9 47 ec bc
       0.0123362895 0.045519102 0.017620059 -0.028842883
000070 5b 2f ac bc 80 ed 9e 3d d5 0e a8 bd 20 81 b3 3c
       -0.021018675 0.07760143 -0.08205954 0.021912158
000080 a4 06 ca 3d 73 25 88 3d 5a bd 9c bd 4c eb 77 bd
       0.09864548 0.06647768 -0.076533034 -0.06052713
000090 07 19 8c be 11 06 8a bd e6 3c 78 3d 15 48 a4 3e
       -0.27362844 -0.06739438 0.060604952 0.32086244
0000a0 9c 72 80 3d 83 b2 9a bd fb 6f e6 3d 73 ae d6 3d
       0.0627186 -0.0755358 0.11251827 0.10482492
0000b0 0e d6 3c bc 5d b7 f8 3c 54 e6 8f 3d 7e 0f 12 bd
       -0.011525644 0.030360872 0.070263535 -0.035659306
0000c0 d2 2b 85 bd 10 33 a5 3c f9 e2 a8 3d ff 6a 9f 3e
       -0.06502499 0.02016595 0.082464166 0.3113632
0000d0 a9 f7 4a bd 64 b1 66 bd ac e8 37 3e b4 80 d5 3c
       -0.049552593 -0.056321517 0.17959851 0.026062347
0000e0 5f 18 ba 3d c3 a3 ea 3d 38 f8 49 3c 4a 28 a5 bc
       0.0908668 0.11457016 0.012327246 -0.020160813
0000f0 78 11 f2 3d 25 ed 6d bd b3 c9 61 3e 94 1a 93 3d
       0.11819738 -0.058087487 0.22049598 0.07182804
000100 73 e9 59 3d 6f 59 1f bd 84 91 82 3c 87 96 e0 bd
       0.05320115 -0.03890365 0.015938528 -0.10966211
000110 39 a4 c8 3d 08 e5 59 3c 0c 62 8a bc ca 5f 5e bc
       0.09796948 0.013299234 -0.016892456 -0.013572643
000120 d9 1e bb 3d ed 48 13 3c e4 8d 1c 3e 7f 4f 42 3e
       0.09136743 0.008989555 0.15288502 0.18975638
000130 79 76 1a 3d a9 56 0a be d4 5a 66 bd 95 ec cc bc
       0.03771064 -0.1350962 -0.056238964 -0.025015155
000140 5c 4a 5c bc 29 d0 ab 3b 23 67 87 bd 25 64 1f be
       -0.013445463 0.0052433205 -0.06611469 -0.15565546
000150 b9 c8 59 bd 9a 03 b8 3d e7 5b a4 bc 02 a4 97 3d
       -0.05316994 0.08985062 -0.020063354 0.07404329
000160 ad c5 9a bc 15 35 f9 3c 31 4f 29 3d 33 dc 3e bd
       -0.018893087 0.03042082 0.04133529 -0.046596717
000170 a0 d1 c8 3d 31 4a f3 3d 3a fb ea 3c e3 08 7b bd
       0.09805608 0.11879385 0.028684247 -0.061287772
000180 50 4e c1 3d 74 d2 ab 3d af 68 a8 3c 41 ff a6 3d
       0.09438765 0.0838975 0.02055773 0.081541546
000190 07 90 51 bd d1 0d 00 3e 4f e3 8b bd 78 70 1f 3d
       -0.051162746 0.1250527 -0.06830465 0.038925618
0001a0 4b 6f 8b bd d8 d9 21 3d b1 fa 69 bc c6 9c e6 3b
       -0.06808337 0.039514393 -0.014280961 0.007037732
0001b0 cf 9d 86 3d b1 c7 95 bb 36 93 2f be 9a 3e 59 bd
       0.06573068 -0.004570924 -0.17146 -0.053038217
0001c0 bf 0e 0e bd 43 20 d7 3b 1a 10 e7 bc 09 e4 4a 3e
       -0.03468203 0.006565125 -0.02820592 0.19813551
0001d0 7d 57 52 3d 3f 43 82 3e a7 ca 62 be e1 99 b3 3c
       0.051352967 0.2544193 -0.22147618 0.021923961
0001e0 c5 49 8a 3c 8f a7 78 3d b8 af 1c 3e 0c 94 c1 3d
       0.01688088 0.06070667 0.15301406 0.09452066
0001f0 d9 17 3d 3b d2 d7 87 3e 39 72 1d 3d 1a fb 30 3d
       0.0028853326 0.26531845 0.03843901 0.04320822
000200 ff 84 17 be 0a d7 cc bd b0 c1 d4 be 05 e5 68 3c
       -0.14796828 -0.10001953 -0.41554022 0.014214759
000210 24 45 f8 3d 5d bb e6 bb 72 89 ac 3d 7a 0f 39 be
       0.121225625 -0.0070413784 0.08424653 -0.1807231
000220 d2 c9 05 bf 93 4a 1f be 8c 34 7e be 09 cc d4 bd
       -0.5226108 -0.15555792 -0.24824733 -0.10390479
000230 ed 14 a2 be 0d 20 48 be 10 48 98 be 8e 4d 5a be
       -0.3165659 -0.19543476 -0.2974248 -0.21318647
000240 b8 57 e0 be d4 99 23 be 77 46 40 be 98 5c 6f 3e
       -0.43816924 -0.1597665 -0.1877688 0.23375165
000250 c1 47 7f 3d 67 c3 51 be f3 4b 64 be e9 39 eb 3d
       0.06232429 -0.20484696 -0.22294597 0.11485655
000260 ef c9 87 bd c2 49 19 be 99 70 ea be c2 56 8a 3e
       -0.06630313 -0.14969543 -0.4578903 0.27019316
000270 d0 d5 16 bd 97 18 0d 3e 15 84 b4 3e e9 75 06 be
       -0.036825 0.13778912 0.3525702 -0.13130917
000280 c8 09 09 be 95 da a4 bd a0 89 e4 be b4 45 e1 3e
       -0.13382638 -0.08049504 -0.4463625 0.43998492
000290 2a 46 84 bd 18 8e 5b be 3f 5f 5b be c9 d6 5b be
       -0.06458695 -0.21440923 -0.21423052 -0.21468653
0002a0 0a f2 c2 be b5 56 2f 3b c5 9d aa be f2 92 fd bd
       -0.38075286 0.0026754562 -0.33323494 -0.12381543
0002b0 5c a5 52 be 0b 15 25 3e 09 4c 92 be 3f 59 b3 be
       -0.20570892 0.16121309 -0.28573635 -0.35029027
0002c0 86 5b 0b be 32 6a db be f0 69 95 be 62 6a 98 be
       -0.13609132 -0.42854458 -0.29182386 -0.29768664
0002d0 a9 d0 62 bd 20 98 82 be 47 93 5c bd 88 0a 0d be
       -0.055374775 -0.25506687 -0.053851392 -0.13773549
0002e0 bc 01 a9 bc e5 cf c8 bd cb 44 c9 be cc 79 10 3d
       -0.02063071 -0.09805278 -0.39310297 0.035272405
0002f0 6b db e4 bd 32 4c 7d be 40 3d f7 bd 63 ce f8 bd
       -0.11174663 -0.24736097 -0.120722294 -0.1214874
000300 28 07 0e be f1 42 aa be 08 ec a7 bd f5 cf f8 3d
       -0.13869917 -0.33254197 -0.08199316 0.1214904
000310 8d 48 1e bd a0 ce b3 bd 84 53 33 bc 72 88 ef 3d
       -0.03864341 -0.08779645 -0.010945205 0.11695947
000320 9e 87 71 bd a9 f9 44 3d b7 0b 42 bd 86 28 1c 3d
       -0.058967225 0.048089657 -0.047374453 0.038124584
000330 1f ff 22 3d 1c 9d 66 3e 86 63 b8 3c 48 a5 a0 bd
       0.039794084 0.2252087 0.022508394 -0.07844025
000340 e8 7c a7 bd 15 25 1d be 42 77 d7 bd e0 1f 9f 3d
       -0.08178121 -0.15346177 -0.105207935 0.077697515
000350 f1 0c 67 3c 99 f3 bd bd b2 19 b3 be 51 c1 14 be
       0.014102207 -0.09274978 -0.3498054 -0.1452687
000360 d9 55 f5 bd ca f3 8f be 23 6e a0 3d 9f 18 21 bd
       -0.11979265 -0.28115684 0.07833507 -0.03933012
000370 fd 13 67 3d 40 db a9 bd e0 bb 5d bd 6c f6 ac be
       0.056415547 -0.08293772 -0.05413425 -0.33781755
000380 ac 40 c2 bd a1 fe 17 be b4 75 3c bd 03 10 74 be
       -0.094849914 -0.14843227 -0.046010688 -0.23834233
000390 fd 03 97 be ac a2 a7 be 2b bb 2c be e9 e3 21 be
       -0.2949523 -0.32741296 -0.16868274 -0.15809597
0003a0 c1 d2 a5 3e f5 ab 1e 3b ce e0 6a 3d 8b 8e 15 be
       0.32387355 0.002421138 0.057343297 -0.14605157
0003b0 40 c4 35 be 54 52 77 3e 27 0f 11 bc 52 67 f7 be
       -0.17750645 0.241525 -0.00885371 -0.48321015
0003c0 50 e9 3f be b4 71 5c be 98 45 0e be be 44 d2 3d
       -0.18741345 -0.2152775 -0.13893735 0.10267018
0003d0 45 61 8b bd d6 8d f3 bc 39 82 c3 3e bb 91 7e be
       -0.06805662 -0.029730719 0.3818529 -0.2486028
0003e0 26 9f c4 bd 8a bf a1 be 0d 96 49 be 7d 12 42 be
       -0.09600668 -0.31591445 -0.19686146 -0.18952365
0003f0 c3 b3 ce be 6c e8 02 3d 63 0a 91 be 1c a7 7f be
       -0.40371522 0.031959936 -0.28328237 -0.24966091

model.6.bias f4 [64]
000000 e8 71 20 bd e4 76 2e 3e d9 99 65 3a 49 98 96 3d
       -0.03917113 0.1703754 0.0008758582 0.07353265
000010 cf 24 b5 3c 51 71 2f bd 90 cb b5 bd c3 2b f0 3c
       0.022112278 -0.042832676 -0.08876717 0.029317742
000020 42 a3 d4 3d 1f 64 89 3d 75 a3 3a 3d 28 0c 3d 3c
       0.103827015 0.0670855 0.04556604 0.011538543
000030 a9 41 27 bc 1e 47 04 bd 08 68 2d 3d 1e e0 c0 3d
       -0.010208526 -0.032294385 0.04233554 0.09417747
000040 ad 1e e6 3c b0 dc 78 bc 45 e8 c6 3b a9 05 e8 3d
       0.0280908 -0.015189335 0.006070169 0.113292046
000050 2f 6a 9c bc d8 43 11 bb 02 68 58 3d 99 02 93 bd
       -0.019093601 -0.0022165682 0.052833565 -0.0717823
000060 22 7f 8a 3d d2 3d e9 3d 5e fc b3 3e 8f 96 bc 3d
       0.0676253 0.113887444 0.35153478 0.09208404
000070 0f 80 5f 3d ca 18 32 3c fb 5a 6d 3d f7 2e 06 3e
       0.054565486 0.010870168 0.057948094 0.13103853
000080 74 ca a4 3d 62 21 fe 3d 36 12 a5 bc 55 82 56 3d
       0.08046427 0.12408711 -0.020150285 0.052370388
000090 f8 cf 5a 3d 9c 7d 2d bd 12 0a 55 3d 54 8b c1 3c
       0.05342099 -0.04235612 0.052011557 0.023626007
0000a0 d4 fe 9e bb 06 21 a4 3d 71 28 a6 bc 5f 76 56 bc
       -0.004852155 0.08014111 -0.020282956 -0.013089745
0000b0 33 8c 61 bd 0f 82 40 3d 2c 32 3c 3e 3b 92 7e 3d
       -0.055065345 0.046999034 0.18378514 0.062151175
0000c0 74 da 87 3d 51 08 00 bd e6 78 17 3e b8 79 2e bd
       0.066334635 -0.03125793 0.14792213 -0.04259655
0000d0 28 78 36 3c 7f 94 2c 3c 5a e8 27 3d 11 ea cb bb
       0.011137046 0.010533451 0.040993072 -0.0062229712
0000e0 bf 6d 6f bc b5 a3 db 3c c6 ff c7 3c 33 42 98 bc
       -0.014613568 0.02681146 0.024413954 -0.018586254
0000f0 48 32 88 ba 70 80 81 bd d0 d4 a6 3e 51 56 c5 bd
       -0.0010390962 -0.06323326 0.32584238 -0.09635604

model.8.weight f4 [64, 64]
000000 80 08 a9 3d 10 c3 28 3f a6 08 77 bd 8c 74 15 3f
       0.08253574 0.6592264 -0.060310982 0.5838096
000010 bf 19 80 bd dc a1 83 3e 11 62 e1 bb 60 09 9e bd
       -0.06254911 0.25709426 -0.0068781455 -0.07716632
000020 6f 53 b8 bc 35 fa c5 3d 7b 43 39 3d fc e3 88 bd
       -0.022500722 0.09666864 0.04523037 -0.066841096
000030 a2 84 b9 bd c8 2d b2 bd f1 16 8d 3d 47 18 4b 3d
       -0.09058501 -0.08700138 0.06889141 0.0495837
000040 9a da 7f bd 0f e7 d2 3c 8c 64 4d bd 23 09 1c bc
       -0.062464334 0.025744943 -0.050144717 -0.009523663
000050 96 76 ad 3d c8 74 8b bd 82 11 8a bc 9c 29 a4 3d
       0.08469884 -0.06809384 -0.016854052 0.08015749
000060 48 47 a6 3d 92 6c ac 3c b0 81 ea 3d 25 22 b7 bd
       0.081190646 0.021047864 0.11450517 -0.089420594
000070 43 04 97 3d c8 ee 97 bc fc 52 30 be 34 9b 9e 3e
       0.0737386 -0.018546477 -0.17219156 0.30977786
000080 b5 68 e4 bc a6 58 24 3f 4e b6 70 3d 26 f6 65 3d
       -0.02788196 0.64197767 0.05876761 0.05614295
000090 c8 e4 46 3d a9 35 c6 3d 94 db 95 be d5 a6 ff bd
       0.048558027 0.096782036 -0.29269087 -0.124829926
0000a0 9d 09 d0 3e 79 6f a9 3d 00 fd e5 bd 7b fc 27 bc
       0.40632334 0.08273215 -0.112298965 -0.010253067
0000b0 61 a6 7a bd 16 dc c7 3e f9 00 41 be d2 b1 c4 3e
       -0.061193828 0.390351 -0.18848027 0.38416916
0000c0 fb ba 62 bd 1b 9c f4 3d 49 f0 0d 3c 51 ad 29 3c
       -0.0553541 0.11943837 0.0086632455 0.010356263
0000d0 81 41 68 3d 7e 9b 91 bd ab 07 80 bd 55 bf 15 3d
       0.056703094 -0.07109736 -0.062514625 0.03655942
0000e0 49 7e 96 bb 90 80 0b 3c 95 58 84 3d 85 93 2d 3e
       -0.004592691 0.008514538 0.06462208 0.16950805
0000f0 3e 96 73 bd 4d 76 d9 bd 8f b0 b6 3e 78 76 bb bd
       -0.059469454 -0.10618267 0.3568158 -0.091534555
000100 08 a9 a7 bd 93 3c ac 3d 89 8a 3e bd de 1c 9e bd
       -0.08186537 0.08409991 -0.046518836 -0.0772035
000110 73 47 af bd c7 c6 05 3d 94 2c 10 bb 75 53 f1 3c
       -0.0855855 0.032660272 -0.0021999227 0.02945874
000120 68 28 ba 3d 32 2f a6 3b 70 57 c0 bb 3b 23 15 be
       0.09089738 0.005071544 -0.0058697984 -0.1456422
000130 d4 71 c2 bc fd 8e dc bd 3b 08 a9 3c da 4b 94 3d
       -0.023735918 -0.1076946 0.020633807 0.0724103
000140 84 85 71 3c a6 68 11 be 79 84 f0 bd ea 3d 10 3c
       0.014741305 -0.14200076 -0.11744017 0.008803824
000150 5e ee ca bd 32 62 7e 3b 08 91 87 bd d9 20 a7 bd
       -0.09908746 0.0038815853 -0.066194594 -0.08160562
000160 82 b0 1f 3d 39 91 51 bd 1e f8 80 bc 95 7b 9a 3d
       0.03898669 -0.051163886 -0.015743311 0.07543103
000170 be df fe bd 78 48 7d bd 5d 15 cb 3d 06 ac 86 bd
       -0.12445019 -0.06183669 0.09916184 -0.065757796
000180 47 f6 bf bb 64 50 1c 3c 03 eb 86 3d 81 b8 93 bd
       -0.005858216 0.009540651 0.06587794 -0.07212926
000190 46 e3 8e 3d 5c a1 90 3d 10 2b fc bd 90 85 df 3b
       0.06976943 0.07062027 -0.12312901 0.006821342
0001a0 4f b4 ab 3c ef a9 a3 bd 6c df c9 3d ed ae 99 bc
       0.020960001 -0.07991397 0.098570675 -0.018760169
0001b0 b2 cd 0d be 35 30 f0 bd f5 69 35 bd 1a 0d 0f be
       -0.13847998 -0.11727945 -0.0442905 -0.13969842
0001c0 30 9d 9e bd 6e 45 e4 bc bd 48 a8 3d a1 28 01 be
       -0.07744825 -0.027865138 0.08216999 -0.12613155
0001d0 ba 1a 66 bc 69 42 e0 bc 2e bc c1 bd 48 3e f3 bd
       -0.014044458 -0.027375417 -0.094597206 -0.118771136
0001e0 27 a2 d4 bd 89 c6 84 bd 25 fe 5b 3d bf 20 6a bd
       -0.103824906 -0.0648318 0.053709168 -0.057160135
0001f0 5c ad d7 3d 50 89 ae 3c 06 8d ce 3b e4 1a e5 3d
       0.105311126 0.02130571 0.0063034324 0.111867696
000200 ce aa fb 3d 0b 46 1f be c1 b2 2c 3d e4 7a a5 3d
       0.12288438 -0.15554063 0.04216266 0.0808008
000210 85 f7 dd 3d df 57 5b bd 4b 2f ae 3c 29 df ba 3d
       0.10838226 -0.053550597 0.021262785 0.09124596
000220 54 b1 d8 3d c8 e4 58 3c 1a 15 48 3d f2 e4 a5 3d
       0.10580698 0.013238139 0.04884825 0.081003085
000230 06 42 35 bd 90 34 ce 3c 6c e4 c2 3d 24 f2 7a 3d
       -0.044252418 0.025171548 0.09516224 0.06126608
000240 be 88 15 bd 9f 9e f0 3b cb a5 8c 3d c7 fb 37 bd
       -0.03650736 0.007343128 0.0686756 -0.044917848
000250 f4 a3 14 3d bd e3 e1 bd 13 6c b6 3d 21 ea 16 bd
       0.03628917 -0.11029766 0.08907332 -0.036844376
000260 4b 51 81 3d 87 68 80 bd 44 82 29 3e 7f e8 03 3e
       0.063143335 -0.06269937 0.16553599 0.12881659
000270 93 6f be 3c f2 e8 85 3d 1b 30 79 3e 74 51 af 3b
       0.023246562 0.065385714 0.24334757 0.005350286
000280 9b 4c a4 3c dc e2 2b 3c 66 4e db 3d 8d b0 5c 3d
       0.02005606 0.010491099 0.10708313 0.05387931
000290 7b 69 b7 ba d2 c2 dc 3d 85 54 ad 3e 58 8e 8a bd
       -0.0013993228 0.107793465 0.33853546 -0.06765431
0002a0 3a 21 57 be 11 8b c4 3b eb 34 6d 3d 21 13 b2 3d
       -0.21008769 0.0059980233 0.057911795 0.08695055
0002b0 ef e7 a4 3c 89 23 69 3d 7c de 0e 3d b7 77 2f be
       0.020130126 0.056918655 0.034880146 -0.17135511
0002c0 c2 39 f7 bc 69 42 ed 3c 60 dc 08 3e 41 34 cb bd
       -0.030178908 0.02896233 0.13365316 -0.09922076
0002d0 58 05 d0 3d d1 59 9d 3d 51 4d 1b bd d0 e9 ed bc
       0.10157269 0.07683147 -0.03791553 -0.029042155
0002e0 8f 86 94 bc 4c a4 3e 3d 7a 06 77 3d 2b e3 96 3d
       -0.018130569 0.046543404 0.06030891 0.073675476
0002f0 ec 71 dd bc 80 de 1f bd 6c 23 1e be 79 7e 8e bd
       -0.027031861 -0.039030552 -0.154432 -0.069577165
000300 68 6a ce bd a1 3a d6 be c0 65 c3 3c 81 a1 2f be
       -0.10078889 -0.41841605 0.02385223 -0.17151453
000310 df 4b aa 3d d0 aa b9 bb 35 54 2c bd 2a cb 08 be
       0.083152525 -0.0056661144 -0.042072494 -0.13358751
000320 21 7a c2 bd df c6 be 3d 78 d6 94 bd 1d aa be bd
       -0.094959505 0.093152754 -0.07267469 -0.0930979
000330 a7 f1 a1 3d bb ca 82 3d 31 b7 0e bd 16 24 92 3d
       0.0790742 0.06386324 -0.034842674 0.07135789
000340 aa c0 d1 bc 42 88 02 bd d4 da d8 bd d3 0b 7b ba
       -0.025604565 -0.031868227 -0.10588613 -0.0009576652
000350 f8 57 dd bc 66 ce c9 3d b7 12 76 bd 6f 7d d1 bd
       -0.027019486 0.098538205 -0.06007644 -0.10229003
000360 82 70 d3 3b 6c e5 9a 3c cc d8 21 3e 85 f8 05 bc
       0.006452621 0.018908225 0.15805358 -0.008176927
000370 40 4d e3 bd 71 69 44 bd 67 e4 0d be c5 e9 d0 3d
       -0.11098719 -0.04795212 -0.1385666 0.10200838
000380 b7 8d ae bc 9c 1e 90 be 9a 6a cc bd 14 1c d9 3c
       -0.02130781 -0.28148353 -0.0998127 0.026502647
000390 55 91 25 3d 74 c0 eb bc 41 a6 90 3d b2 f9 21 bd
       0.040421803 -0.028778292 0.070629604 -0.03954477
0003a0 4e 37 b4 be 89 04 cc bd a9 b0 18 3d 57 f1 a3 bd
       -0.35198444 -0.099618025 0.03727785 -0.08005016
0003b0 db 14 7c 3d 78 92 05 bd d2 b8 b7 bd b6 f7 d6 bd
       0.061543327 -0.032610387 -0.089707986 -0.10496466
0003c0 9f e0 2a 3d a8 a6 9d bd 19 21 07 be cc 1f d2 bc
       0.04171812 -0.07697803 -0.1319622 -0.025649928
0003d0 f2 69 9b bd a3 c1 81 bd 96 00 fa bd 20 02 76 bd
       -0.07588567 -0.063357614 -0.12207143 -0.06006062
0003e0 fe d7 c5 3d 5c b2 ba bd ec bd 0d be 7a 65 fa 3b
       0.09660338 -0.091160506 -0.1384198 0.0076414915
0003f0 ba 8a a7 3d 01 1f da bd b4 9d c6 3e 7d 8e 6a bd
       0.08180757 -0.10650445 0.38792193 -0.057264794

model.8.bias f4 [64]
000000 88 5d 37 be c7 52 40 bc 89 91 99 bd 8f 84 39 bd
       -0.17906773 -0.011738486 -0.07498462 -0.045292433
000010 21 88 37 bd 17 bf 65 bd c6 2f 99 bd b7 58 a3 3d
       -0.044807557 -0.05609044 -0.07479815 0.079759054
000020 1e 9d 6f 3d 53 b4 9e 3d b8 67 8b bd 13 c4 1b bb
       0.058499448 0.07749238 -0.06806892 -0.0023767992
000030 ec eb 0c bd f9 68 26 bd 13 9d ba bd cd 6c f7 3d
       -0.03440468 -0.040627453 -0.09111991 0.12081299
000040 03 6e 73 3c 8e 80 81 3c b2 c4 ba bd ee 1e ee 3d
       0.014857772 0.01580837 -0.09119548 0.11626993
000050 be 64 e6 3d df 3c 2c bc be d3 b6 bc c4 03 b0 3d
       0.11249684 -0.01051256 -0.022317763 0.08594468
000060 5a 82 ce 3d 9e 22 f8 bd 93 ae 15 bd 23 14 ae 3c
       0.10083456 -0.12115978 -0.03654344 0.021249836
000070 02 54 74 bd fe af 19 3d c7 70 8d bd 89 7a 11 3d
       -0.05965043 0.037521355 -0.06906276 0.03551725
000080 00 1d 1a 3e 52 55 00 be a5 66 01 3e 4a 9b 04 be
       0.15050125 -0.12532547 0.12636812 -0.12949863
000090 6c e9 f0 bd aa 81 ad bd 7e c8 65 bc 62 5c 1e bc
       -0.11763272 -0.08471997 -0.014024852 -0.0096655805
0000a0 04 9b f1 bd 8b 99 ad bb ba b4 bd 3d 19 cc e3 bd
       -0.11797145 -0.0052978448 0.092629865 -0.11122913
0000b0 d8 48 40 3d fb 00 e9 3c fc d8 02 bc 44 29 f4 3d
       0.04694447 0.02844285 -0.007986303 0.11921933
0000c0 37 fa 6e bc 5c bf ae bb 72 e0 90 3c 87 20 fc 3c
       -0.014586023 -0.0053328704 0.017685149 0.030777229
0000d0 a9 55 0e 3c 32 b4 94 3d 39 ff 80 bd 3e de 8f 3c
       0.008687415 0.07260932 -0.0629868 0.017562028
0000e0 5e 58 99 bc f6 04 28 bc 44 3f 97 3d 09 e8 95 bc
       -0.018718895 -0.010255089 0.07385114 -0.01829912
0000f0 c8 45 57 3c 09 c0 39 bc 47 f2 dc 3d a4 ed 73 3d
       0.013139196 -0.011337289 0.10788398 0.059552804

model.11.weight f4 [32, 64]
000000 33 c4 04 3c cb 40 24 bc 3d 06 43 bc a9 92 d8 3d
       0.008103418 -0.0100252135 -0.011903343 0.10574848
000010 3d c0 8c bc 4f 64 1e 3c f5 b0 df 3d 20 9e 1d 3d
       -0.01718151 0.00966747 0.10922424 0.038480878
000020 73 12 0c 3e 45 2c 9f 3d 2b 27 94 3d f9 43 5f bd
       0.13678913 0.077721156 0.07234033 -0.054508183
000030 59 c6 40 3e e7 b2 6d bd 13 ff 17 be bc c5 20 bc
       0.18825664 -0.058031943 -0.14843397 -0.009812769
000040 f6 91 e5 3b 3f e0 08 3e eb 33 98 bc 12 f6 40 3e
       0.0070059253 0.13366793 -0.018579444 0.18843868
000050 3f 2b 85 3d 50 13 ab 3d 71 b5 89 bd 7e b7 a1 bc
       0.06502389 0.08353293 -0.0672406 -0.019740816
000060 30 96 7f bc 8a 90 24 3c 10 20 a0 3d aa c1 2a 3d
       -0.015599772 0.010044226 0.078186154 0.0416886
000070 a9 af 2c bd b6 c3 0e 3d 19 8d 15 bd 68 89 16 3e
       -0.04215971 0.034854613 -0.036511514 0.14700854
000080 ca 3e 74 3c ea 83 bd 3d 14 80 90 3d e7 3e 96 bd
       0.014907548 0.09253676 0.07055679 -0.073362164
000090 18 21 fd 3c bc 1f 14 3e cf 07 4c 3d 5d f9 81 3d
       0.03089957 0.1446523 0.049812134 0.063463904
0000a0 cc 24 3b 3d bd 7e 8e be 2a 3d ea 3d e0 d0 e1 3c
       0.04568939 -0.2783107 0.11437447 0.02756542
0000b0 6c 54 47 be 82 f1 e8 bc 19 67 8f 3c 35 78 00 bd
       -0.19465798 -0.028435472 0.017505215 -0.03136464
0000c0 e5 cc e7 3c ee 47 1e be 5b a1 e0 be 3f 2d 9b bd
       0.028295944 -0.15457126 -0.43873104 -0.075769894
0000d0 a9 8c 8d 3d c9 5f 61 bd c8 49 1b bd 26 57 82 bd
       0.069115944 -0.05502299 -0.03791216 -0.063642785
0000e0 7d 9b c8 bd 22 1f e7 bd 51 48 07 3d bf 8d e9 bd
       -0.09795282 -0.11285235 0.03302795 -0.11403989
0000f0 4f b3 96 3d 71 d4 67 3e 73 9e e2 3c 85 fc 60 bd
       0.07358419 0.22639634 0.027663445 -0.05492832
000100 a1 67 47 be 46 cd ac 3d e4 f2 91 3d 98 bd a4 be
       -0.19473125 0.0843759 0.07126406 -0.321759
000110 40 0d 03 3e 3b 4d 6d bd 5c 69 52 bb bc db b4 be
       0.12798023 -0.05793498 -0.0032106256 -0.35323894
000120 fd 61 e1 bd f1 3d 73 be 3b 00 58 3d cb 99 52 3d
       -0.11005018 -0.23754098 0.052734595 0.0514162
000130 cb 78 03 3d 45 50 a0 3c 2b 55 1b be 8b ce 2d 3c
       0.03209762 0.019569525 -0.15169208 0.010608326
000140 3a 55 28 bc 48 68 bd 3d df 3e f0 bc 87 f1 82 3d
       -0.010274226 0.09248406 -0.029326854 0.06393724
000150 50 c7 b8 3d 2d 60 9d 3d d4 45 ac 3c 9c b1 22 bc
       0.09022391 0.0768436 0.02102939 -0.009930041
000160 1d 93 81 be 48 0b a7 bd d3 45 ae bd 42 b1 0e 3d
       -0.2530755 -0.081564486 -0.08509412 0.034837015
000170 31 eb 87 bc 51 ba f6 bd e6 b9 82 3c d1 cc d2 3c
       -0.01659164 -0.12047256 0.015957784 0.02573243
000180 6c a0 8b be 91 05 c7 3d e7 4f 87 bd 08 80 14 bd
       -0.2727083 0.097178586 -0.06607037 -0.036254913
000190 30 8d 6a 3c 7f 04 7a bc 4c b0 7a bd 35 93 1b bd
       0.014315888 -0.015259861 -0.061203286 -0.037982184
0001a0 1d 15 97 bd d8 ca 40 bd d4 a5 3f be 25 14 e9 3c
       -0.07377074 -0.047068447 -0.18715602 0.028451988
0001b0 cc 5e 2b be 58 e6 29 3d 03 85 ca 3d 11 8e 08 3d
       -0.16735381 0.04147944 0.09888651 0.03333861
0001c0 6b 63 0c 3e be 79 58 bd 13 34 c1 bc 96 14 b8 bd
       0.137098 -0.052850477 -0.023584401 -0.089883015
0001d0 c4 5e 3b 3e a7 0d 85 be 77 68 af 3d d7 cc 5b be
       0.18297869 -0.25986978 0.08564847 -0.21464859
0001e0 9d 10 d0 bd 5a 93 08 be dd ac 63 bd 9f 1c 86 3d
       -0.10159419 -0.1333746 -0.055584777 0.06548428
0001f0 08 9d 48 3c 70 0e 9c 3d 9b 8b 9e be 54 63 31 bc
       0.01224447 0.07619941 -0.30965886 -0.010826904
000200 1b b6 9f be ff a9 d2 bd 28 45 6c bd 3f ac a2 be
       -0.31193623 -0.102863304 -0.05768314 -0.31772038
000210 6b df 9d bc 66 d2 c0 bd ee 5e fd bd f5 b0 2d be
       -0.019271573 -0.0941513 -0.12371622 -0.16962035
000220 31 b3 78 bd 42 75 4c be 63 10 86 3d 25 ff 7b 3c
       -0.060717765 -0.19966605 0.06546094 0.015380655
000230 39 d8 db 3d 7a a4 75 bb 11 89 84 be f8 f2 d2 bc
       0.107346006 -0.003748207 -0.25885823 -0.025750622
000240 d2 41 d5 bb f4 ae 83 bd 52 69 05 3c 0a b6 d6 ba
       -0.0065080905 -0.06429854 0.008142786 -0.0016381156
000250 c7 d5 87 bb ec cd 96 bd c2 d3 9f bd 8c 62 9a bd
       -0.0041453573 -0.07363495 -0.078040615 -0.075383276
000260 e6 7e 16 be 58 7a fd bd 3e c1 bd bd 69 cd 8c 3d
       -0.14696845 -0.12376851 -0.09265374 0.068751164
000270 47 4a f1 3b 63 c8 a7 3e 71 c9 0c be 58 f9 93 bd
       0.007363591 0.3277007 -0.13748719 -0.07225293
000280 72 50 85 bd a2 db 9d 3d 6f 60 7d bd 24 12 24 3c
       -0.06509484 0.07707907 -0.061859544 0.010014091
000290 2c fd b3 3d ab a0 5c bd 77 ee 4e 3d c6 30 24 bc
       0.08788523 -0.053864162 0.050520387 -0.010021394
0002a0 0e eb 97 3c bb 86 21 bc fc b8 0c be 42 12 b7 bd
       0.0185447 -0.009858782 -0.13742441 -0.08939029
0002b0 e4 a9 38 be 04 ee cb bd f2 ba c4 ba 7e bc 22 3c
       -0.18033558 -0.09957507 -0.0015009327 0.009932635
0002c0 e2 0b 63 3e d1 29 64 be ba 14 ca bc 07 5b 55 3b
       0.22172502 -0.22281577 -0.024668086 0.0032555477
0002d0 12 ba 1a 3e 54 75 21 be b9 8a 33 3c 0a fc 7d be
       0.15110043 -0.15767413 0.010958367 -0.24803177
0002e0 61 da f0 3c a3 a4 ca bd 70 28 fe 3b f2 81 bf bd
       0.029401006 -0.09894683 0.0077562854 -0.09350957
0002f0 bf eb a4 bd 35 9d 98 bd 69 06 f2 bd 1b 1c 46 bd
       -0.080527775 -0.0745186 -0.11817629 -0.048366647
000300 d1 6e a1 3b 0f 7c c9 3d 69 f2 8c bd fc a2 ca bc
       0.0049265404 0.098381154 -0.068821736 -0.02473592
000310 d1 08 c1 3d 53 62 1a bb b1 06 60 3d a7 12 e7 3d
       0.0942551 -0.002355714 0.05469388 0.112828545
000320 1b 65 a9 bd a6 b2 11 3e 1e 57 8e bd 54 9a 95 bd
       -0.082712375 0.14228305 -0.0695021 -0.073048264
000330 cc 20 8f 3d 30 26 04 bd e6 9f 30 bd 16 5c 58 3d
       0.069886774 -0.03226298 -0.04312124 0.052822195
000340 84 3e 33 3c d7 59 00 3e a5 2c 6d bd cb 6f e3 3d
       0.010940198 0.12534271 -0.057903904 0.11105307
000350 08 52 c4 3d 08 15 05 3d 4c ec 8b bd 28 a7 2c be
       0.09585959 0.03249076 -0.068321794 -0.1686064
000360 c3 c3 f5 3d fd c7 e9 bc c7 d4 5d bd ad 66 ea 3d
       0.12000229 -0.028537745 -0.054158 0.11445365
000370 e5 1f c5 3d eb 77 d3 3d 1b a2 36 bc cf 63 3c bd
       0.09625224 0.10325607 -0.011147047 -0.045993622
000380 78 24 f0 3d 9e 84 e3 3c ae 65 eb 3d 6b 9a a6 bd
       0.11725706 0.027773198 0.11494003 -0.08134922
000390 7a 55 8c 3d f4 be 51 3c 5a 1b 65 3d b4 cf e6 3d
       0.06852241 0.012801874 0.055934288 0.11270085
0003a0 ba 89 2f bd 95 4d c4 be 30 76 88 3d 14 b7 8e 3d
       -0.042855956 -0.3834044 0.066631675 0.06968513
0003b0 0b 3e 41 be 9c 05 a4 bd 6a 17 b4 3d 18 73 8e bd
       -0.18871324 -0.080088824 0.087935284 -0.06955546
0003c0 3c 37 62 3d 17 69 5f be 20 95 b8 be 6f 9e 59 bd
       0.055228457 -0.21817432 -0.36051273 -0.05312961
0003d0 39 33 4c bd 88 28 d6 3d e3 b7 8d bb 7a 18 d1 bd
       -0.049853537 0.104569495 -0.0043248995 -0.10209747
0003e0 d5 c5 be bd 05 64 10 be 25 f9 03 3e a1 06 dc 3d
       -0.09315077 -0.14100654 0.1288801 0.10743452
0003f0 3c c9 a3 3c 13 a1 27 3e f7 17 e1 3d 2a 47 86 3d
       0.019993417 0.16370039 0.10990899 0.06556542

model.11.bias f4 [32]
000000 0c 83 6b 3d 30 a4 38 3e 3f f4 30 3e c3 26 e4 bc
       0.057498023 0.18031383 0.17280672 -0.027850514
000010 cd 00 83 3d bf 37 96 3d 4d ce 24 3e 35 66 7c bc
       0.06396637 0.073348515 0.16094323 -0.015405227
000020 8a 01 26 3e 07 05 b1 3c b1 fc 5c 3e eb 02 9c 3e
       0.16211525 0.021608843 0.21580769 0.30470976
000030 76 66 cb 3d 64 06 69 bc d1 27 1b 3d 5e aa c6 3d
       0.09931652 -0.014222715 0.03787977 0.09700464
000040 62 54 cb 3d 98 7e 22 3b 14 38 bc 3e 89 eb 3f bc
       0.09928204 0.0024794694 0.36761534 -0.011713871
000050 39 9b 8a 3e 7c b7 52 3d 20 33 9d 3d 39 3c d4 3d
       0.2707155 0.051444516 0.07675767 0.10363049
000060 25 0f 70 3c 7f 15 cf 3d 5f 79 58 bd e2 e0 e5 3d
       0.014652048 0.10111522 -0.052850123 0.112245336
000070 ff a0 01 3e 23 1a e8 3d c4 36 13 3e 3d b3 40 bc
       0.12659071 0.1133311 0.1437636 -0.011761484
