results/Weights/model2_nos.pth (torch, 142626 bytes, 17 tensors)

model.0.weight f4 [128, 8]
-0.45911223 0.14510451 0.14896552 -0.428549 -0.014676806 0.0001705436 -0.5046691 -0.4400682
0.4117815 0.030390242 -0.041930955 0.13996254 -0.33837077 0.09197961 0.6660994 -0.14036603
-0.22421873 -0.15626702 0.18345818 0.039882984 0.061008498 0.0767886 -0.116564624 0.06988355
-0.079448916 -0.33947748 -0.13386112 -0.1607174 -0.24410658 -0.3071814 -0.3067687 0.00361523
-0.2030817 -0.11418627 0.33434102 -0.19855817 0.06529344 -0.19926895 0.017620517 -0.37201273
-0.13327946 -0.10928022 0.26022053 0.13250107 -0.02292497 -0.41162264 -0.27115652 0.16228011
-0.32967544 -0.100185074 -0.02714637 0.08215979 -0.3880325 0.11384963 0.3928753 0.2700472
-0.37667155 0.0075095384 0.036654796 0.18545334 -0.06164079 0.14885157 -0.25883183 -0.031032385
-0.21807033 -0.10573373 0.21776801 0.21479575 0.020413538 -0.024534121 -0.15674531 -0.16125318
0.10014511 0.01297907 0.15972617 -0.22614427 -0.47143638 0.3896597 0.27884576 -0.38636464
0.297122 0.20864478 -0.17098652 -0.37839282 0.05321457 0.08217043 -0.07073097 -0.28946018
0.25354898 -0.091361426 0.0041121417 0.10098389 -0.099558525 -0.15638815 0.09532635 -0.22174548
-0.11013803 0.026775103 0.2535773 -0.06466194 -0.02427496 -0.3115464 0.24995334 -0.03189742
0.299054 0.04967288 0.2120383 0.06583645 -0.094554044 -0.39223862 0.28377336 -0.1346954
0.020256408 -0.1572668 -0.27048415 -0.3161641 0.051385228 0.08590472 0.28241342 0.19676572
0.26048815 -0.0035097862 0.020024281 -0.42350277 -0.079927005 0.20366603 0.38265026 0.22229134
0.32820603 -0.075365216 0.17940715 -0.08844529 -0.14280535 0.010434081 0.08386782 0.22401895
-0.19715744 -0.019450655 -0.21283206 -0.30939946 -0.30447894 0.29274845 0.32443616 -0.1993746
-0.22382657 -0.26982626 -0.27964255 0.047415666 -0.30195212 -0.25783196 0.32499886 -0.124208614
-0.044437513 -0.27776298 0.49813163 -0.50423455 0.17046145 -0.2121669 0.34040323 -0.47829884
0.31774256 0.084991425 -0.3183685 0.13391998 -0.006607718 0.09434413 0.12360843 0.3609159
-0.50372875 0.026496394 -0.040797018 0.22827372 -0.13669504 0.056721695 0.0008896095 -0.33884716
0.1863639 -0.35357663 0.020356897 0.25227538 -0.41181558 -0.11598429 -0.14335683 0.2570793
-0.34054852 -0.06107591 -0.13804726 0.068027295 0.3035805 -0.19264206 0.27502486 0.09788374
-0.016714983 0.11392992 -0.09225115 0.35593075 -0.6648063 0.06438475 0.6606443 -0.1277901
-0.40083733 0.1305818 0.1751137 0.06504997 -0.1979059 0.025609095 0.1958538 -0.27763936
0.14696312 -0.23764811 0.16073264 -0.27771732 0.1035094 0.34043828 -0.07893829 0.0054248055
0.025169898 0.22194311 -0.25897002 0.076982714 -0.039289128 0.21520044 0.43403292 -0.128436
0.169002 -0.27002904 0.2741965 -0.33317393 0.054889757 -0.026981806 -0.12757151 0.23066401
-0.12697428 -0.19776857 -0.3239556 0.14318405 0.038588136 0.0949013 -0.07409091 0.22258344
0.066701174 -0.0053545116 -0.25107127 -0.01531407 0.034041427 0.3722902 0.47405708 0.2757647
0.5158539 0.057064045 -0.17300576 0.14059037 0.07643689 0.019299908 0.36632553 -0.16977951
00000000: c210 ebbe 4796 143e 6b8a 183e c66a dbbe
00000010: fc76 70bc f3d3 3239 fe31 01bf 9e50 e1be
00000020: 06d5 d23e f5f4 f83c cbbf 2bbd 5752 0f3e
00000030: ef3e adbe ce5f bc3d 7e85 2a3f 1dbc 0fbe
00000040: 9899 65be 7604 20be 76dc 3b3e 575c 233d
00000050: 0ce4 793d 5743 9d3d 6fb9 eebd 1b1f 8f3d
00000060: 1db6 a2bd fecf adbe e412 09be 1a93 24be
00000070: 13f7 79be e146 9dbe c910 9dbe 7fed 6c3b
00000080: a6f4 4fbe 7eda e9bd bf2e ab3e d552 4bbe
00000090: 91b8 853d 290d 4cbe e758 903c 7478 bebe
000000a0: 697a 08be 4fce dfbd a03b 853e 5cae 073e
000000b0: 26cd bbbc 34c0 d2be 07d5 8abe c22c 263e
000000c0: 38cb a8be d52d cdbd 1062 debc 6443 a83d
000000d0: 32ac c6be ff29 e93d f426 c93e a043 8a3e
000000e0: 18db c0be 9312 f63b 5723 163d 7be7 3d3e
000000f0: 0e7b 7cbd 8c6c 183e 9b85 84be a137 febc
00000100: d44d 5fbe ed8a d8bd 94fe 5e3e 6bf3 5b3e
00000110: 4b3a a73c c8fb c8bc d881 20be 8e1f 25be
00000120: e118 cd3d 2aa6 543c 428f 233e 5d92 67be
00000130: 1c60 f1be 7a81 c73e dfc4 8e3e 96d1 c5be
00000140: 6020 983e faa6 553e 1717 2fbe b4bc c1be
00000150: 85f7 593d f848 a83d 66db 90bd 2034 94be
00000160: 2cd1 813e b31b bbbd 25bf 863b a4d0 ce3d
00000170: 57e5 cbbd 3724 20be 763a c33d 3f11 63be
00000180: 0c90 e1bd 7657 db3c e2d4 813e 7b6d 84bd
00000190: 48dc c6bc 0283 9fbe c5f3 7f3e dea6 02bd
000001a0: 9b1d 993e ca75 4b3d 9120 593e 43d5 863d
000001b0: 8da5 c1bd 80d3 c8be be4a 913e 97ed 09be
000001c0: c4f0 a53c 8c0a 21be e67c 8abe 43e0 a1be
000001d0: 5179 523d d0ee af3d 7e98 903e f47c 493e
000001e0: b45e 853e 7104 66bb f609 a43c 5bd5 d8be
000001f0: c5b0 a3bd d48d 503e bcea c33e 57a0 633e
00000200: 9f0a a83e 1459 9abd 82b6 373e ce22 b5bd
00000210: 913b 12be b5f3 2a3c e4c2 ab3d 3965 653e
00000220: a4e3 49be fb56 9fbc a6f0 59be 9b69 9ebe
00000230: aae4 9bbe 20e3 953e 7f1c a63e db28 4cbe
00000240: cb32 65be ab26 8abe 4f2d 8fbe ee36 423d
00000250: 7899 9abe 8d02 84be 4066 a63e 1661 febd
00000260: 1c04 36bd f336 8ebe 1c0b ff3e 8415 01bf
00000270: 728d 2e3e 4842 59be 5549 ae3e 96e3 f4be
00000280: 27af a23e fc0f ae3d 3201 a3be 5222 093e
00000290: 8e85 d8bb 7f37 c13d 6b26 fd3d f8c9 b83e
000002a0: 5ef4 00bf f70e d93c c61a 27bd 96c0 693e
000002b0: c9f9 0bbe 0255 683d af34 693a 607d adbe
000002c0: 2ed6 3e3e ff07 b5be 82c3 a63c 3d2a 813e
000002d0: 7ed9 d2be 2c89 edbd 22cc 12be e69f 833e
000002e0: 605c aebe bc2a 7abd 435c 0dbe e551 8b3d
000002f0: e76e 9b3e f643 45be 0fd0 8c3e 4577 c83d
00000300: dced 88bc 1754 e93d 2cee bcbd 8e3c b63e
00000310: bf30 2abf 27dc 833d fc1f 293f 68db 02be
00000320: 8d3a cdbe 3cb7 053e 0151 333e eb38 853d
00000330: d8a7 4abe 2aca d13c e68d 483e bf26 8ebe
00000340: 807d 163e 075a 73be 1997 243e f730 8ebe
00000350: bcfc d33d ed4d ae3e 66aa a1bd 91c2 b13b
00000360: 1a31 ce3c 0e45 633e b897 84be 1da9 9d3d
00000370: a3ed 20bd 815d 5c3e 9039 de3e ba84 03be
00000380: dc0e 2d3e 3f41 8abe 7c63 8c3e c695 aabe
00000390: 15d4 603d f308 ddbc 1ba2 02be 3033 6c3e
000003a0: 8c05 02be d883 4abe 82dd a5be d79e 123e
000003b0: 980e 1e3d 9d5b c23d fabc 97bd eaec 633e
000003c0: a09a 883d e674 afbb 6a8c 80be dde7 7abc
000003d0: 066f 0b3d d29c be3e 9cb7 f23e 0831 8d3e
000003e0: 000f 043f fdbb 693d 6c28 31be ecf6 0f3e
000003f0: f28a 9c3d d71a 9e3c 058f bb3e aeda 2dbe

model.0.bias f4 [128]
0.17187546 -0.53790754 0.2478723 0.26866788 0.65278405 -0.035459068 0.035503563 -0.15928845
0.12473355 -0.21896715 -0.020018812 -0.13691838 -0.48642004 0.41216415 -0.20290779 -0.13749912
0.149565 -0.399243 0.217702 0.050863504 -0.6362251 -0.2469045 -0.060902875 -0.072441705
-0.3969811 0.18982463 0.34508714 -0.20047984 -0.14770693 0.09038008 -0.56268877 -0.6200524
-0.5825464 -0.0028815027 -0.025055518 0.33129168 0.082943134 -0.031190116 0.0038616562 -0.3451608
-0.030976294 -0.110777676 -0.15814507 -0.014889153 0.48487368 0.41877005 -0.3378035 0.08713279
-0.27002007 0.4626606 0.04596538 0.1217946 -0.17084451 -0.29226494 -0.17628516 0.15482423
-0.40943483 -0.10659609 0.3340622 -0.42119855 0.1161883 0.29470664 0.3947054 -0.5255755
-0.108960964 -0.1495199 0.037760887 0.10811404 -0.15844503 0.060926337 -0.051920112 0.24276412
0.48322293 -0.07025597 -0.54329836 0.2831229 -0.19155669 0.08053819 -0.08195687 -0.29967752
-0.163137 -0.45956638 -0.16639835 0.02031403 -0.3251726 0.0735856 -0.04844318 0.21616893
0.013967308 -0.17681561 -0.64235693 -0.18341222 -0.34534466 -0.38382968 -0.3901842 -0.07609378
-0.065049514 -0.54040647 0.3452277 0.50249684 -0.0011596114 -0.052708995 0.042103477 0.2579239
0.10588377 -0.048255954 -0.29770085 0.56009763 0.32537484 -0.37576237 -0.2722356 -0.28237462
0.25195134 0.066244505 -0.4057418 0.3222924 -0.3227851 0.054717734 0.47340336 -0.30296296
-0.32663378 -0.19482237 -0.3459664 0.2873747 -0.4242027 0.31323013 -0.38482696 -0.2476109
00000000: 1f00 303e 4fb4 09bf 3cd2 7d3e d68e 893e
00000010: db1c 273f 873d 11bd 2f6c 113d 831c 23be
00000020: 4e74 ff3d ed38 60be 7efe a3bc 5534 0cbe
00000030: 0c0c f9be 2e07 d33e 0fc7 4fbe 92cc 0cbe
00000040: 9127 193e 9469 ccbe 46ed 5e3e 4056 503d
00000050: a6df 22bf 89d4 7cbe 4b75 79bd 515c 94bd
00000060: 1b41 cbbe 6361 423e 43af b03e 964a 4dbe
00000070: 7c40 17be 3119 b93d 5f0c 10bf c1bb 1ebf
00000080: c321 15bf 98d7 3cbb 3b41 cdbc 109f a93e
00000090: 17de a93d 6a82 ffbc d713 7d3b ebb8 b0be
000000a0: ffc1 fdbc 68df e2bd c8f0 21be a2f1 73bc
000000b0: 5d41 f83e 0769 d63e 95f4 acbe ad72 b23d
000000c0: 1240 8abe dae1 ec3e 3246 3c3d 726f f93d
000000d0: ddf1 2ebe c0a3 95be 1984 34be 3e8a 1e3e
000000e0: 71a1 d1be 0d4f dabd 330a ab3e 56a7 d7be
000000f0: 22f4 ed3d cae3 963e d416 ca3e 1e8c 06bf
00000100: ed26 dfbd bf1b 19be 29ab 1a3d e56a dd3d
00000110: 6a3f 22be e58d 793d 2faa 54bd 2897 783e
00000120: ff68 f73e 5de2 8fbd 9a15 0bbf 7cf5 903e
00000130: 7027 44be 35f1 a43d 01d9 a7bd 556f 99be
00000140: 630d 27be 494c ebbe 5464 2abe 9c69 a63c
00000150: 067d a6be 0cb4 963d 5b6c 46bd 635b 5d3e
00000160: 23d7 643c 270f 35be 8171 24bf 6ad0 3bbe
00000170: 04d1 b0be 5385 c4be 39c6 c7be 0ed7 9bbd
00000180: ae38 85bd 1458 0abf afc1 b03e a2a3 003f
00000190: 1afe 97ba 63e5 57bd b274 2c3d 9a0e 843e
000001a0: 97d9 d83d 09a8 45bd 3f6c 98be 8f62 0f3f
000001b0: 8897 a63e ed63 c0be 7762 8bbe 6893 90be
000001c0: c4ff 803e 33ab 873d 64bd cfbe 8203 a53e
000001d0: 1744 a5be b41f 603d ed61 f23e f61d 9bbe
000001e0: 8b3c a7be 847f 47be 8222 b1be c722 933e
000001f0: 1931 d9be b35f a03e 0a08 c5be b68d 7dbe

model.3.weight f4 [128, 128]
-0.09428325 0.029514128 -0.034726262 -0.043729566 -0.18945596 0.011205784 -0.0028284611 -0.08345747
-0.10782539 0.04109584 0.07867877 0.06928675 0.035015885 0.064495236 -0.013054586 0.067662336
0.07827208 0.1832795 0.03292381 -0.09450005 -0.045789547 0.25864163 0.13677071 -0.009380799
0.10687131 0.037555274 -0.056262925 0.035431582 -0.07628465 0.02274424 -0.015289006 0.03566567
0.014614414 0.036292918 0.13328378 -0.0026694797 -0.014685836 -0.014454386 -0.008897436 0.06949884
-0.11381612 0.076276645 0.008989385 0.034559067 -0.046299845 -0.22313775 0.0067689186 -0.0665015
-0.02087309 -0.0036719611 0.050293367 -0.0042029596 0.043620598 -0.11134888 0.035060886 -0.10791144
0.08274482 0.08522979 0.026340505 -0.06204176 -0.28173336 0.19393873 -0.09986367 0.00058495067
-0.016420709 -0.017977696 0.02053716 0.031803686 0.03416799 -0.019996472 0.030686053 -0.021808458
-0.118819185 -0.044231158 0.04617926 0.038344897 0.13436191 0.06999285 -0.0038826752 -0.08813097
0.023742836 -0.078024976 0.008593442 0.075148456 -0.02557283 -0.027813718 -0.009299521 0.0010826483
0.05417388 -0.080558866 0.10813989 0.042218324 -0.039696798 0.020433027 0.004723949 0.02158681
0.12479244 0.12525898 0.02480793 -0.12705712 -0.02798405 0.07360398 -0.04020588 0.055550274
-0.15434508 0.049092192 0.21910675 -0.015379805 0.043589283 0.14917949 -0.05663838 0.035474222
0.07986161 0.105792664 0.045795795 -0.07015926 0.034092113 0.016711924 -0.061513014 0.033322737
-0.08906311 0.024024656 0.06345076 0.072952986 -0.0795676 -0.030696865 -0.04569936 0.11322662
0.014300241 -0.070401974 -0.08503045 0.082681134 0.2460537 -0.05615533 0.0061817565 -0.03434336
-0.050404657 0.047127627 -0.07413309 0.050105195 0.0579626 -0.04259623 0.087246 0.01594814
-0.02128621 -0.011439224 0.035734773 0.01262402 -0.1012607 -0.12132062 -0.050734412 -0.01951979
-0.09652192 -0.040103566 0.07655005 -0.0057859914 0.22688946 0.040912334 -0.02397579 -0.07180785
0.06286248 0.0039838813 -0.17034027 0.078039184 -0.10736942 0.015812933 -0.06758109 0.01781521
0.046390276 0.07551517 -0.045878064 0.006313875 -0.027021155 0.011393523 -0.053941403 -0.02666925
0.016807541 0.033211175 0.0030268275 -0.13408977 -0.095350705 -0.050757732 -0.06331356 0.10534197
0.007491834 -0.10370437 0.06364352 -0.10424791 -0.07515213 0.071252696 0.104071155 0.0060813534
-0.019618955 -0.004429444 -0.19348861 -0.057329334 0.08291719 -0.024652228 0.025409076 0.039825264
-0.07459128 0.034203947 0.025903415 -0.030053105 -0.1020354 -0.013466718 0.059280444 -0.07561475
-0.06889303 0.05833924 -0.16043879 0.057211768 -0.07165867 0.06448524 -0.12843856 0.0122543685
0.014356074 -0.0047261207 -0.1270442 0.003293165 0.005504232 0.01804159 -0.07380594 0.005206676
-0.15065874 0.0040349825 -0.009891391 -0.07403285 -0.031003103 -0.110826336 -0.048038967 -0.033952344
0.303383 -0.020236883 -0.078045115 0.0053897663 -0.048546154 -0.17291376 -0.06295032 -0.026732998
-0.009627806 -0.07546101 0.010126417 0.08501936 0.07383449 -0.12691979 0.0701139 0.023578309
0.011282601 0.022919847 -0.0028574755 0.03738653 0.053350795 0.02355654 0.0009460357 -0.19558732
00000000: 9417 c1bd 9dc7 f13c 203d 0ebd c61d 33bd
00000010: be00 42be 7798 373c b45d 39bb c0eb aabd
00000020: 8fd3 dcbd 1d54 283d 5622 a13d 36e6 8d3d
00000030: d16c 0f3d 1416 843d e7e2 55bc 8d92 8a3d
00000040: 1d4d a03d 9fad 3b3e 1edb 063d 3e89 c1bd
00000050: d28d 3bbd ad6c 843e 9f0d 0c3e ecb1 19bc
00000060: 58df da3d 8fd3 193d f473 66bd b520 113d
00000070: 203b 9cbd 2152 ba3c bd7e 7abc 2a16 123d
00000080: 4c71 6f3c e2a7 143d 8b7b 083e 70f2 2ebb
00000090: dc9c 70bc 17d2 6cbc 8dc6 11bc 6855 8e3d
000000a0: 6d18 e9bd ee36 9c3d 3748 133c cf8d 0d3d
000000b0: e8a4 3dbd 397e 64be cecd dd3b f031 88bd
000000c0: 0bfe aabc 49a5 70bb 6b00 4e3d fbb8 89bb
000000d0: 83ab 323d e20a e4bd 019c 0f3d ac00 ddbd
000000e0: 1e76 a93d f58c ae3d 0bc8 d73c 801f 7ebd
000000f0: 5b3f 90be e097 463e 5385 ccbd 6057 193a
00000100: b984 86bc f645 93bc 8c3d a83c 9544 023d
00000110: bcf3 0b3d a4cf a3bc 5161 fb3c a7a7 b2bc
00000120: 7957 f3bd bb2b 35bd 7726 3d3d 8a0f 1d3d
00000130: 2b96 093e 6958 8f3d 7b74 7ebb 037e b4bd
00000140: 5680 c23c 8fcb 9fbd 82cb 0c3c 6fe7 993d
00000150: 1d7e d1bc 98d9 e3bc 055d 18bc a6e7 8d3a
00000160: 6ee5 5d3d 0cfc a4bd 7278 dd3d 1fed 2c3d
00000170: 1c99 22bd 2a63 a73c 5bcb 9a3b d2d6 b03c
00000180: 2e93 ff3d e443 003e 003a cb3c 431b 02be
00000190: ce3e e5bc afbd 963d ecae 24bd af88 633d
000001a0: a30c 1ebe e514 493d 855d 603e 94fb 7bbc
000001b0: ad8a 323d 82c2 183e a5fd 67bd 6b4d 113d
000001c0: 7c8e a33d d3a9 d83d 5f94 3b3d a8af 8fbd
000001d0: 2ca4 0b3d 72e7 883c 12f5 7bbd 6c7d 083d
000001e0: b866 b6bd 5bcf c43c 79f2 813d 6068 953d
000001f0: 56f4 a2bd fe77 fbbc 412f 3bbd 5ce3 e73d
00000200: 8f4b 6a3c e92e 90bd 7224 aebd ba54 a93d
00000210: 80f5 7b3e 2203 66bd 5590 ca3b a0ab 0cbd
00000220: 1d75 4ebd e608 413d 17d3 97bd 1b3b 4d3d
00000230: 316a 6d3d 6279 2ebd 08ae b23d aca5 823c
00000240: 6b60 aebc 956b 3bbc a05e 123d fad4 4e3c
00000250: c561 cfbd f276 f8bd e3ce 4fbd f7e7 9fbc
00000260: 49ad c5bd a343 24bd 46c6 9c3d 6a98 bdbb
00000270: b655 683e b193 273d e068 c4bc fe0f 93bd
00000280: 0bbe 803d 388b 823b ae6d 2ebe 02d3 9f3d
00000290: 80e4 dbbd 208a 813c f467 8abd 34f1 913c
000002a0: bb03 3e3d b3a7 9a3d a3ea 3bbd 9fe4 ce3b
000002b0: 785b ddbc e6ab 3a3c a9f1 5cbd 7979 dabc
000002c0: f8af 893c 7108 083d bd5d 463b d44e 09be
000002d0: 3b47 c3bd 57e7 4fbd 8aaa 81bd 88bd d73d
000002e0: 0f7e f53b f562 d4bd 8957 823d ee7f d5bd
000002f0: 5ce9 99bd efec 913d 4223 d53d 1746 c73b
00000300: eeb7 a0bc df24 91bb e121 46be 2ad2 6abd
00000310: 7dd0 a93d 78f3 c9bc b226 d03c d11f 233d
00000320: 50c3 98bd 7019 0c3d 6633 d43c ee31 f6bc
00000330: f0f7 d0bd 82a3 5cbc 0dd0 723d e8db 9abd
00000340: ca17 8dbd 20f5 6e3d 114a 24be e356 6a3d
00000350: c8c1 92bd d610 843d 6685 03be 8cc6 483c
00000360: bd35 6b3c 93dd 9abb e017 02be 24d2 573b
00000370: d85c b43b f5cb 933c 9227 97bd c49c aa3b
00000380: 4946 1abe e337 843b 800f 22bc 899e 97bd
00000390: 38fa fdbc ebf8 e2bd 82c4 44bd 9d11 0bbd
000003a0: 0455 9b3e d2c7 a5bc 1ed6 9fbd a39c b03b
000003b0: 55d8 46bd 4e10 31be 19ec 80bd 29ff dabc
000003c0: f2bd 1dbc 4d8b 9abd 45e9 253c a11e ae3d
000003d0: 8936 973d 43f7 01be e097 8f3d 4c27 c13c
000003e0: a9da 383c 67c2 bb3c 7c44 3bbb 9e22 193d
000003f0: 5d86 5a3d a5f9 c03c 62ff 773a 0b48 48be

model.3.bias f4 [128]
-0.341225 0.3438076 0.1739478 0.22856194 -0.1350404 -0.34933254 -0.25248083 -0.111068375
0.24469748 -0.3522175 -0.3630333 -0.33478528 -0.11749351 0.15664011 -0.07508354 -0.25987867
-0.10658743 0.22137582 -0.4235542 0.005653358 0.17432542 0.17204653 0.21123776 -0.1750207
-0.06428577 -0.37201974 -0.36462432 -0.023245763 -0.2115916 0.2937385 -0.07442828 -0.13515522
0.22917956 0.08132668 -0.31242767 -0.38191733 -0.46795225 -0.17627066 -0.23878588 0.3593258
0.2628132 0.1786216 0.28507325 -0.03201571 -0.4096042 -0.28071645 0.29127735 -0.37962654
0.3210441 0.16298126 -0.061656773 -0.17515211 -0.39374745 0.034105524 -0.12907313 -0.23520024
0.36190805 0.18141161 -0.16685233 -0.028725823 -0.28105262 -0.4108224 0.19006157 -0.23382613
0.15335917 -0.37361148 -0.25181255 0.28227344 -0.091367505 0.29126623 -0.36760932 0.17334972
0.05611229 0.21201156 -0.05151336 -0.116545 0.2146621 0.18522322 -0.14925382 -0.356505
-0.03152667 0.29999375 0.19241846 0.15257984 -0.36291537 0.061881665 -0.27493116 -0.32130557
-0.28281263 -0.31277308 0.10652958 0.341631 -0.38998663 -0.27934134 0.3158746 -0.07355317
-0.37495577 0.2765934 -0.3094656 -0.43373603 -0.3074226 0.19693118 0.19164331 -0.034417782
-0.32343164 0.012561467 -0.29242846 -0.36434013 -0.08923712 0.11255084 -0.37598827 0.26480696
-0.1593661 -0.16095775 -0.3052484 -0.055706304 0.13730122 0.2833493 0.2312401 0.17542541
-0.0591608 -0.085796535 -0.25275904 -0.024893602 -0.23396978 -0.2895974 -0.29366034 0.03785812
00000000: 0bb5 aebe 8d07 b03e 5f1f 323e 240c 6a3e
00000010: 0848 0abe b7db b2be 2b45 81be d177 e3bd
00000020: fa91 7a3e da55 b4be 80df b9be fa68 abbe
00000030: 70a0 f0bd 4466 203e 66c5 99bd d10e 85be
00000040: 834a dabd 58b0 623e 19dc d8be ce3f b93b
00000050: 5d82 323e f72c 303e b64e 583e a038 33be
00000060: 42a8 83bd 5f79 bebe 0ab0 babe e66d bebc
00000070: 78ab 58be e564 963e db6d 98bd 2166 0abe
00000080: 0cae 6a3e 9a8e a63d 85f6 9fbe ab8a c3be
00000090: 7097 efbe 4c80 34be 4984 74be 8df9 b73e
000000a0: 748f 863e 95e8 363e 1ff5 913e e822 03bd
000000b0: a4b7 d1be 11ba 8fbe 4e22 953e 695e c2be
000000c0: e45f a43e 8fe4 263e d08b 7cbd 135b 33be
000000d0: 4499 c9be 3cb2 0b3d bf2b 04be 55d8 70be
000000e0: 034c b93e f7c3 393e 56db 2abe 6b52 ebbc
000000f0: 21e6 8fbe 5057 d2be 809f 423e 1e70 6fbe
00000100: 300a 1d3e 014a bfbe 93ed 80be 2586 903e
00000110: e31e bbbd d920 953e 4a37 bcbe 9782 313e
00000120: 00d6 653d 8f19 593e acff 52bd 25af eebd
00000130: 62d0 5b3e 28ab 3d3e fed5 18be d387 b6be
00000140: 1c22 01bd c898 993e 5809 453e e43d 1c3e
00000150: 0bd0 b9be a177 7d3d c7c3 8cbe 2a82 a4be
00000160: d1cc 90be cb23 a0be 2e2c da3d 42ea ae3e
00000170: 54ac c7be d405 8fbe 51ba a13e 0ba3 96bd
00000180: 34fa bfbe a69d 8d3e 4672 9ebe a612 debe
00000190: 7f66 9dbe 54a8 493e 253e 443e a9f9 0cbd
000001a0: d598 a5be 9cce 4d3c 2fb9 95be ca8a babe
000001b0: f3c1 b6bd 0e81 e63d 8981 c0be c794 873e
000001c0: de30 23be 1cd2 24be 8549 9cbe 4b2c 64bd
000001d0: b198 0c3e 2913 913e 34ca 6c3e b8a2 333e
000001e0: 9852 72bd 18b6 afbd a269 81be abed cbbc
000001f0: c695 6fbe 1c46 94be a65a 96be 1e11 1b3d

model.6.weight f4 [64, 128]
0.029021597 0.093476675 -0.09065174 0.06034666 0.028551307 0.031160107 0.09821056 -0.088428
-0.045595873 0.05197916 0.016463146 -0.012394212 -0.03551666 0.012475611 -0.13331558 -0.07184141
0.07525845 0.050010256 0.017951969 0.038486242 0.12407861 0.009844286 -0.03018648 -0.07387569
0.020335337 0.024347942 0.023961237 -0.032682262 -0.052096944 -0.0019893153 -0.061873898 0.025289062
0.04254023 0.011051788 -0.12635578 -0.010937737 0.087296106 -0.048397575 -0.068226315 0.015352542
0.060250107 0.033186156 -0.09213079 0.0018903896 0.058460075 -0.052071095 0.031604476 0.04039044
0.10848385 -0.021044448 0.004026561 0.023671431 -0.07227957 0.06722182 0.035323802 -0.11892273
0.04728904 0.061599158 -0.04173737 -0.08576805 0.03396762 0.053074177 0.10404314 -0.08362122
0.09744902 -0.0601876 -0.059544895 0.054889586 0.042936288 -0.0015131616 0.037081838 0.07240495
-0.027610391 -0.08249448 -0.057811406 0.08185761 0.084666274 0.1045945 0.03539276 -0.012173213
-0.026052129 0.05175724 -0.025003297 0.1690093 0.045809183 -0.01728185 0.00013427185 -0.0731261
-0.07335112 0.0040615564 -0.02704377 -0.041974492 -0.1574693 0.052984346 -0.004518247 0.01877283
-0.00093907013 0.06845761 -0.056513246 -0.06589812 -0.12503175 0.033538632 -0.043411523 0.038188975
0.013308998 -0.06846218 -0.030196717 0.10334598 0.03669428 0.054458674 -0.08646943 0.16261281
-0.107468784 -0.032213442 0.007317583 -0.033543 0.1451003 -0.022931742 -0.06674916 0.055499323
0.043153 0.010990226 -0.03987502 0.0040493584 -0.15313278 -0.06816969 -0.030142622 -0.08110865
-0.06511169 0.058604773 -0.05811512 0.045276307 0.05490137 0.05889824 -0.03508063 -0.05590502
0.065802194 -0.009711274 -0.0440504 -0.0952914 -0.099332035 -0.01422699 0.005129174 -0.098967314
0.0894539 0.028927866 -0.057637487 0.072750695 0.020694667 -0.033880312 0.07551564 -0.17432682
0.073298 -0.0035619603 -0.076040514 -0.07982574 -0.049224585 -0.018527439 0.05197441 -0.08639399
0.079739995 -0.043092113 -0.15931167 0.022102045 0.028194625 -0.0016429585 0.01831575 0.036614094
0.06569973 0.058080338 0.07603633 0.067264326 0.059338655 -0.030208338 0.04803086 -0.00068040367
0.07845456 0.043487843 0.049137257 0.0057610692 0.030456712 -0.032427166 -0.054694418 -0.11983161
0.036711954 0.10558914 0.09345859 -0.09419205 -0.12720324 -0.09196296 0.08965595 -0.028186636
-0.010964626 0.059932586 -0.12854607 0.03239721 0.024380378 0.070259765 -0.03853256 0.07329576
-0.048030894 -0.00714859 -0.058579925 0.006712278 0.09118263 0.11280439 0.014175092 -0.008357334
-0.10930659 0.10675998 0.0998767 -0.037364423 0.033805225 0.08829526 -0.048403934 -0.09152532
0.024221044 -0.01897637 0.00048358427 0.025533497 -0.025995951 0.033741504 0.026535124 -0.006230461
-0.0783646 -0.051682245 0.034946304 -0.011726145 -0.03521112 0.08817263 0.09087488 -0.010192995
0.011741923 -0.025428247 -0.11555793 -0.003089405 0.05304714 -0.10890631 -0.009699104 -0.047436014
-0.08091386 -0.009570502 0.050767526 -0.062980354 -0.024698276 0.09372341 0.08689758 0.05363154
0.043063503 0.008130889 -0.1374898 0.06778597 -0.124762595 -0.044669688 0.03184293 -0.04080999
00000000: b3be ed3c b370 bf3d 9fa7 b9bd 0f2e 773d
00000010: 6ee4 e93c 7b43 ff3c 9e22 c93d bd19 b5bd
00000020: bdc2 3abd 1ae8 543d b8dd 863c 1811 4bbc
00000030: eb79 11bd 8166 4c3c e183 08be 9721 93bd
00000040: 1a21 9a3d 8ed7 4c3d 0210 933c c0a3 1d3d
00000050: ed1c fe3d ee49 213c a349 f7bc 234c 97bd
00000060: 4b96 a63c 5675 c73c 5b4a c43c d6dd 05bd
00000070: 9b63 55bd 2c5f 02bb 7c6f 7dbd 022b cf3c
00000080: aa3e 2e3d 8f12 353c 6963 01be 3234 33bc
00000090: 4dc8 b23d 893c 46bd 3dba 8bbd 3a89 7b3c
000000a0: d1c8 763d 35ee 073d 11af bcbd f3c6 f73a
000000b0: d573 6f3d 8048 55bd b273 013d 7270 253d
000000c0: c82c de3d 6865 acbc 3ef1 833b 97ea c13c
000000d0: 5007 94bd 98ab 893d b1af 103d c38d f3bd
000000e0: 27b2 413d 664f 7c3d cef4 2abd 29a7 afbd
000000f0: a221 0b3d 4f64 593d 9214 d53d 9a41 abbd
00000100: 5a93 c73d 4687 76bd 59e5 73bd e7d3 603d
00000110: f6dd 2f3d 4755 c6ba 20e3 173d 0c49 943d
00000120: 302f e2bc def2 a8bd a7cb 6cbd f6a4 a73d
00000130: 8365 ad3d a435 d63d 00f8 103d 2872 47bc
00000140: 466b d5bc 66ff 533d b7d3 ccbc c610 2d3e
00000150: 69a2 3b3d ab92 8dbc 53cb 0c39 23c3 95bd
00000160: 1d39 96bd ce16 853b e58a ddbc 72ed 2bbd
00000170: a23f 21be 1d06 593d ce0d 94bb 7ac9 993c
00000180: ee2b 76ba 8133 8c3d 6f7a 67bd 98f5 86bd
00000190: 5308 00be ce5f 093d 48d0 31bd 0b6c 1c3d
000001a0: fc0d 5a3c e635 8cbd 1b5f f7bc 0fa7 d33d
000001b0: be4c 163d 0f10 5f3d e216 b1bd f983 263e
000001c0: 9818 dcbd 3ef2 03bd 56c8 ef3b 6364 09bd
000001d0: 2c95 143e 59db bbbc c9b3 88bd 4253 633d
000001e0: 33c1 303d 5910 343c fd53 23bd 7bb0 843b
000001f0: d7ce 1cbe 8d9c 8bbd a9ed f6bc 4b1c a6bd
00000200: 4759 85bd 8f0b 703d 1f0a 6ebd a673 393d
00000210: 42e0 603d 483f 713d b5b0 0fbd aafc 64bd
00000220: 4dc3 863d 091c 1fbc 316e 34bd 2328 c3bd
00000230: 986e cbbd 5218 69bc a112 a83b 60af cabd
00000240: 9b33 b73d 22fa ec3c 4915 6cbd 51fe 943d
00000250: dd87 a93c 15c6 0abd f2a7 9a3d bb82 32be
00000260: 431d 963d c76f 69bb 21bb 9bbd ad7b a3bd
00000270: b89f 49bd dbc6 97bc 1ee3 543d 55ef b0bd
00000280: b94e a33d 5b81 30bd 9922 23be 590f b53c
00000290: 6af8 e63c 8a58 d7ba e90a 963c a9f8 153d
000002a0: 948d 863d a6e5 6d3d efb8 9b3d e1c1 893d
000002b0: 170d 733d 7a77 f7bc 02bc 443d 1e5d 32ba
000002c0: c9ac a03d 4f20 323d 2644 493d 5ac7 bc3b
000002d0: 5b80 f93c 59d2 04bd 4107 60bd 466a f5bd
000002e0: 465f 163d 1e3f d83d 3867 bf3d c3e7 c0bd
000002f0: 9141 02be 1457 bcbd 8a9d b73d a9e7 e6bc
00000300: faa4 33bc df7b 753d 95a1 03be f0b2 043d
00000310: 5cb9 c73c 5ae4 8f3d 51d4 1dbd 161c 963d
00000320: 0bbc 44bd b83e eabb 81f1 6fbd abf2 db3b
00000330: f5bd ba3d fd05 e73d a53e 683c 33ed 08bc
00000340: 22dc dfbd faa4 da3d 288c cc3d 700b 19bd
00000350: 5977 0a3d 25d4 b43d 3443 46bd a171 bbbd
00000360: 366b c63c 5574 9bbc 9589 fd39 a02b d13c
00000370: 76f5 d4bc 8834 0a3d 3060 d93c e528 ccbb
00000380: 9f7d a0bd c3b0 53bd db23 0f3d 041f 40bc
00000390: 8939 10bd da93 b43d 9c1c ba3d 8500 27bc
000003a0: 3261 403c e64e d0bc a3a9 ecbd 9d77 4abb
000003b0: f547 593d 450a dfbd fee8 1ebc 444c 42bd
000003c0: 2ab6 a5bd 98cd 1cbc 9cf1 4f3d d8fb 80bd
000003d0: 0a54 cabc 0ff2 bf3d 5cf7 b13d bfac 5b3d
000003e0: 5b63 303d 6c37 053c 20ca 0cbe 5fd3 8a3d
000003f0: 8883 ffbd 90f7 36bd bb6d 023d 6028 27bd

model.6.bias f4 [64]
0.35276082 0.33260894 0.36601776 -0.034927614 0.060741693 -0.3496513 -0.27826905 -0.13522924
0.051071044 0.054150604 0.26351354 0.41684142 0.070842095 -0.013900986 0.028116297 -0.4089048
-0.42936864 0.36645356 0.1226677 0.38182768 -0.47577628 0.26697248 -0.017969819 0.31533796
0.368868 0.25913048 0.008493243 -0.37501118 -0.05685876 -0.5190435 -0.21008873 0.36994445
-0.20036207 -0.26487854 -0.33944246 -0.06475375 0.18389027 0.33092335 -0.28047585 0.2740074
0.036130816 -0.45606124 0.2390395 0.25229755 -0.1361588 -0.38091776 -0.29334927 0.2810956
-0.3174512 -0.26572782 0.2946158 0.1265927 0.28722632 -0.3812848 0.04934428 0.017178692
0.26856136 0.0058311843 0.2980416 -0.26303455 -0.341754 0.23414803 0.093803026 -0.040728886
00000000: 119d b43e b84b aa3e ae66 bb3e 4210 0fbd
00000010: 48cc 783d 7f05 b3be 4879 8ebe 8979 0abe
00000020: df2f 513d 06cd 5d3d 3feb 863e 3d6c d53e
00000030: a915 913d f6c0 63bc 2654 e63c f85b d1be
00000040: 35d6 dbbe cd9f bb3e 3439 fb3d eb7e c33e
00000050: f398 f3be 9eb0 883e 7135 93bc fa73 a13e
00000060: 44dc bc3e c0ac 843e 3e27 0b3c 7701 c0be
00000070: bbe4 68bd 09e0 04bf 8021 57be 5c69 bd3e
00000080: b72b 4dbe 299e 87be 67cb adbe 9d9d 84bd
00000090: bb4d 3c3e c96e a93e 889a 8fbe b34a 8c3e
000000a0: e8fd 133d dc80 e9be c5c6 743e 252d 813e
000000b0: 366d 0bbe a707 c3be e031 96be c3eb 8f3e
000000c0: f788 a2be 7a0d 88be e2d7 963e 84a1 013e
000000d0: 540f 933e c337 c3be 3a1d 4a3d 54ba 8c3c
000000e0: e080 893e 8513 bf3b e998 983e 77ac 86be
000000f0: 61fa aebe 80c4 6f3e cd1b c03d 55d3 26bd

model.8.weight f4 [64, 64]
-0.05351996 -0.01753056 -0.10951936 -0.03255911 0.093543656 -0.09037349 -0.12408678 0.101919405
0.011998689 -0.097569376 -0.093910955 -0.08088888 0.08190742 0.105807535 -0.12380672 -0.00020451393
0.04827222 -0.13963942 -0.045157205 0.05443396 0.06478752 -0.0056215804 -0.061086565 0.056902528
-0.012521988 0.09506828 -0.06059625 -0.07422421 -0.07034228 -0.0038512023 0.051529836 0.05525517
-0.016329119 0.061863147 -0.025524845 -0.07991775 -0.045896087 -0.07996683 -0.05529146 0.068014316
-0.02905914 -0.007492929 -0.0987881 0.0873097 0.034748167 -0.09389134 0.07174963 -0.0051104208
0.039124325 0.025664857 0.014678555 -0.112925805 0.06564466 -0.04649716 0.08355801 -0.0057478333
0.015454863 -0.08582314 -0.021834508 -0.112704076 -0.114357084 0.026228195 0.10593833 0.014087931
0.07247856 0.11373375 0.07019543 0.14456813 0.11820158 -0.043323223 -0.04368863 0.01543977
0.05089946 0.0056683896 0.07829877 0.114411786 -0.005878555 0.05474947 0.02994721 -0.12585028
-0.004168173 0.15025745 0.020445919 0.05868779 -0.051800005 0.10606131 -0.07433667 0.1181788
-0.046073187 0.028403124 -0.045155756 -0.08169925 0.044494417 -0.101852745 -0.013334114 0.01648807
0.09003805 0.11509761 -0.015281604 -0.11036664 0.10197387 -0.032181483 0.10594018 0.027408773
-0.09351833 -0.10055495 0.13758056 0.034373954 0.059740208 -0.083185166 -0.037117835 0.08321071
-0.09497146 0.04081845 0.04888021 0.019013343 0.13180767 -0.15891542 0.025987517 -0.0006669733
-0.044084072 -0.13822703 -0.09867979 -0.064310975 -0.06254355 -0.0736237 0.1282997 -0.054483134
-0.014756347 -0.03214218 -0.003935843 0.11837282 -0.067726746 -0.07501541 0.059958015 0.06746916
-0.021414895 -0.015001712 0.068757586 0.008484427 0.07076308 -0.1137843 -0.03970722 -0.09503316
0.017595308 0.14342625 -0.010819616 0.033330236 -0.011238079 -0.050477844 -0.08812159 0.091667205
-0.07371127 0.0762766 -0.0676831 -0.03229211 0.043494295 -0.01233666 0.058231097 0.0822683
0.01474229 0.03320528 0.0019541152 -0.0717224 -0.13813715 0.079814024 -0.04276655 -0.13141622
0.08072268 -0.17208874 0.10477122 -0.07977374 0.11182636 0.029499164 -0.012198323 0.11065049
0.03802105 -0.03920975 -0.122155905 0.071052216 0.1302577 -0.09742511 -0.03190833 0.059497237
-0.04654091 -0.006510188 -0.04393991 0.08718733 0.04228224 -0.042454258 0.115941525 -0.1269421
0.097693585 -0.08571777 0.035444133 0.0016003116 -0.037795667 0.011059973 -0.10547966 0.091431975
0.11464973 -0.012465098 0.00032172314 0.102832325 -0.06860028 0.10320002 0.034610678 -0.10033399
-0.014346635 0.15976001 0.054769035 0.2030809 -0.13949478 -0.0333226 0.051711973 0.10145378
-0.07623765 0.027151605 0.079692565 0.05684654 0.07046586 -0.0735472 -0.032114103 0.15577525
-0.044365745 0.113188796 0.021091072 -0.09918502 0.06383959 0.11268262 0.04363609 -0.06092886
0.054821074 -0.06782521 -0.010392485 0.035291042 0.07391593 0.07702791 0.05367887 0.1414027
0.04708321 -0.09802747 0.030519716 0.018172408 0.057998363 -0.08210387 0.06910049 0.19979924
0.013667158 0.04816397 0.07912149 -0.07966603 -0.07245818 -0.11574947 0.00918485 -0.080160186
00000000: bf37 5bbd 409c 8fbc b04b e0bd b45c 05bd
00000010: d193 bf3d bc15 b9bd 3621 febd 1fbb d03d
00000020: 2696 443c 74d2 c7bd 6354 c0bd 12a9 a5bd
00000030: 14bf a73d 9fb1 d83d 618e fdbd ca72 56b9
00000040: 17b9 453d a3fd 0ebe c3f6 38bd 25f6 5e3d
00000050: 52af 843d 3c35 b8bb e835 7abd a012 693d
00000060: 0629 4dbc 29b3 c23d c633 78bd dd02 98bd
00000070: 9d0f 90bd 7464 7cbb f310 533d 3f53 623d
00000080: a5c4 85bc 3664 7d3d 7b19 d1bc ebab a3bd
00000090: 89fd 3bbd a6c5 a3bd 4c79 62bd 174b 8b3d
000000a0: 6f0d eebc 3f87 f5bb 6a51 cabd 6ecf b23d
000000b0: 1854 0e3d 1a4a c0bd 78f1 923d 5175 a7bb
000000c0: d440 203d 1b3f d23c 527e 703c a545 e7bd
000000d0: b570 863d ce73 3ebd 7620 ab3d 5258 bcbb
000000e0: 6536 7d3c 0bc4 afbd 48de b2bc 65d1 e6bd
000000f0: 0c34 eabd 83dc d63c 32f6 d83d 11d1 663c
00000100: a46f 943d 3eed e83d 9fc2 8f3d ab09 143e
00000110: ac13 f23d b173 31bd d9f2 32bd 17f7 7c3c
00000120: f47b 503d e6bd b93b 1b5b a03d ba50 ea3d
00000130: e5a0 c0bb fb40 603d da53 f53c e5de 00be
00000140: 2b95 88bb 17dd 193e 337e a73c 9c62 703d
00000150: 3e2c 54bd ac36 d93d d33d 98bd ba07 f23d
00000160: 3db7 3cbd abad e83c 3ef5 38bd f051 a7bd
00000170: c73f 363d 2c98 d0bd 5477 5abc fd11 873c
00000180: df65 b83d 4cb8 eb3d b15f 7abc e807 e2bd
00000190: add7 d03d bbd0 03bd 2af7 d83d 5d88 e03c
000001a0: 8a86 bfbd c1ef cdbd ebe1 0c3e b4cb 0c3d
000001b0: 26b2 743d fc5c aabd df08 18bd 606a aa3d
000001c0: 6680 c2bd 3f31 273d 9d36 483d dfc1 9b3c
000001d0: 97f8 063e b9ba 22be c6e3 d43c d2d7 2eba
000001e0: 8091 34bd 638b 0dbe a118 cabd 79b5 83bd
000001f0: d516 80bd 06c8 96bd ff60 033e b529 5fbd
00000200: 9bc4 71bc 85a7 03bd 3ef8 80bb 736d f23d
00000210: 52b4 8abd aea1 99bd 8996 753d 452d 8a3d
00000220: 4a6e afbc bec9 75bc c7d0 8c3d 4402 0b3c
00000230: 3cec 903d be07 e9bd 0aa4 22bd bfa0 c2bd
00000240: 0924 903c 55de 123e c244 31bc 4985 083d
00000250: eb1f 38bc dbc1 4ebd 1879 b4bd 04bc bb3d
00000260: eff5 96bd e836 9c3d 709d 8abd bb44 04bd
00000270: 1327 323d b41f 4abc bb83 6e3d 487c a83d
00000280: a589 713c 4202 083d 9d10 003b 32e3 92bd
00000290: d373 0dbe 8975 a33d fa2b 2fbd f991 06be
000002a0: ef51 a53d 0838 30be 4b92 d63d 6a60 a3bd
000002b0: 3805 e53d 3ba8 f13c 7adb 47bc b99c e23d
000002c0: f6bb 1b3d 679a 20bd e02c fabd d383 913d
000002d0: 4662 053e d186 c7bd 4fb2 02bd 60b3 733d
000002e0: aea1 3ebd 6a53 d5bb 56fa 33bd 458f b23d
000002f0: 2430 2d3d 84e4 2dbd c072 ed3d 1cfd 01be
00000300: 9313 c83d cc8c afbd de2d 113d 8cc1 d13a
00000310: a1cf 1abd e434 353c b805 d8bd b040 bb3d
00000320: 7acd ea3d 693a 4cbc f3ac a839 c199 d23d
00000330: 4e7e 8cbd 885a d33d edc3 0d3d e87b cdbd
00000340: 260e 6bbc 2198 233e 7f55 603d 70f4 4f3e
00000350: b8d7 0ebe 477d 08bd efcf 533d 00c7 cf3d
00000360: 7c22 9cbd 0b6d de3c db35 a33d ebd7 683d
00000370: 6850 903d ea9f 96bd 148a 03bd 8c83 1f3e
00000380: dbb8 35bd 87cf e73d 2fc7 ac3c 8421 cbbd
00000390: 55be 823d 25c6 e63d c2bb 323d 8a90 79bd
000003a0: 108c 603d f2e7 8abd 3e45 2abc 578d 103d
000003b0: 3c61 973d cfc0 9d3d 60de 5b3d dfcb 103e
000003c0: 53da 403d a0c2 c8bd 7c04 fa3c 4dde 943c
000003d0: b18f 6d3d 1326 a8bd 8f84 8d3d 2c98 4c3e
000003e0: 37ec 5f3c 9547 453d 730a a23d f227 a3bd
000003f0: f464 94bd 0f0e edbd 0e7c 163c 062b a4bd

model.8.bias f4 [64]
0.019650616 0.20052193 -0.1845297 -0.008484334 -0.36674115 -0.4193937 -0.070942864 0.31929556
0.26448604 -0.018397626 0.07909776 -0.057721317 -0.37954795 -0.12322469 -0.3021151 -0.37992436
0.26505578 -0.45293432 -0.10954673 -0.045527082 -0.45956936 0.01747102 -0.08999157 0.24880794
-0.0042084777 -0.39585498 0.37912548 0.00060228584 0.22457741 0.31667116 0.42968145 -0.40493777
-0.43131182 -0.3116775 -0.049591847 0.20349868 0.23499672 0.24589798 0.025811626 -0.3176115
-0.070988536 -0.16128366 0.10927692 -0.30686206 -0.21647318 -0.112866476 -0.39580896 0.37067848
0.27543056 -0.17669843 -0.42204756 0.43902352 -0.17731309 -0.349284 0.2311505 -0.096997045
-0.10551682 -0.11965649 0.387027 -0.17637765 0.21113358 -0.040475376 0.02124909 -0.10846823
00000000: 54fa a03c 9f55 4d3e 5bf5 3cbe e001 0bbc
00000010: 7fc5 bbbe c5ba d6be 7e4a 91bd b57a a33e
00000020: b76a 873e 9eb6 96bc 02fe a13d 306d 6cbd
00000030: 1c54 c2be 3a5d fcbd d5ae 9abe 7285 c2be
00000040: 64b5 873e 02e7 e7be 095a e0bd 9b7a 3abd
00000050: ad4c ebbe 621f 8f3c 804d b8bd 82c7 7e3e
00000060: 45e7 89bb 81ad cabe bc1c c23e b8e2 1d3a
00000070: 9ff7 653e b922 a23e 35ff db3e 0154 cfbe
00000080: e7d4 dcbe 3194 9fbe d220 4bbd f561 503e
00000090: fba2 703e aecc 7b3e e772 d33c f99d a2be
000000a0: 7062 91bd 8b27 25be 94cc df3d 061d 9dbe
000000b0: 25ab 5dbe 8a26 e7bd 79a7 cabe 92c9 bd3e
000000c0: 3c05 8d3e 6ff0 34be 9e16 d8be b1c7 e03e
000000d0: 9091 35be 5ad5 b2be b7b2 6c3e 63a6 c6bd
000000e0: 3419 d8bd 760e f5bd 6728 c63e 589c 34be
000000f0: 6733 583e 82c9 25bd 9212 ae3c 9724 debd

model.11.weight f4 [32, 64]
0.04337486 0.14216001 0.06329443 0.15022731 0.012005319 -0.12781362 -0.17922106 0.026824595
0.03960672 -0.0033869545 -0.0021467663 0.103100695 -0.077588774 0.072987676 -0.040517397 -0.030731985
0.031248221 -0.13886166 0.06589135 0.027349787 -0.023713207 0.06273344 0.046317134 0.035512496
-0.0091169365 -0.11338003 -0.032735243 -0.011163456 0.101407714 -0.09617994 0.12252014 0.026787428
-0.024070606 -0.023234796 -0.08035816 -0.069839664 -0.020632293 0.10500817 0.024454642 0.056884017
-0.0071299346 -0.0455945 -0.073921815 -0.013641064 -0.13268726 0.03151334 -0.08937723 0.1165629
-0.062361244 0.039514307 0.024004001 0.015570552 -0.1081413 -0.12905942 -0.04530757 0.12408429
-0.07194821 0.07598705 0.13277602 -0.019238947 0.08648664 -0.05459331 0.12921892 0.02067168
-0.18512018 -0.016713658 0.030592944 0.11223945 0.06326861 0.07620235 0.12455104 0.08213185
0.07842309 -0.20115593 -0.048805356 -0.108705975 0.0729753 -0.0648383 -0.066699624 0.061133537
0.034529053 -0.02520422 0.0005191043 -0.101040766 -0.16505139 -0.060389496 -0.124752216 -0.018279664
0.12860171 0.0655599 -0.05396188 -0.056702517 0.030560713 -0.11204119 -0.015007298 0.090669945
0.047044642 0.06994173 -0.09904835 -0.03183785 0.1652058 -0.029132254 0.092588075 0.07068945
0.06856828 -0.03705299 -0.072425105 0.057273425 0.0240828 0.065682456 -0.050227582 0.08272346
-0.043888837 -0.15394247 0.0384472 0.11922472 -0.010096554 0.08946926 0.06065548 -0.025876526
-0.036170464 0.10467306 -0.14879218 -0.048615955 -0.061138522 0.05439246 -0.038400482 0.055487435
-0.113985375 -0.040508077 -0.06163563 -0.11490472 0.12772053 0.022207567 -0.03338842 -0.10199391
-0.06045363 0.15273215 0.10839493 0.02559438 0.16068381 0.1247033 -0.09371126 -0.10438764
0.08046154 -0.09620737 -0.054268725 -0.08889742 0.0666184 -0.07927086 -0.10510155 -0.09241553
0.035385247 0.052519973 -0.04717975 0.10672123 -0.08708988 -0.09961751 -0.0261817 -0.08857043
-0.011708178 0.039000507 -0.067118384 0.05959641 0.06484243 0.06916573 -0.01479768 0.04933967
0.12585364 -0.057558496 -0.06770527 -0.08136936 0.015856951 -0.0026587744 -0.026474964 0.094246954
0.07002182 0.08180538 0.07525805 0.103448845 -0.07900782 0.041317027 0.015843317 -0.097023875
-0.046132628 -0.13758366 -0.0036897473 -0.1133206 -0.10162822 0.08982904 -0.0001888084 0.15888414
-0.08317358 0.08450124 -0.119821005 0.1390802 -0.1762716 0.005916209 -0.18558636 0.08280519
0.14918722 0.002284196 0.05885854 -0.13572022 -0.037922096 -0.05664438 -0.19098695 -0.18245722
0.096438006 -0.13878562 -0.035903882 -0.13231157 0.02643432 0.07305283 -0.088589884 0.043640725
-0.0016110667 -0.1108459 -0.09335664 -0.039012328 0.0307493 0.04747524 0.10913629 0.036564607
-0.117196254 -0.046395067 0.06478999 0.022096407 0.10704344 -0.0732744 -0.15838632 -0.10732499
-0.13748944 -0.018261932 -0.15861416 -0.13386776 -0.11159315 0.113191985 -0.04676291 -0.044063423
0.015900329 -0.09144091 -0.03396527 0.08770941 0.0110184485 -0.15582818 0.09611608 -0.04126763
0.08338036 0.05345572 0.03293275 0.066876024 0.158611 0.025771555 0.03654991 -0.06634969
00000000: d6a9 313d 6592 113e 83a0 813d 30d5 193e
00000010: f5b1 443c 93e1 02be ba85 37be 41bf db3c
00000020: a83a 223d abf7 5dbb c3b0 0cbb 7526 d33d
00000030: dde6 9ebd 907a 953d 92f5 25bd a5c1 fbbc
00000040: 45fc ff3c c031 0ebe 0bf2 863d a90c e03c
00000050: 3342 c2bc 647a 803d 09b7 3d3d 8d75 113d
00000060: 345f 15bc ca33 e8bd 6415 06bd eee6 36bc
00000070: d9ae cf3d fdf9 c4bd d7eb fa3d 4f71 db3c
00000080: b82f c5bc e656 bebc d292 a4bd 1908 8fbd
00000090: 0e05 a9bc 860e d73d 1a55 c83c 37ff 683d
000000a0: 3aa2 e9bb 4cc1 3abd 5264 97bd c57e 5fbc
000000b0: 2bdf 07be 2214 013d 690b b7bd 88b8 ee3d
000000c0: 816e 7fbd c1d9 213d 0aa4 c43c a11b 7f3c
000000d0: 3079 ddbd 2728 04be 6e94 39bd e71f fe3d
000000e0: 9559 93bd 199f 9b3d 70f6 073e ff9a 9dbc
000000f0: e81f b13d 3c9d 5fbd f751 043e a857 a93c
00000100: 2590 3dbe 15eb 88bc 0e9e fa3c ccdd e53d
00000110: f992 813d fa0f 9c3d 9e14 ff3d be34 a83d
00000120: 499c a03d d2fb 4dbe 20e8 47bd 3da1 debd
00000130: 1374 953d f1c9 84bd d099 88bd 2967 7a3d
00000140: 566e 0d3d 1579 cebc 8014 083a 76ee cebd
00000150: 3b03 29be fa5a 77bd 177e ffbd 3cbf 95bc
00000160: 2bb0 033e 4544 863d 2207 5dbd e640 68bd
00000170: 765a fa3c da75 e5bd 2ce1 75bc 2ab1 b93d
00000180: e2b1 403d 9c3d 8f3d dcd9 cabd 6868 02bd
00000190: b62b 293e c4a6 eebc d19e bd3d a1c5 903d
000001a0: 876d 8c3d e0c4 17bd 9d53 94bd 8a97 6a3d
000001b0: 4b49 c53c 8684 863d 70bb 4dbd eb6a a93d
000001c0: c8c4 33bd 18a3 1dbe d07a 1d3d 172c f43d
000001d0: 046c 25bc a93b b73d e171 783d 02fb d3bc
000001e0: 7b27 14bd d45e d63d fa5c 18be 8621 47bd
000001f0: 636c 7abd a1ca 5e3d d349 1dbd cb46 633d
00000200: 2a71 e9bd cceb 25bd a475 7cbd 2a53 ebbd
00000210: 2cc9 023e a5ec b53c 4cc2 08bd 2fe2 d0bd
00000220: 3a9e 77bd d165 1c3e 29fe dd3d 4eab d13c
00000230: 4c8a 243e 7264 ff3d b0eb bfbd 30c9 d5bd
00000240: 05c9 a43d 5f08 c5bd e248 5ebd da0f b6bd
00000250: 3a6f 883d c358 a2bd 7b3f d7bd 5a44 bdbd
00000260: 1ff0 103d 2f1f 573d 8e3f 41bd a990 da3d
00000270: 2e5c b2bd 4404 ccbd 017b d6bc 6a64 b5bd
00000280: a8d3 3fbc ffbe 1f3d 5d75 89bd 5d1b 743d
00000290: 1ccc 843d c3a6 8d3d f871 72bc 6518 4a3d
000002a0: c7df 003e 75c2 6bbd 10a9 8abd fba4 a6bd
000002b0: 70e6 813c d53e 2ebb 06e2 d8bc 8c04 c13d
000002c0: 9a67 8f3d 9489 a73d e420 9a3d fddc d33d
000002d0: dace a1bd 0b3c 293d d8c9 813c 74b4 c6bd
000002e0: 91f5 3cbd bbe2 0cbe b0cf 71bb a114 e8bd
000002f0: 7522 d0bd 4af8 b73d defa 45b9 86b2 223e
00000300: e956 aabd fc0e ad3d b764 f5bd 0a6b 0e3e
00000310: 8b80 34be c2dc c13b 5a0a 3ebe c495 a93d
00000320: 89c4 183e 73b2 153b a715 713d 3efa 0abe
00000330: 3354 1bbd f003 68bd 1592 43be 11d6 3abe
00000340: 4a81 c53d d11d 0ebe f30f 13bd af7c 07be
00000350: c98c d83c b99c 953d 9d6e b5bd 9ec0 323d
00000360: 6e2a d3ba 2d03 e3bd c431 bfbd 64cb 1fbd
00000370: f5e5 fb3c 6675 423d d982 df3d c5c4 153d
00000380: 9704 f0bd c108 3ebd 9db0 843d 8603 b53c
00000390: 9739 db3d e310 96bd 0630 22be 34cd dbbd
000003a0: 08ca 0cbe 0c9a 95bc c06b 22be a114 09be
000003b0: f38a e4bd 33d1 e73d 778a 3fbd d97b 34bd
000003c0: 6841 823c 5f45 bbbd 2b1f 0bbd fea0 b33d
000003d0: b986 343c 6c91 1fbe 82d8 c43d 3f08 29bd
000003e0: 52c3 aa3d 63f4 5a3d 7ee4 063d 4cf6 883d
000003f0: ec6a 223e de1e d33c 5cb5 153d 59e2 87bd

model.11.bias f4 [32]
0.26847556 -0.23032376 -0.33474714 0.16552027 -0.14008085 0.12030322 0.021948567 -0.12515984
0.43357447 -0.22267844 0.29885226 0.4158399 0.20493455 0.1584261 -0.12932785 -0.104464926
0.05291355 -0.22983822 -0.07791491 -0.05374509 -0.22771731 -0.41514257 -0.20234996 -0.12314365
0.18733396 0.31401214 0.05861962 0.19428577 -0.14198555 -0.24578044 -0.36126697 -0.34894148
00000000: a175 893e fed9 6bbe fa63 abbe 257e 293e
00000010: 5b71 0fbe 8961 f63d 7bcd b33c e729 00be
00000020: 79fd dd3e d105 64be 2a03 993e f8e8 d43e
00000030: 5dda 513e 743a 223e 856e 04be b5f1 d5bd
00000040: e1bb 583d b65a 6bbe da91 9fbd d023 5cbd
00000050: ba2e 69be 918d d4be d434 4fbe bd32 fcbd
00000060: 79d4 3f3e 33c6 a03e 201b 703d d9f2 463e
00000070: a964 11be dead 7bbe fcf7 b8be 75a8 b2be

model.13.weight f4 [32, 32]
-0.035560645 -0.15177691 0.056604873 -0.05173833 -0.15879335 -0.10253315 0.14156732 -0.14021468
0.07569036 -0.15511632 0.06446176 -0.13356702 -0.14798868 -0.14619014 0.14429577 -0.14727166
0.041023616 -0.16463721 -0.09649714 -0.03920698 -0.1313803 -0.008262321 0.12368979 0.10535701
0.16209811 0.16271554 0.042868253 -0.10387847 -0.04495792 0.031383254 -0.016298229 -0.13607687
-0.005666459 -0.039600227 0.15494737 0.00790205 0.047882464 -0.18231353 -0.066336825 0.029669533
-0.10218184 0.057892226 0.06093358 0.009682112 -0.18769757 -0.015077318 -0.078301564 0.13353862
-0.041513767 -0.102026485 -0.0665972 0.015750183 -0.11962799 -0.13237996 -0.03604046 -0.07248478
0.004700365 0.16852382 -0.03407769 -0.09302144 0.13065225 -0.06993724 0.018128335 -0.14808232
-0.10260266 -0.014613895 0.06158724 0.00037954331 0.12561934 0.03863698 -0.1613843 -0.06879074
-0.13210824 0.06625922 -0.12332076 0.05340796 0.038204037 -0.036150143 0.022585072 -0.123641394
0.14698409 0.034155875 0.14623332 -0.1322426 0.17387894 0.17869468 0.25722596 0.12119748
0.15190338 0.11665895 0.16579963 -0.045913473 0.20799544 0.005231905 0.032978952 0.1468066
0.14651945 0.028227607 -0.04373448 -0.027071295 0.0796114 -0.063754424 -0.04437366 -0.12235063
0.0068258783 -0.04780941 0.107202545 0.03164149 0.1765029 0.067505166 -0.102654345 -0.10340023
-0.061589304 0.10070866 0.1571788 0.12982973 -0.0038073168 -0.17536934 0.034839254 0.09821905
-0.08837338 0.20546055 0.1088118 -0.005199253 -0.14351031 0.10011574 -0.1855503 -0.11565005
-0.16136347 0.13179053 -0.043739308 -0.16253473 -0.0091127055 -0.046762843 0.0689276 0.14612365
-0.07869758 0.00019715165 0.122508876 -0.030121423 0.16459596 -0.16828142 -0.17407219 0.13808131
0.07632816 0.22160631 -0.007206598 -0.052021667 0.23401241 0.08109838 0.11339 0.04277617
0.019966282 -0.013291237 -0.0387536 0.11744509 0.0015540926 0.015656052 0.1410965 -0.08230695
-0.1401906 0.19125393 0.0039779753 0.019537047 0.12535007 -0.13632306 0.08707881 0.26534027
0.12128008 0.09411004 -0.099656925 0.0032611769 -0.09783069 0.0133506935 0.011875767 0.07148361
0.05768275 0.21048047 0.12367853 -0.13411714 -0.023047399 0.044522088 0.027281696 0.09971107
-0.06317878 0.031446945 -0.14779533 0.061753314 -0.048041098 0.13728465 0.16088358 0.1810839
0.07669208 -0.1974744 -0.1611093 0.08823463 -0.18951494 -0.1507788 -0.113042556 -0.12553234
0.22516967 0.10746984 0.006741659 0.047698222 0.058088094 -0.117592685 -0.13665351 0.116797455
0.10901156 -0.0614254 -0.10975775 0.022459174 -0.094929844 -0.11994942 0.11092522 0.038210317
0.0049238093 0.13120173 -0.005578434 -0.05959609 -0.16648182 -0.04749448 -0.07745127 -0.12153232
0.027490089 -0.102869034 -0.04663832 0.05307682 0.11430321 -0.01997728 -0.12262265 -0.048269123
-0.10474938 -0.18222983 -0.15134981 0.024940008 0.12225171 -0.097066306 0.06402694 0.007898907
-0.030106733 -0.16111456 -0.12644723 0.18378238 -0.0074926647 -0.14464942 -0.11967671 0.10946138
-0.082002155 0.06784439 0.16481331 -0.1076132 -0.14274529 -0.10897055 0.11657452 -0.13505366
00000000: 0aa8 11bd 686b 1bbe 83da 673d 92eb 53bd
00000010: b99a 22be e6fc d1bd 06f7 103e 7094 0fbe
00000020: 8c03 9b3d d0d6 1ebe 8704 843d cbc5 08be
00000030: 588a 17be deb2 15be 45c2 133e 62ce 16be
00000040: 6108 283d a896 28be 4ba0 c5bd 8097 20bd
00000050: 8f88 06be b05e 07bc 1351 fd3d 6bc5 d73d
00000060: 0cfd 253e e79e 263e 9f96 2f3d 3cbe d4bd
00000070: cc25 38bd ba8b 003d dd83 85bc bc57 0bbe
00000080: b4ad b9bb d933 22bd 86aa 1e3e 9a77 013c
00000090: 6720 443d 66b0 3abe 9adb 87bd 850d f33c
000000a0: b644 d1bd 6620 6d3d 7d95 793d b9a1 1e3c
000000b0: cb33 40be db06 77bc 925c a0bd 59be 083e
000000c0: 570a 2abd 43f3 d0bd 1d64 88bd 8706 813c
000000d0: 85ff f4bd 9d8e 07be 299f 13bd e672 94bd
000000e0: 8505 9a3b 8291 2c3e 0c95 0bbd 0682 bebd
000000f0: b4c9 053e 413b 8fbd e081 943c e4a2 17be
00000100: 5821 d2bd 1e6f 6fbc e742 7c3d 71fd c639
00000110: 5ba2 003e cf41 1e3d ed41 25be 29e2 8cbd
00000120: 6247 07be eab2 873d 988f fcbd 4ec2 5a3d
00000130: d67b 1c3d 2c12 14bd 5404 b93c b337 fdbd
00000140: ff82 163e 08e7 0b3d 30be 153e 9b6a 07be
00000150: 520d 323e bdfb 363e 1fb3 833e 6236 f83d
00000160: 8f8c 1b3e e3ea ee3d 61c7 293e c40f 3cbd
00000170: c2fc 543e 6670 ab3b f014 073d 7854 163e
00000180: 3209 163e 953d e73c ed22 33bd 9fc4 ddbc
00000190: 4d0b a33d ae91 82bd 28c1 35bd f892 fabd
000001a0: 9eab df3b cdd3 43bd 028d db3d 829a 013d
000001b0: 2dbd 343e 2640 8a3d 713c d2bd 80c3 d3bd
000001c0: 1145 7cbd 5840 ce3d 7bf3 203e 16f2 043e
000001d0: 2d84 79bb 0594 33be 9bb3 0e3d 1227 c93d
000001e0: 1afd b4bd 4064 523e b9d8 de3d 7f5e aabb
000001f0: 5ef4 12be 7b09 cd3d e600 3ebe efd9 ecbd
00000200: 773c 25be 19f4 063e fd27 33bd 816f 26be
00000210: 754d 15bc 658a 3fbd ea29 8d3d 70a1 153e
00000220: 322c a1bd 7eba 4e39 efe5 fa3d 34c1 f6bc
00000230: d88b 283e f751 2cbe fb3f 32be 3065 0d3e
00000240: f051 9c3d c4ec 623e 5325 ecbb ac14 55bd
00000250: f3a0 6f3e e816 a63d 0439 e83d 1136 2f3d
00000260: 5490 a33c 7dc3 59bc 18bc 1ebd 0d87 f03d
00000270: b2b2 cb3a 1f41 803c 9a7b 103e 8c90 a8bd
00000280: 208e 0fbe 12d8 433e ad59 823b 280c a03c
00000290: c55b 003e 4698 0bbe 6056 b23d aeda 873e
000002a0: b161 f83d c4bc c03d ee18 ccbd 78b9 553b
000002b0: 755b c8bd debc 5a3c 9492 423c 0066 923d
000002c0: bf44 6c3d 3188 573e 2b4b fd3d 0156 09be
000002d0: e6cd bcbc cb5c 363d dd7d df3c 5135 cc3d
000002e0: e063 81bd 83ce 003d a957 17be 0bf1 7c3d
000002f0: bec6 44bd 5994 0c3e aabe 243e 0f6e 393e
00000300: bd10 9d3d bb36 4abe d6f9 24be 5cb4 b43d
00000310: 3410 42be c265 1abe db82 e7bd 8d8b 00be
00000320: e192 663e 2619 dc3d 22e9 dc3b 365f 433d
00000330: c8ed 6d3d 6fd4 f0bd e6ee 0bbe 8133 ef3d
00000340: 7441 df3d 3399 7bbd acc8 e0bd 4dfc b73c
00000350: 946a c2bd 0ba8 f5bd c32c e33d 6c82 1c3d
00000360: e857 a13b bf59 063e 4ccb b6bb 081b 74bd
00000370: 367a 2abe 9289 42bd c59e 9ebd f0e5 f8bd
00000380: e532 e13c 00ad d2bd d307 3fbd 1467 593d
00000390: cd17 ea3d 65a7 a3bc 9521 fbbd d8b5 45bd
000003a0: d886 d6bd 759a 3abe 72fb 1abe fd4e cc3c
000003b0: 1b5f fa3d b3ca c6bd 8e20 833d 6b6a 013c
000003c0: 65a2 f6bc 37fb 24be 627b 01be 7331 3c3e
000003d0: 0785 f5bb fa1e 14be 1019 f5bd 4a2d e03d
000003e0: bff0 a7bd 00f2 8a3d d2c4 283e 4f64 dcbd
000003f0: d22b 12be f42b dfbd 9fbe ee3d 824b 0abe

model.13.bias f4 [32]
0.04485662 0.12908792 -0.40276384 0.34272787 -0.3604976 -0.24532603 0.38264462 0.05961427
-0.033400085 0.3236137 0.4168209 -0.047517348 0.12724799 0.37955534 0.097070076 0.14825845
-0.08787721 0.23649943 0.06258662 0.056724407 0.180418 0.48301303 0.033096667 0.05690886
0.2667698 0.3729083 0.15792966 -0.44702083 -0.14876878 -0.11409472 -0.15738952 -0.12774089
00000000: 93bb 373d a02f 043e 1037 cebe 077a af3e
00000010: 2493 b8be bf36 7bbe ffe9 c33e 182e 743d
00000020: 87ce 08bd b2b0 a53e 8d69 d53e 8da1 42bd
00000030: 4c4d 023e 1455 c23e adcc c63d 10d1 173e
00000040: f7f8 b3bd e82c 723e 6a2d 803d da57 683d
00000050: 7fbf 383e 7c4d f73e 5f90 073d 4419 693d
00000060: 0d96 883e d6ed be3e 50b8 213e eadf e4be
00000070: d856 18be 7eaa e9bd b82a 21be 82ce 02be
