results/Weights/model1_balance.pth (torch, 149370 bytes, 17 tensors)

model.0.weight f4 [128, 21]
00000000: 1d58 3c3b b68e ebb9 4dd6 c7be 6d3c b03d
00000010: 3f30 09ba 47df a1b9 845b a23b 8c6d fabb
00000020: 8fc0 1e3d d7c8 8b3c 8aec 25bc 0106 b3bb
00000030: bfcc dabc bc65 1abd c225 c2be 9340 c1be
00000040: 5bf2 d23b 0b9a c53b 5908 2dbc 5a86 4f3c
00000050: 5af6 debd e7c7 de3d 3de7 323e 3cf2 c3bd
00000060: de8c 613e ac6a a6bd 4c6b 983c 2c90 78bd
00000070: 7c7e d3bd 5345 013e 1708 14bd 7437 903c
00000080: 3431 1fbd 532c 943d 6ef5 a63e e8c9 93be
00000090: 97d8 1abe 2bad 7dba 4139 013c 6fa9 333d
000000a0: ebd2 973d 9882 afbd 0682 e1bc ae3d 113d
000000b0: 3d30 acbd 11a6 8cbe 7d2b 96bd 9f4d a0bb
000000c0: d7c0 67bc 04cb 81bd 2020 fc3c cc8d 9a3c
000000d0: ef09 193e e49e 1abe 21a6 75be 59b7 81bd
000000e0: 6152 a73d 2c4a 123c 87e7 04be a70d a73c
000000f0: f761 593e 733b df3d fa58 233d fa07 6c3d
00000100: b1bd 003d 9df6 193e 3a30 4fbe 8286 be3d
00000110: 6081 193d 1468 f53c d89c 153e 5962 4bbd
00000120: b1e3 11be 9cc5 13be 01ab a0bd be0c c43c
00000130: 54d2 5ebe 8c80 533e a59d dabd e2e4 1c3e
00000140: d4fb 56bb d8a1 89be f1bc 1ebd ec4b 8b3d
00000150: f570 1c3d 4414 403e 31bd a3bd f488 233e
00000160: e2f6 12bd 67af 4ebe ae9f f2bb bebd 0cbd
00000170: e228 82bd 9c5b 443e a545 1fbe bccc 053e
00000180: faf1 77bd d7f9 763e 1068 dfbb 9754 dbbe
00000190: bace 733d 2020 54bd 225e 24bd 3e4c 9bbd
000001a0: 6c7d dfbd 64ca d7bd 7569 12be 5e47 e3bd
000001b0: 575d 88be 7b48 1c3e 9934 c6bd cb96 1d3e
000001c0: 109c c7bb df4b dc3c 0b90 fdbd 4215 783d
000001d0: 0d29 62bc 5720 023e a27e 6ebd 536c cf3c
000001e0: 91f0 96bd 7700 ef3d 076e edbd e832 86bd
000001f0: cdd0 86bd 8efc 803e 5630 883e e6ef 40bc
00000200: 9374 5fbd 6bdc 153e 04e3 c3bd c672 b4bd
00000210: 7686 f53d 65b2 293d d1ba af3d 5ac2 b63d
00000220: 280c 44be ad7e 163e a974 5ebc 0ca3 483d
00000230: 08e7 083c 740b 6f3e 1093 b73d 76b0 d8bb
00000240: ca36 d0bd 4e7d 2e3d 1f74 06be 9a2b acbc
00000250: 2d1c 27bd 47fd 13be 5c6e 44be 5779 35bd
00000260: fd90 15bd b7ed ca3d 1f01 30bd 2ae4 3fbd
00000270: 53ec c8bd edbb db3d de0d a63d b5b1 743d
00000280: c440 58bc d5a9 25bc 081d 4f3e f944 08be
00000290: 5839 1fbe 5ed5 963c b237 853d d6cd d9bc
000002a0: 4ae7 bd3d 782b 2cbd c656 81bd c412 643e
000002b0: 656b 9f3d b43e ff3c acc2 493d 7f4d 45bd
000002c0: 4969 0e3d b24e 9c3d 86dc d93c 189c 33bb
000002d0: 2129 80bd 0b47 e33d d600 81be 48bc c1be
000002e0: 890d d53d 9b9c d23d fad2 df3d abe4 233d
000002f0: 27ef e9bd bb68 323d dcfd c63c b991 b8bd
00000300: 3492 ef3d 9b80 003e c0a5 0fbd 7df2 6ebd
00000310: e75f 01bd 86ee 8d3c 78d3 8cbd cb61 e03d
00000320: e594 643c 468b 9f3d a9ae 833d d6a3 683e
00000330: 3941 5a3e 2b21 5bbc fa6c ca3c 520e 2c3c
00000340: 8b69 0a3e 2502 5a3d 8205 9a3e ff45 46bd
00000350: d76c 08bd d58e a03d ee30 7f3c 0a86 a63c
00000360: c994 863c e8a4 2d3d 9389 49bc 1d98 dfbb
00000370: 8ce9 bbbd 08ac 83bc 1f08 93bd d8a5 0d3e
00000380: dfc9 463c 0bbe a23b 791d 863d f86a 253c
00000390: 5925 94be 4e23 123e 1ddd f4bb 19dd 573d
000003a0: dff0 e4bd 3073 9dbe 18a9 993c 64da 803c
000003b0: d946 25bc 4ab0 bf3d c50c 9cbb 68c8 32bd
000003c0: 4205 e03d 3fd7 9f3e 41b0 87bd 1c31 75be
000003d0: 4fd8 24be 1561 0ebd de6b 923d e3cf ecbd
000003e0: 2c78 f03b 3a35 afbe be96 153d 0ae3 31be
000003f0: 296b 463d a363 473c 8d4d e93c a1fd 7d3d
0.0028739043 -0.0004492902 -0.39030686 0.08605275 -0.00052333245 -0.00030874668 0.004954757 -0.0076424535
0.038757857 0.017063541 -0.010127196 -0.005463362 -0.026708959 -0.037694678 -0.37919432 -0.3774458
0.0064375824 0.0060303262 -0.010561072 0.012666309 -0.108868316 0.10877972 0.17471023 -0.09567687
0.22026393 -0.08125815 0.01860585 -0.060684368 -0.10326859 0.12624101 -0.036140528 0.017604567
-0.038865283 0.07235017 0.32609123 -0.2886498 -0.15121685 -0.0009676988 0.007887186 0.043862756
0.07413276 -0.08569831 -0.02752782 0.035459213 -0.08407638 -0.2747045 -0.073325135 -0.0048920657
-0.014145098 -0.0633755 0.030777037 0.018866442 0.14945196 -0.15099674 -0.23989154 -0.06333799
0.081700094 0.008928817 -0.12978946 0.020392252 0.21228777 0.10900011 0.039879777 0.057624795
0.031430904 0.15035482 -0.2023324 0.09302999 0.037476897 0.029956855 0.14610612 -0.04965434
-0.14247014 -0.1443085 -0.078451164 0.023931857 -0.21759921 0.20654505 -0.106745996 0.15321687
-0.003280391 -0.2688129 -0.038754407 0.0680159 0.03819366 0.1875773 -0.0799507 0.15970212
-0.035879977 -0.20184098 -0.007404289 -0.03436064 -0.06355454 0.19175571 -0.15553911 0.13066381
-0.0605335 0.24118744 -0.006817825 -0.42837974 0.05952332 -0.05178845 -0.040128835 -0.075829014
-0.10912594 -0.1053665 -0.14298041 -0.110975966 -0.26633713 0.15262024 -0.09678001 0.15389554
-0.006091602 0.026891647 -0.1238099 0.060567148 -0.013803733 0.12707649 -0.058226235 0.025320208
-0.07370103 0.116700105 -0.11593252 -0.06552678 -0.06582794 0.25192684 0.26599377 -0.011775946
-0.054554533 0.14634864 -0.09564784 -0.08810954 0.11988537 0.041429896 0.08580554 0.08923788
-0.19145262 0.1469676 -0.013577619 0.04898362 0.008355863 0.23344213 0.08963597 -0.0066128327
-0.101667 0.04259997 -0.13130234 -0.021016885 -0.040798355 -0.14452086 -0.19182724 -0.04430517
-0.036515225 0.09908622 -0.04296982 -0.046848454 -0.098107 0.107292034 0.08108114 0.059739787
-0.013199035 -0.010111292 0.20225918 -0.13307561 -0.15549219 0.018412288 0.06504764 -0.026587408
0.092726305 -0.042033643 -0.06315379 0.22272784 0.07784156 0.031157829 0.04925792 -0.04816961
0.034768376 0.076321974 0.026594412 -0.0027406272 -0.06257845 0.11097535 -0.2519595 -0.3783896
0.10402972 0.102837764 0.109289125 0.040012997 -0.11422568 0.04355691 0.024290971 -0.090121694
0.11697808 0.12549059 -0.03507018 -0.058336724 -0.0315856 0.01732565 -0.06876272 0.109561525
0.013951515 0.07790236 0.06429798 0.22718748 0.21313943 -0.013374607 0.024710167 0.010501461
0.13516824 0.0532247 0.30082327 -0.048406597 -0.033306923 0.07839743 0.015575631 0.020327587
0.016428368 0.042393595 -0.012300867 -0.0068235532 -0.09175405 -0.016073242 -0.07179283 0.13832796
0.012133091 0.0049665025 0.0654859 0.010096304 -0.28934744 0.1427128 -0.007472648 0.05270109
-0.11178755 -0.30751944 0.018757388 0.015729137 -0.010087692 0.09359796 -0.0047622644 -0.043648154
0.10938503 0.31218907 -0.06625415 -0.23944515 -0.1609814 -0.034760553 0.0714948 -0.11563089
0.0073385444 -0.34220296 0.036520712 -0.17371765 0.04844204 0.012169751 0.028479362 0.062009457

model.0.bias f4 [128]
00000000: 6f04 35be 883a 9ebc aea7 60be 0977 bfbe
00000010: 9633 6cbe 586a 2fbe dd76 91be bc33 ecbd
00000020: 53ad 8dbe b9a1 b7be 0c3f 60be fd64 d8bd
00000030: 7b68 47bd 020c eabd 0de3 95be 9f5d b3be
00000040: 75af b5be eb42 f6bd 5cd4 85be a747 8bbe
00000050: e1ee bfbe 3f5f 53be 2c89 c9be 6088 d4bd
00000060: 7bb7 6ebe 37c6 cdbe 6b0f 9cbe db51 cfbd
00000070: 9ee2 acbe 8745 72be 60f2 bcbe 2766 0abe
00000080: 869e 66bd 6bf1 adbe a9fd 70be 3fe0 6abd
00000090: 4547 66be bc04 bfbe 620b b9be 9027 a1bd
000000a0: 4df0 d2be 9df4 c1bd fa95 12be 6775 c0be
000000b0: 60ed a0be 92ac 5abe ee8f ef3c d0be 8abe
000000c0: 0de1 143d 6497 9abe 0dfb edbd 2b1a 19be
000000d0: c95a 5fbe 073f 3cbe fe0a c4be 0224 10be
000000e0: bae2 ccbc 6ff3 83be bc4b bebd a481 8bbe
000000f0: 35e3 8ebe 649f 0bbe 4a08 2cbe d973 52be
00000100: 055a 85be acde 84be 2d4e e5be 14d7 86be
00000110: f9e8 eebe 49d3 1dbe f806 7ebe 61a6 86bd
00000120: d54b 30be 8e92 73be 4beb 86be e974 28be
00000130: ac16 6cbd b628 2abe e4af d8be 1753 debd
00000140: e9d0 d8be 4379 aabe 2c97 75bd 605f cbbe
00000150: ea0e eebd b22c 91be 2951 e1be ab42 05bf
00000160: caf4 a5bd e6ad 2dbe 6534 c8bd 6ae5 71bd
00000170: 7138 abbd 72e4 e6be b64a 60be 6440 9ebe
00000180: 1b09 57be 025e b7be f326 a6be 3f3f d5be
00000190: d75d 8dbc 8689 adbe 2854 a6be e429 423d
000001a0: 58e2 b0be aefa c4be 81d9 babd 6334 64be
000001b0: fcf6 58bd 8358 95be 5b77 9bbe 3449 83be
000001c0: 836c bdbe 1313 d5be bbed e8be b29a 0cbd
000001d0: 72dc 90be 40c4 b1be 223f 03be 68b7 88be
000001e0: e4df 88be f6ae 4cbe 3269 28be 8cda 48be
000001f0: 71ff 0e3c e5fe 0abd 8fe1 54be 8b15 10be
-0.17677473 -0.01931502 -0.21938965 -0.37395504 -0.23066553 -0.1713041 -0.28410998 -0.11533305
-0.27671298 -0.35865572 -0.2189905 -0.10566137 -0.048683625 -0.114280716 -0.29274788 -0.35032365
-0.35485426 -0.12024482 -0.2613858 -0.27203104 -0.37486938 -0.20641802 -0.39362466 -0.10377574
-0.2331218 -0.40190288 -0.30480513 -0.101230346 -0.33766645 -0.23659335 -0.36903667 -0.1351553
-0.056303523 -0.3397325 -0.23534264 -0.057342764 -0.22488125 -0.373083 -0.36141497 -0.07868874
-0.4119896 -0.094704844 -0.14315024 -0.3758957 -0.31431103 -0.21354893 0.029243436 -0.27098703
0.036347438 -0.30193627 -0.1162015 -0.14951389 -0.21811976 -0.18383418 -0.38289636 -0.14076236
-0.025010455 -0.25771663 -0.09291789 -0.27247345 -0.2790772 -0.13635021 -0.16800037 -0.20552005
-0.26045242 -0.25951135 -0.44786206 -0.26335967 -0.4666212 -0.1541263 -0.24807346 -0.06574703
-0.17216428 -0.23786375 -0.2635139 -0.16450848 -0.05763881 -0.16617092 -0.42321694 -0.10855692
-0.42346886 -0.3329564 -0.05995862 -0.39721203 -0.116239384 -0.28354412 -0.44007233 -0.5205485
-0.081033304 -0.16960868 -0.097756185 -0.059056677 -0.08360375 -0.45096165 -0.219035 -0.309085
-0.20999567 -0.3581391 -0.3245159 -0.41649815 -0.01725666 -0.33893985 -0.3248608 0.04740323
-0.34547687 -0.38472503 -0.09123517 -0.22285609 -0.052969918 -0.29169092 -0.30364498 -0.25641787
-0.3699685 -0.41616115 -0.45493874 -0.034327216 -0.28293186 -0.3472004 -0.12817052 -0.26702428
-0.26733315 -0.19988617 -0.16446379 -0.19614619 0.008727894 -0.033934493 -0.20789169 -0.14070718

model.3.weight f4 [128, 128]
00000000: a2a4 c7bd 63e8 3a3d 33ef f2bc 6aa4 a6bb
00000010: cb02 d4bc 9aab b1bd cb57 133d 5019 c1bd
00000020: b8fc 703d 6152 6ebb de61 5c3b 474f dabd
00000030: 6d0a a53c ef73 97bd c924 983d 367b b9bd
00000040: 0148 57be 8139 ab3c 870b e63d 0c59 2ebe
00000050: 1bf9 e83d df7f d0bc c3fb 11bd 6a29 f03d
00000060: d992 f2bd c1bf 5abb 34ca 903d eb18 c5bb
00000070: 5a64 eb3c f7fa 08bc 8df7 5dbe 1d66 353d
00000080: 5920 c1bd 6bcb d03d 75ec 64bd 693a fa3c
00000090: d991 a23c a215 8a3d 944c d93d d0c9 efbc
000000a0: e63a 7b3d e9cd f5bc 1073 fb3a 4d7c 8a3d
000000b0: 3266 eabc 1e3d 0abe a4a6 e6bd 3d8a b13d
000000c0: 20b7 4fba f96c 22bd ac39 5ebd a1b4 2ebd
000000d0: 170f 993c 8a6f dcbd 639f 893d b484 ae3d
000000e0: bce5 093d 988e acbc 1012 2b3d c3e6 bdbc
000000f0: 5b2f 943d c2c3 ae3d 3ff0 a3bd 39f3 15be
00000100: 2fcb 66bc 5307 5c3d df28 ffbc 0852 afbd
00000110: 943d cabd 957f 04bc 3b4b 4b3d 27bd 993d
00000120: 6417 6fbd 7ae9 47bc 2389 ad3c 3292 d03d
00000130: c56a 89bc 2a9a 30bb dbce bdbc a306 a53c
00000140: f9da afbd ee42 c6bd f24c 3f3d dfe9 f3bd
00000150: 3af3 b73d 0999 20be 5219 d6bd c621 28bd
00000160: 99b5 b43d 5d83 cabc 11dd 8e3d d9fd 313d
00000170: 6da0 1abd df00 45bd d76c 003e 1712 253d
00000180: 22e6 3f3d d18b 40bc 8c0c 14bd 086d 323d
00000190: df5e 0a3e 7e70 edbd 4c39 17bd fe83 debc
000001a0: c785 0a3d 5e12 9c3a b518 0bbc 584d 163a
000001b0: d646 ecbc ad26 24bb 1972 5d3d 09c5 3dbd
000001c0: b606 05bc 8fbc 043d 88f1 023e 57b4 473d
000001d0: cc97 a6bd 6aac b83d 096d 9f3c 7b40 1a3e
000001e0: 4519 a43d 8402 863d 6ae7 3c3d 98a8 6a3d
000001f0: 31e5 e83c 4337 173c 8963 6a3d 3fe5 c93c
00000200: 9453 f5ba 2a75 7d3c 0b04 843c 7c8b f43d
00000210: 136f 4a3d 219d 01be 5c42 b73d fe0e 9d3a
00000220: 05e0 50bd cd07 fbbd c44a ed3c b2fe 623d
00000230: 8c85 c73d 0694 053d d707 193e 6263 d5bc
00000240: 345c f4bc 4fed ba3c bbb2 4ebd bb7d 33bd
00000250: 5d5f bb3d 69e9 8ebc 9830 51bc c44d 743c
00000260: c95f db3c c622 e1bd 42db c1bd 1241 29bd
00000270: d844 02be 0c17 23bd c154 d93d f45e f33c
00000280: 4010 c03c b996 adbc 5298 793d 2ce8 803d
00000290: e926 153c b4c7 ea3d 65d9 08ba fae6 983d
000002a0: 2984 d3bd b71b 22bd 84d6 db3c 57f4 67bd
000002b0: db92 933d 08fd 59ba 6873 823c 8f74 3f3e
000002c0: 0270 2cbd 81e8 a8bd 5270 803d 6139 8d3c
000002d0: 83aa e53c 0906 333b ecd2 b73c 45b1 abbc
000002e0: 6b84 14bd ac24 8ebb 7a9e 0dbe ecf8 f83b
000002f0: 6ae2 423d 11aa fbbd 2d3f 00bd ed23 4fbc
00000300: 6146 8d3d 8987 213d 2ac8 4b3c 2e66 6c3c
00000310: e39e b5bd eece b43b 4ea7 dc3d c042 da3c
00000320: 05dd ba3d e582 983d b1e2 503d 99b8 603d
00000330: 4602 953d af4e febd 33e9 10be 19db d03c
00000340: ea68 cabd 1ea8 f53c 13fb 80bd 46a4 3abd
00000350: e81c 66bd 8f81 1bbc 17bd 86bc 2268 263d
00000360: fee5 0e3d 1cf1 37bd a755 cb3b 9efa 563d
00000370: 4610 c0bc 187b 41bb a1f5 6a3c be44 5c3c
00000380: 8aa4 9cbd 2d6b 26bc 5c4c ec3b 7e73 e6bc
00000390: 9f80 323d f1d5 52bd 7f74 62bc cdec 823c
000003a0: 8945 1c3c e7fe 573d 69a8 e53c 2fe7 63bd
000003b0: ae7d c6bc 3f1c b43d 583c c7bd 3d31 c33d
000003c0: e8bd ef3d c624 62bd 373e 8b3c e5bc 68bc
000003d0: f440 57bd 1893 a63c cd1e de3c c396 ee39
000003e0: bcac 853d 361e 38bd 69c9 ab3c d84f 2f3d
000003f0: df14 7f3d f6da a1bd 9163 15be 2fea a73c
-0.09748198 0.045631777 -0.029655075 -0.0050855177 -0.025880238 -0.086753085 0.035972398 -0.09428656
0.05883476 -0.003636502 0.003362767 -0.10659652 0.020146573 -0.073951595 0.07428891 -0.09056704
-0.21023561 0.020901443 0.112326674 -0.17026156 0.11375638 -0.025451599 -0.03564049 0.11726649
-0.11844415 -0.0033378454 0.07069817 -0.0060149333 0.028734375 -0.008360616 -0.21676464 0.044286836
-0.09429998 0.10195049 -0.055889565 0.03054543 0.019844936 0.067424074 0.10610309 -0.029271036
0.061335467 -0.030005412 0.0019184072 0.0676199 -0.028613184 -0.13499877 -0.11262253 0.08668945
-0.0007923711 -0.039654706 -0.05425422 -0.04265273 0.018683953 -0.10763462 0.06719854 0.08521405
0.033666357 -0.021064088 0.041765273 -0.023181325 0.07235595 0.085334316 -0.08004808 -0.14643563
-0.014086529 0.053717922 -0.031147419 -0.08560568 -0.09875026 -0.008087059 0.049632292 0.07506781
-0.058371916 -0.012201661 0.021183556 0.101841345 -0.016774544 -0.0026947358 -0.023169925 0.020144766
-0.085866876 -0.096807346 0.04670424 -0.11909842 0.08981939 -0.15683378 -0.10454048 -0.041047834
0.088236995 -0.024720842 0.06975759 0.04345498 -0.03775065 -0.048096534 0.12541519 0.040300455
0.04685033 -0.011752085 -0.036144778 0.04356101 0.13512753 -0.11593722 -0.036919877 -0.027162548
0.033818986 0.0011907329 -0.008489777 0.0005733571 -0.028842371 -0.0025047467 0.05406389 -0.046330485
-0.008119276 0.032406386 0.1278745 0.04875597 -0.08134422 0.090172604 0.019461172 0.1506366
0.08012632 0.065434486 0.04611913 0.05728969 0.0284296 0.009229484 0.05722383 0.024645446
-0.0018716925 0.015469829 0.01611521 0.11940667 0.049422335 -0.12657596 0.08948204 0.0011982617
-0.05099489 -0.12257347 0.028966315 0.055418678 0.09742269 0.03261187 0.14944397 -0.026048366
-0.029829122 0.022818236 -0.05046342 -0.043821078 0.091490485 -0.017445283 -0.012767933 0.014911119
0.026779072 -0.10992961 -0.09465648 -0.04132182 -0.12721574 -0.0398169 0.10611869 0.029708363
0.023445249 -0.021190034 0.06093628 0.06294283 0.009103515 0.114638716 -0.00052203826 0.0746593
-0.10327942 -0.039577212 0.026835687 -0.056629505 0.07205745 -0.00083155977 0.01592417 0.18696807
-0.042099006 -0.082474716 0.062714234 0.017239274 0.028035408 0.002731683 0.022439443 -0.020958552
-0.036259096 -0.0043378677 -0.13829985 0.007598033 0.047579207 -0.12288297 -0.03131025 -0.012642843
0.06898189 0.039435897 0.01243786 0.014428658 -0.08868196 0.005517832 0.10774098 0.026643157
0.091241874 0.07446841 0.05099744 0.054863546 0.07275824 -0.124173515 -0.14151458 0.025495099
-0.09883292 0.029987391 -0.062978886 -0.04556682 -0.05617991 -0.009491338 -0.016447587 0.040626653
0.034887306 -0.044907674 0.006205279 0.0524851 -0.02344526 -0.0029522832 0.014340789 0.013444124
-0.07648571 -0.010157389 0.007211251 -0.028131243 0.043579694 -0.05147356 -0.01382172 0.015982056
0.009538063 0.05273333 0.028034406 -0.055640396 -0.02422985 0.0879445 -0.097283065 0.09530876
0.117061436 -0.05521085 0.01699744 -0.014205192 -0.05255218 0.020333812 0.027114296 0.00045507224
0.06527087 -0.044950686 0.020970063 0.042800754 0.062275764 -0.079030916 -0.14588763 0.02049741

model.3.bias f4 [128]
00000000: ae9b 8dbd 07bb 4a3c 8989 f8bd f7d1 d93c
00000010: 22b1 e83b 4e88 58bd 3248 9c3c 05c4 adbc
00000020: 6d75 58bd 4ecf 7b3d 7495 ecbd 0d7a 2cbd
00000030: 197f 3ebd 1d1c 3b3c bc26 123d 96b7 1f3d
00000040: e187 3a3c e61e cabc 31bd 3dbd fd50 8c3d
00000050: 42d9 a83c d664 5ebc d7dc 54bb 2af6 fd3d
00000060: 2e78 cebd 3da8 3fbd c1d9 13bb 3b18 4f3d
00000070: 50e5 0dbe 7b95 34bd 3f5e 3d3c e24f 94bd
00000080: 0d44 9d3c 8074 983c e564 82be ed2b df3a
00000090: f6fd e9bc 31e4 4e3c a055 e3bd 4604 c7bb
000000a0: f5ac 633c 1b72 1c3d a0a8 a23c 4863 b9bd
000000b0: 5b9b bfbd 56cc 843b 25e8 5abd f8b5 753d
000000c0: d669 97bc caf2 433d d3a5 a03d a3fe db3c
000000d0: 400b bdbd 193f 40bd 3260 9fbd a005 6dbd
000000e0: dfae be3d e4c6 32bd a0d6 16bd 0c35 c03d
000000f0: 4861 1f3c dcc4 86bb 06b6 63be b351 91bd
00000100: 79fc 553d 3b27 83bd fc2d 153d 56f9 a2bd
00000110: 3ff1 953c 8e3c 893a bc53 1abd 4a86 5dbd
00000120: c760 1bbd e399 ebbc afda 253c bdd3 e8bc
00000130: 61cb eebd 9a47 10bd 5ac2 c33c fcad 00bd
00000140: 5f62 11bd bfd4 d6bc 1046 0c3d 4a46 89bc
00000150: 878d f93d 3840 803c 7a29 acbc 3d56 a1bc
00000160: a407 c7bd 226b a2bc 9d85 9f3b ef8b 71bd
00000170: 6d64 38bd cf0c 9dbd 0b09 5cbd 10de fbbc
00000180: b2ed c13b fdd4 523d 80d3 23be 9f4f 5b3c
00000190: 481f 12bc 729e 373d 1a52 c73b 90a9 cdbd
000001a0: b9ea 98bd 5afc 7b3d aba8 91bd 1c89 40bd
000001b0: d9af d53c 4767 78bd d7b4 45bc fd5b 483d
000001c0: 887a c6bd 6b1e c0bb d989 76bd 7628 d4bc
000001d0: d160 2dbe 9c11 663c 0511 98bd be29 87b9
000001e0: a1ec 8ebd 511e 0ebd c241 1e3d 4568 91bd
000001f0: 614f 86bd 4ebd 813d 3fb6 5dbc 6fed 70bd
-0.06914459 0.012373692 -0.12135608 0.026589377 0.007101194 -0.052864365 0.019077394 -0.021211633
-0.05284636 0.061476998 -0.115519434 -0.042108584 -0.04650793 0.011420277 0.03568147 0.03899344
0.011384935 -0.024672937 -0.046323005 0.06851385 0.02061141 -0.013573846 -0.0032480264 0.12400468
-0.10081516 -0.046791304 -0.0022560211 0.050560217 -0.13857007 -0.04408787 0.011558115 -0.07241799
0.019197488 0.018610239 -0.254676 0.0017026641 -0.02856348 0.012627647 -0.11100316 -0.0060735075
0.013896217 0.038194757 0.019855797 -0.090521395 -0.093558036 0.004052679 -0.053444047 0.059987992
-0.018483084 0.047838964 0.078441285 0.026854819 -0.092306614 -0.046935175 -0.0778202 -0.057866693
0.09310698 -0.043646708 -0.036825776 0.09385118 0.0097277835 -0.004112823 -0.22237405 -0.07095661
0.05224273 -0.06403967 0.036420807 -0.07957713 0.018303512 0.0010470317 -0.03767751 -0.054083146
-0.03793409 -0.028759902 0.010122939 -0.028421277 -0.11659885 -0.035224535 0.023896385 -0.031415924
-0.035494205 -0.026224492 0.034246504 -0.01675715 0.12185197 0.015655622 -0.021015871 -0.019694442
-0.09718254 -0.019826476 0.004868223 -0.05897134 -0.04501765 -0.07668459 -0.05371956 -0.030745536
0.005918228 0.051472653 -0.1599865 0.013385682 -0.008918591 0.04482884 0.0060827853 -0.10042107
-0.07466645 0.061519958 -0.07112249 -0.047005758 0.026084827 -0.060645368 -0.012067041 0.04891585
-0.0969134 -0.005863001 -0.060190056 -0.0258982 -0.16931464 0.014042284 -0.07425121 -0.00025780307
-0.06978727 -0.03469688 0.03863693 -0.07099966 -0.06558109 0.06334935 -0.01353222 -0.058820184

model.6.weight f4 [64, 128]
00000000: c2e7 a13d ba43 8d3d f786 f43c 18a3 ed3d
00000010: 0659 0b3e bc2d f63c 6b99 73bd 1a6d 32bc
00000020: d2da 073e ad08 71bd 240a f43d 92d2 a33d
00000030: ba73 3e3d 2f67 c53c d209 183d ff40 753e
00000040: 1867 52bd 46ec c43d 7660 1e3b 79aa ca3d
00000050: fbdd e93d 2f58 103d 0cc8 df3c 0778 e93d
00000060: 2af4 963d 67fa 22bd 0413 113d fdb7 d7bb
00000070: 5f1f e53c ee7c 513d 93a8 113e 93bd 80bd
00000080: 88b1 a4bc f0df 153e dde7 3a3e 25dd 983d
00000090: 6b41 cd3d cf10 183e 7530 04bd 14dc e5bd
000000a0: 0b78 93bd 1aa1 2dbe 4f3e 973c 0787 043e
000000b0: 20d4 513d e18c dc3d 41c0 c63d 8852 6d3d
000000c0: 3262 c03a a9d9 82bc f490 64bd 943b 4a3e
000000d0: 9fc4 e43d ad06 c23d 881b 6bbb 2660 423c
000000e0: de39 a73d eb44 f93c c3cb b83d 6d78 673d
000000f0: 5a45 12bd 1702 d43d a664 06be 5288 c5bc
00000100: f35c 0dbe 000e 65bc 17cc 7c3c a9e5 863d
00000110: f683 0b3e 440b b93d e705 d1bd 3070 e83d
00000120: 5c9b 6f3d 9502 5f3b 1f56 4ebe 1821 7bbc
00000130: 2300 613e c973 c03d 8d7f 9d3c 572b d83d
00000140: 5362 6abd de57 073d 8612 04be 0a48 0b3e
00000150: ac59 b63d 68ce ff3c 5168 c93d ddb0 853d
00000160: 2b75 ed3d f608 f03d 3718 013e 5cfe 303d
00000170: a488 763d 519c 093e 4699 93bd 5bf5 e0bd
00000180: 554e 89be 8b06 a0be 352f 9dbd 0311 d4bd
00000190: f908 a2bc 8d2a a3bd 716e 1f3e ec6e f93c
000001a0: a259 a03d c189 88be c478 0fbc aee8 84bd
000001b0: 0745 b4be d09a 033d 564a 153e 7afa f03d
000001c0: a381 4ebd f5a0 cd3d 6019 8a3c a7fa 1a3e
000001d0: da24 ebbd cbe0 7f3d b3e3 3f3c 7af6 b53b
000001e0: e930 9c3d e61b 3dbd 81e2 973d 0270 7a3d
000001f0: bc4b 183e d5fb 7d3d fc5e e83d 40eb df3d
00000200: 8743 29bc 9776 adbb 29dc 133d 15ad ac3a
00000210: b2a3 66bd 5506 2b3d d024 e43d b544 bdbd
00000220: 3393 813d 2e86 dd3d 7b1f 243d b323 743d
00000230: 76dd bcbd 3455 9bbd a1de 923b e15e 11be
00000240: 27c6 883d add4 acbd 1bdc 86bb 0788 39bc
00000250: 9143 b43d eb71 4c3d 3aef 043d a876 36bd
00000260: 7c7d 363d fcfa b9bc c493 e33d fc24 c13d
00000270: 68c4 a23d e60e f73d 45b3 8cbc 1ca3 cd3c
00000280: 651e 8d3c 7c67 74bc e88d 0ebe 08ac 8ebd
00000290: 00b7 853d e899 3cbd 81f3 0b3c d33f b73d
000002a0: d437 de3c 7c33 9d3d 1af9 a63d e8ff 88bd
000002b0: 0284 bbbc 4334 bfbd 8e30 41bd 5e77 a9bd
000002c0: 6a52 e43c a3a0 283d 4f20 aabc 0486 33be
000002d0: c039 bcbd bacc c1bc 19ea 05bd 8428 233c
000002e0: 8f44 373d 0e06 783d b0eb 13bd ffd7 c73c
000002f0: 1765 b9bc a279 b03d 2d59 ec3d 2f5e 9b3d
00000300: 9daa ca3d 2506 0b3d db32 bdbc 8ceb 98bd
00000310: 764e 0cbe 0989 85bd bff7 b43d 718c 99bd
00000320: 87d0 6fbd 7072 963d 1839 5f3d a9c9 9cbc
00000330: d2b1 f2bd 50ca 603d 2fec 453d 3b6d a6ba
00000340: 4ff3 153c b300 29bd f770 703e defd c8bd
00000350: acca 403d c484 5b3d 5717 1bbd cfe5 fc3d
00000360: 89f5 e3bd 3e96 08be 0d06 f2bc 0aeb 753d
00000370: 407e cb3d eafd 6fbd 8952 e23c 8407 dc3d
00000380: 0eee 423e fff1 6c3e 2cab 84bc d7c9 2f3e
00000390: 9eef 1abd 384f a93c 9079 b4bd 453d 983d
000003a0: d4f7 503c a7ff 5a3e 1065 94bd 0b29 533d
000003b0: a55a cf3e 28c2 d33d 665f 97be c84c 0abd
000003c0: 29b2 ce3d 667f 91bc 950e 95bd 6e47 423d
000003d0: 8134 193d edaa fabd 9201 813d 11e7 dcbc
000003e0: 9141 90bd 7a0a 313d b7e1 a23c f433 5c3d
000003f0: 0b7d c13b 0a48 b13d f730 13be d553 2a3d
0.079055324 0.068976834 0.029849513 0.11603373 0.13608178 0.030051105 -0.059472483 -0.01089027
0.13267067 -0.058846164 0.11915997 0.079991475 0.046497084 0.024097053 0.03711874 0.23950575
-0.05136785 0.09615378 0.0024166382 0.09895796 0.114192925 0.03524035 0.02731707 0.113998465
0.07370789 -0.039789584 0.035418525 -0.0065832124 0.02796906 0.051144533 0.14224462 -0.062861584
-0.020104185 0.14636207 0.18252511 0.07464055 0.10022243 0.14850162 -0.032272775 -0.11223617
-0.07200631 -0.16955987 0.018462328 0.12942134 0.05122769 0.10769058 0.09704638 0.057940036
0.0014677702 -0.01597293 -0.0558023 0.1974929 0.11170315 0.094739296 -0.0035874564 0.011863744
0.08165334 0.03042837 0.090232395 0.05651133 -0.03571067 0.10351961 -0.13124332 -0.024112854
-0.13804989 -0.013980389 0.015429518 0.06586773 0.13624558 0.09035352 -0.10206204 0.11349523
0.05849777 0.0034028639 -0.2015004 -0.015327714 0.21972708 0.09397084 0.01922586 0.105551414
-0.057222676 0.03304278 -0.12897691 0.136017 0.08903822 0.031226352 0.0983435 0.065278746
0.11594614 0.11720459 0.12606893 0.043211326 0.060188904 0.13438536 -0.07206969 -0.10984298
-0.26817575 -0.31254992 -0.0767502 -0.10354807 -0.01977967 -0.079671 0.15569474 0.0304484
0.07829596 -0.26667598 -0.00875682 -0.06489693 -0.35208914 0.032130063 0.14579138 0.117665246
-0.0504166 0.10040466 0.016857803 0.15134679 -0.11481638 0.06247024 0.011712003 0.005553064
0.07626516 -0.046169184 0.07416249 0.061141975 0.1487264 0.062007744 0.11346242 0.10933542
-0.010331041 -0.005293678 0.036098633 0.0013174141 -0.056308456 0.041754086 0.11139834 -0.092416205
0.06326904 0.10816608 0.040069085 0.059604358 -0.09221928 -0.075846106 0.004482106 -0.1419635
0.066784196 -0.08439002 -0.004115594 -0.011323935 0.0880195 0.04991333 0.032454707 -0.044546753
0.044553265 -0.022702686 0.111121684 0.09430882 0.07947618 0.120633885 -0.017175326 0.02510219
0.017226407 -0.014917251 -0.1392132 -0.06966406 0.06529045 -0.046045214 0.008541943 0.089477204
0.02712623 0.076758355 0.08152981 -0.06689435 -0.022890095 -0.0933614 -0.047165446 -0.082747206
0.02787133 0.04116882 -0.020767359 -0.17531592 -0.091907024 -0.023657192 -0.032693956 0.00995839
0.044743117 0.06055265 -0.03611344 0.024394987 -0.022631211 0.086169496 0.115404464 0.075863235
0.09895823 0.033941407 -0.023095539 -0.07466802 -0.13701805 -0.06520278 0.08836316 -0.0749749
-0.058548477 0.07346046 0.05449781 -0.019139128 -0.11850323 0.05488044 0.048320945 -0.0012697348
0.009152248 -0.041260432 0.23480593 -0.09814046 0.047068283 0.053593412 -0.037864055 0.1234852
-0.111308165 -0.13338563 -0.0295439 0.060038604 0.0993619 -0.05859176 0.027627246 0.10743621
0.19036123 0.23139189 -0.016194902 0.1716684 -0.037826173 0.020667657 -0.08812249 0.07433561
0.012754399 0.21386586 -0.07245839 0.051552814 0.40498844 0.10339767 -0.2956497 -0.03376463
0.10092575 -0.017760944 -0.07278172 0.047431402 0.037403587 -0.12239633 0.06299128 -0.02696565
-0.07043756 0.04322288 0.01988302 0.053760484 0.005904799 0.086563185 -0.14374147 0.041583855

model.6.bias f4 [64]
00000000: 9bab 1d3d 88ed 3c3d 2cc9 143d 9e1c 68bc
00000010: b7e9 cf3d 1e65 b83d 95a1 35bc 50ae c93c
00000020: 30e0 8dbd e853 25bd 4d84 463d e097 8d3d
00000030: e044 5cbb 48b5 36bd b466 c13d f966 97bd
00000040: 74d4 cf3d 86ff 3dba 9d8a 09bd e79d 2b3a
00000050: 7d1e 873d 1ef8 e73b 7fa8 523d 57c3 f6bc
00000060: 5ca8 4c3d 994a 4e3b 698b f03c d5cb c03a
00000070: 268e 183d a16d d73a 21e0 adbd 0662 9cbc
00000080: df22 f9bb 33c8 b5bc 555a 883d 7b7d e03d
00000090: e473 963c 8e65 293d 4fd4 29bd c3af dfbc
000000a0: 937e 813d 7d6b 3f3c f1e3 c03b 2208 1b3d
000000b0: 1c0a 64bd d5dd 313d dec8 603c a1f4 e73c
000000c0: ad46 193e c17a 763d 7674 ea3d 3a46 8b3c
000000d0: 051a c53c 6fa3 06bc 3b73 b63d b60d 91bd
000000e0: 5be1 9b3a 8cee 473d 471f 6f3c 4d1a 8c3d
000000f0: cc5a 903d 176e 6f3d 0604 2abc 0a9f dabd
0.038493734 0.046124965 0.036324665 -0.014166979 0.101519994 0.090036616 -0.011085887 0.024619251
-0.06927526 -0.040363222 0.048466016 0.069137335 -0.0033610389 -0.044606477 0.09443417 -0.07392687
0.10147944 -0.0007247854 -0.033579458 0.00065466616 0.06597612 0.0070791384 0.05143022 -0.030122442
0.049965248 0.003147757 0.029363351 0.0014709184 0.03724494 0.001643587 -0.08490015 -0.01908971
-0.007603034 -0.022190189 0.066578545 0.109614335 0.018365808 0.041356616 -0.04146224 -0.02730549
0.0632297 0.011683342 0.0058865477 0.037849553 -0.055673704 0.043424446 0.0137197655 0.02831489
0.14968367 0.06017566 0.114479944 0.01700126 0.024060259 -0.008217677 0.08908697 -0.07082693
0.0011892723 0.04881148 0.014594859 0.06840954 0.07048568 0.0584546 -0.010376936 -0.106748655

model.8.weight f4 [64, 64]
00000000: fb10 253d 7a05 ee3d ec6c 75bb 6d71 9abd
00000010: e56d 5abd 03c7 08bd f0b7 ba3d a411 ebbc
00000020: c3fe ce3e ca9d b8bd c380 70be 952e d93d
00000030: de74 c2bd 95ac 45bd d70e f3be b5d8 fabd
00000040: 61e8 16bd ce4a 8a3d 3734 773e e32a e7bd
00000050: b498 913d e15f 4c3d a682 573e 4481 f03d
00000060: fed7 9f3c ce2f d3bb 91f2 0f3e 5677 393c
00000070: 1d4d d23d 8d76 0bbd 1b08 97be 5108 8f3d
00000080: 2c39 323d 8cba 99be 8a87 b43d 72ad 3ebe
00000090: cde4 a0bd c6ab bfbc 7273 a23d 761e 553d
000000a0: 8977 bc3d c5b1 efbc e5d8 323d 9d1c fabd
000000b0: 9999 0e3d ef9c 8dbd 52a6 04bd 4508 9c3d
000000c0: 5470 be3d e338 44be 9c88 1abe ce23 05bd
000000d0: fa7b 0bbd 6bf4 8f3d f42b 95bc 31e1 66be
000000e0: e51c de3d ca80 9e3d bd0b 85bd 9201 00bd
000000f0: c1ac 113e 3223 0c3d 2ad9 5d3d c8fc 8bbd
00000100: 5064 cabd 5a1b 60bd dbb5 923d 64bb d6bd
00000110: a7b5 1ebe 26a4 91bc 9b96 293c fe0d fb3d
00000120: 4eb6 423e 6436 6fbd b324 87be 83e4 e33d
00000130: 4144 38bd ffa6 edbd 7fd1 dabe 32a5 67be
00000140: 4342 ed3d 046c 143a 5a98 653e fdbb 2bbe
00000150: f45e fe3d ee6a 443d 0da4 633e ec0a 253d
00000160: ada7 2fbd 5c20 9d3b e760 4abd cbb3 b93d
00000170: ba91 0a3d c890 a6bb 909a 4bbe 54ae b1bd
00000180: 0f56 4e3d 54c2 f5bd 3169 8b3c 24be aabd
00000190: 57a8 bd3d 9617 ff3d 273e 1b3e 4bc0 c83d
000001a0: 0e79 333d 8b6a b4bd 55a1 943d dd67 07be
000001b0: fd8c 773d 3977 42bd 19ed b33d 4e7f aa3d
000001c0: 3c74 003c 7297 59be a061 4fbe 8579 36bd
000001d0: 3488 1dbe 79d1 123e 056f 9c3d e33a 31be
000001e0: cf32 3abd b5cc 1abb 6f13 a93d 8ae5 0c3e
000001f0: a0f9 4d3d 489a f83d 1396 513d cb4c a8bd
00000200: f572 d53d 67b4 cebd 2ce8 01bb 1d8e 0d3e
00000210: b76c ca3d c862 ea3d ce00 963d e137 343c
00000220: 05c9 18be 7e7d 8e3d ee0e df3e 6955 b5bd
00000230: 3f6e aa3d 4ad1 4dbd 22b5 c93e 9a42 063e
00000240: 9461 3abd 5522 1f3d 4ff7 57bd f3ba 523b
00000250: 5751 b93d fde3 193e ed01 0bbe fd51 8e3d
00000260: a56a ffbd 993b f7bd fc6f 93bc 8620 9dbd
00000270: 7779 0e3e 7d4a 2e3e 75e8 9c3e 4bc6 063e
00000280: e594 76bd 40a7 0e3e 40c6 71bd a498 a53d
00000290: 0934 bc3d 0ee2 18bd 3c4c aabd 0cb8 293d
000002a0: 683e 983b 4e93 013e e256 253d cc33 353c
000002b0: 0a38 1d3d ac6b 513e c58e a63d 9083 863d
000002c0: f648 8fbd 4b7f 06bd 9241 ee3d 8b6c 0abd
000002d0: 79dc 2abd d628 b4bd 0fde b53d 778b 2abd
000002e0: eac1 bb3d 36f9 2dbd e022 783c 04c9 1abd
000002f0: b97e 96bd 2091 c9bc 226f e4bb 7745 033e
00000300: 5c1c f6bb 1f6f e3bd 359f 24be 6a3b 443e
00000310: 2206 7a3b 7433 8f3d 1c1a ab3d e305 3fbe
00000320: fd3c 88bd e83e 1d3e 459e 053e 5d70 c53c
00000330: 09e7 a53d 9964 3d3e 3b6f 093d 429e 093d
00000340: eb17 78bc ce01 113e 0f49 1fbd 52bc 3fbd
00000350: a334 303e ee76 b53d 6b39 7dbd eade 1bbd
00000360: 66b7 d8bd 337e 453d fb84 493d 26e4 17be
00000370: d2d7 1dbe f6aa ff3b 5293 8b3d a4ae efbd
00000380: 6306 113e 015f 643d 83d7 b7bd 0cf6 bbbc
00000390: 74ba 463e 4595 a13d acd8 f1bd e1d9 51bd
000003a0: 1574 f43d e3cf 0b3e 41d7 6abd 9730 d03d
000003b0: c133 a63d afaf 233e 8557 7b3d 63db ddbc
000003c0: 1277 c7bd 8ee4 803e 26b4 89bd 2a1f 843d
000003d0: a538 8e3d 9394 81bd 47d9 1ebe 86f1 82bc
000003e0: 9d36 27bd e9cd d0bd e626 ef3c 84b9 65bd
000003f0: 3d0f b6bc 4d46 d3bd 8f67 fdbc 635c 613d
0.040299397 0.11622138 -0.0037448956 -0.075411655 -0.05332746 -0.033392917 0.091171145 -0.028694935
0.40428743 -0.09014471 -0.23486619 0.10604588 -0.09494947 -0.04826029 -0.4747226 -0.12248365
-0.036842708 0.06752549 0.24141012 -0.11287477 0.07109204 0.049896125 0.21045932 0.117434055
0.019512173 -0.0064449077 0.14057375 0.011319956 0.102686144 -0.034048606 -0.2949837 0.06984008
0.043511555 -0.30025136 0.088149145 -0.18620852 -0.0785614 -0.023397338 0.07932176 0.052031003
0.09202487 -0.029259572 0.043663878 -0.12212489 0.03481445 -0.06914698 -0.032385178 0.07618765
0.09298769 -0.19162326 -0.15091175 -0.03250485 -0.03405378 0.07029041 -0.018209435 -0.22546841
0.10845355 0.07739408 -0.064963795 -0.031251498 0.14226057 0.034213252 0.054162182 -0.068353236
-0.09882414 -0.054713584 0.071635924 -0.10484961 -0.15498982 -0.017778467 0.010350849 0.12258528
0.19014856 -0.05840148 -0.26395187 0.111275695 -0.044986967 -0.116041176 -0.42737958 -0.22621611
0.11584904 0.00056618475 0.22421399 -0.1677093 0.124204546 0.04795354 0.22230549 0.04029362
-0.042884517 0.0047951173 -0.04940882 0.09067496 0.033830382 -0.0050831772 -0.1988318 -0.086758286
0.05037504 -0.11999956 0.017017933 -0.08337048 0.09260624 0.124556705 0.15160428 0.09802302
0.04381662 -0.08809384 0.07257334 -0.13223214 0.06043719 -0.04747698 0.08785457 0.08325063
0.007840212 -0.21249178 -0.20252085 -0.044549484 -0.15383989 0.1433772 0.07638363 -0.1730762
-0.04545861 -0.002362055 0.0825566 0.13759437 0.05028689 0.12138802 0.051168513 -0.08217772
0.10422317 -0.10093003 -0.0019822223 0.13823743 0.09884017 0.11444622 0.07324372 0.010999651
-0.14920433 0.069575295 0.43566078 -0.08854181 0.08321809 -0.05024842 0.39396006 0.13111344
-0.045503214 0.0388511 -0.052726086 0.0032154887 0.090487175 0.15028377 -0.13574953 0.06949232
-0.12471513 -0.12071914 -0.017997734 -0.07672219 0.13913523 0.17020603 0.306461 0.1316158
-0.06020059 0.13930988 -0.059026957 0.080857545 0.091896124 -0.037324958 -0.08315322 0.041435286
0.0046461113 0.12653849 0.04036606 0.011059713 0.03838352 0.2045123 0.081327 0.06568062
-0.06996338 -0.03283624 0.116336 -0.03379492 -0.041714165 -0.08796851 0.08880245 -0.04163691
0.091678455 -0.042473994 0.015145034 -0.03778936 -0.07348389 -0.024605334 -0.006971256 0.12819467
-0.007510705 -0.11105179 -0.16076358 0.1916329 0.0038150628 0.06992236 0.08354589 -0.1865459
-0.066522576 0.15356028 0.13048656 0.02410143 0.08100707 0.18495406 0.033553343 0.033598192
-0.015142421 0.14160845 -0.038888033 -0.046810456 0.1720758 0.08860575 -0.061822336 -0.038054384
-0.105818555 0.048216056 0.049199086 -0.14833125 -0.1541436 0.0078023626 0.068152085 -0.11703232
0.14162593 0.055754665 -0.089766525 -0.022944473 0.19407064 0.07889799 -0.11808905 -0.051233176
0.119362034 0.13653521 -0.05733419 0.10165518 0.0811534 0.15984987 0.061362762 -0.02708215
-0.09739508 0.25174373 -0.06723814 0.064512566 0.06944398 -0.063271664 -0.15512572 -0.015984308
-0.040823568 -0.10195524 0.029193353 -0.056085125 -0.022224063 -0.10316143 -0.03093317 0.055019747

model.8.bias f4 [64]
00000000: c874 873d 5945 c43d 59b7 f3bb 1632 af3d
00000010: 4e56 f3bc 1fde 16be bca2 9f3d 63af 9f3d
00000020: cd73 c03d 6402 a3bd 17a9 283e 44da 023c
00000030: ef81 47bd 561d 7b3c b84b 363d 2538 a0bd
00000040: dbaa de3d ee79 a7bc 863c 94bc 3a65 a83c
00000050: 881f dabb f774 153d 2bb8 08be 8bc3 9a3c
00000060: d9be f83c cb5d 883d c00d c33b 6b15 7a3d
00000070: d3a0 133d 5ec5 a2bd 5cdf bbbc 4284 933d
00000080: 3887 ad3d fee9 c8bc 0a3a 673d 988a 353d
00000090: 68a2 a4bd f566 193d cff2 ecbd a41b c13d
000000a0: d400 d63d 3e6c ac3c c449 a03d 8b3a 373b
000000b0: 6843 45bc c2c7 91bb 3f7c 08be 145d e5bd
000000c0: 155e c73d e92f 2b3d b272 5cbc 0a72 c3bd
000000d0: ff0c 443d f208 5e3d d22b 9d3d c15b 5a3d
000000e0: 58ac 90b9 1197 6ebd 55e3 8ebd 7d6f f53c
000000f0: 840b a43d 7fd6 37bd a67f 433d 23a1 cf3b
0.06614071 0.095835395 -0.007437628 0.08554475 -0.02970424 -0.1473317 0.07794711 0.07797124
0.09397087 -0.0795944 0.16470753 0.007986609 -0.0487079 0.015326818 0.044505805 -0.07823209
0.10872432 -0.020443883 -0.018095266 0.020556081 -0.006656591 0.0364885 -0.13351505 0.01889207
0.03036444 0.066585146 0.005952567 0.061055582 0.036042046 -0.07947801 -0.022933654 0.072029606
0.084730566 -0.024525639 0.056451835 0.044321626 -0.08038789 0.037451703 -0.115697496 0.094291
0.10449377 0.021047708 0.0782657 0.0027958478 -0.012039997 -0.004448862 -0.13328646 -0.11199394
0.097347416 0.041793738 -0.01345508 -0.095432356 0.047863957 0.05420775 0.07674374 0.05331016
-0.00027594226 -0.058249537 -0.06976954 0.029960388 0.08010009 -0.044882294 0.047729157 0.0063363477

model.11.weight f4 [32, 64]
00000000: 9215 403d 21d4 79bd 5f60 c83d 67fa 9e3d
00000010: a71f 84bb de31 933c 5cd3 a23c b00f 01bd
00000020: 3883 853d 63f2 943d aaaa 25bd 339f 01bd
00000030: 33e4 bdbd 83bb bfbd 1982 cf3d 84d4 cf3d
00000040: 735c 34be 22d8 30bc 11fd e0bd 9fbb a83d
00000050: e6a9 2e3e edfd 233e cdcd 28bd 6069 a1bd
00000060: 5782 1b3d 5b07 873d 8a07 133e df66 393e
00000070: a281 22bd 164e fe3d 5f98 ecbc 2bb8 adbc
00000080: f0c3 f4bc bcfc 69bc ed53 6b3d a857 35be
00000090: fcaf bf3d 9ab6 4b3e 2ff1 a4bd 40ef 133e
000000a0: 6f71 b6bc 9578 fb3d a40b 873c eb9b bdbd
000000b0: 6bee 3e3d fbab bcbd 936e de3c 7cf4 94bd
000000c0: 392d c9bd 4601 183e 8023 d23d 7c0a c0bc
000000d0: 9662 373e 1544 cebd 81d7 a83d 6ed2 59bd
000000e0: ffee 32bd aeb7 37bd 174e aebd 252c df3d
000000f0: 9855 09be 7e7d df3d ed3c ed3d 52de 86bc
00000100: f263 e5be 62af b7be 7cff 033e 9300 b13d
00000110: cfc6 763d 50af a23d 6802 fbbb d3ec 90be
00000120: a005 39bf 6700 823c d553 df3d 7571 23be
00000130: 9d40 9bbd b729 e6be ca0f 313e fcce d1bd
00000140: 43cd f43d bbc7 003d b36d fabd 587f f03c
00000150: 5897 253e bec3 733d b877 963d 8b23 75ba
00000160: 11e0 703e 5b08 20bf 9fc9 a93d 0325 c93d
00000170: db5a 2dbf 59f2 913d ddbe 66bc f78f 97bc
00000180: c81e 23bf 4747 8dbd 91b6 b73d 3c9c b0bc
00000190: e760 1dbd 0efa c33d 8ec3 763c 58f4 c03d
000001a0: 8853 383d 407e c2bd 9bc7 283e 0626 9f3d
000001b0: 92a2 1d3d 8818 2bbf c9ff aebd 7e25 aabd
000001c0: 9e86 66bd a771 303e 4f40 eabd 5a44 963c
000001d0: c91a fa3d 1bf4 a3bb 6ff2 1dbf ded3 5a3d
000001e0: 191a d23d bd9a ed3d 90d7 04bd 0abc 373d
000001f0: f229 083d e4cf 5b3d e5c2 7fbd 6d6d 0dbf
00000200: 257c a93d d8fb 4abc 22db 0abd da5d 753e
00000210: ca09 cd3c e826 e73c 0f68 e23d e33f d53d
00000220: e86f 293e e123 453b a519 183d 2f05 063e
00000230: 1edc 49bb 8578 0b3d 0a6b 973b 1811 443d
00000240: 3d57 0f3e acca 023e ff14 783b 86e8 523d
00000250: ac29 d5bc 42dc aa3d 05e2 acbd b3b8 08bd
00000260: 030b 9bbd f915 443d 3f51 983d 20d6 05be
00000270: a9e5 d13d f02b 9d3c 47c0 00be a3c2 0a3e
00000280: 6c5f 9e3d f667 243d c7e1 01bd 02f2 183e
00000290: a8ff a23d ade8 023c 910a fe3d 2079 ff3d
000002a0: 3fc8 fe3d 5837 813d ed25 953d bf95 533d
000002b0: 5dd6 bc3d cffa 493c 9a29 253d 4fb5 adbd
000002c0: 773d 933c f9b3 253d 1d71 05be cf89 113d
000002d0: 8605 853c 2934 0fbb 1b77 a0bd 60e5 d93d
000002e0: df3f fb3d 7533 7d3d c30c a7bc 3afd 7d3d
000002f0: 23a6 d33d a532 5d3c da82 063e a9e9 943d
00000300: ace8 4ebb 4fc6 3dbd bded 163e 712d bc3d
00000310: 30e7 04bd 101e 9d3b bf0f afbd 1fac 8e3a
00000320: b873 5ebd 9cdd c03c 6a2b 02bc babd 9a3b
00000330: 6023 b5bd 0d4e 0ebc f02c 98bb 9f13 7ebd
00000340: 74ed adbd 91ad b5bc 3c9b 163c 0b69 5e3d
00000350: 1e46 c93c 5ee5 0dbe 5977 25bd abae 66bd
00000360: 6c8d b83b dd60 3cbe dbea 6cbd ed22 7a3d
00000370: b10b bcbd e2f3 fdbc f6f7 8dbd cda2 e33c
00000380: b3db 51be 5d90 cabd 6e4b 273e e71b 02be
00000390: b3c3 323d 52df a4be 0a30 d1bd f5d1 d03d
000003a0: 2e7b febd 07a3 19bc 12e7 283b 7298 97bd
000003b0: 1208 7a3d d7df aebc 087b 1c3e f870 c0bd
000003c0: ca13 79bd 7367 14bd 7373 ad3d 606f b9bd
000003d0: 1406 263d 13c8 f5bc 3fdd 44bd f7d5 01be
000003e0: c51b af3c 8243 babd ab8b 0abd 423b 9a3d
000003f0: c115 b1bd 3ee5 c5bc 9bd3 4ebc c069 79bc
0.04689557 -0.060993318 0.09784006 0.07762604 -0.0040320936 0.017968114 0.019876175 -0.0315091
0.065191686 0.07272794 -0.04044596 -0.031645965 -0.09272041 -0.09361937 0.10132236 0.10147956
-0.17613392 -0.010793718 -0.109857686 0.08238911 0.17056999 0.16014834 -0.041211892 -0.07881427
0.0379661 0.065932 0.14358345 0.18105648 -0.03967441 0.124172375 -0.02888125 -0.021205982
-0.029878587 -0.014281448 0.057453085 -0.1770922 0.09359738 0.19893876 -0.080538146 0.14446735
-0.022270886 0.122788586 0.016485043 -0.092582546 0.04661409 -0.0921249 0.027152335 -0.07273194
-0.09823079 0.14844236 0.10260677 -0.0234425 0.17908701 -0.10071579 0.08244229 -0.053179197
-0.043684956 -0.044852905 -0.08510988 0.10897092 -0.13411558 0.109126076 0.11583886 -0.016463432
-0.44802815 -0.35875994 0.12890428 0.08642688 0.060248192 0.079435945 -0.007660199 -0.28305683
-0.7227421 0.015869332 0.109046616 -0.15961249 -0.075806834 -0.449537 0.1729118 -0.10244557
0.11953213 0.031440478 -0.12227955 0.029357597 0.16171014 0.059512846 0.07347053 -0.00093513046
0.23522975 -0.6251275 0.08290409 0.098215126 -0.6771676 0.07126302 -0.014083591 -0.018501265
-0.63718843 -0.06898361 0.08970369 -0.021558873 -0.03842249 0.095691785 0.015061272 0.09421605
0.045001537 -0.094967365 0.16482393 0.07770924 0.038485117 -0.66834307 -0.08544881 -0.08307932
-0.056280725 0.17230855 -0.11438047 0.01834314 0.1221214 -0.005003465 -0.6169805 0.05342471
0.10258884 0.116017796 -0.03243214 0.044857062 0.033243127 0.053665057 -0.062441725 -0.55245095
0.08275632 -0.012389146 -0.033900388 0.23961583 0.025029082 0.028216794 0.11055004 0.10412576
0.16546595 0.00300812 0.03713383 0.13087915 -0.0030801366 0.034050483 0.0046209143 0.047867864
0.13998123 0.12772626 0.0037854312 0.051491283 -0.026020847 0.08342792 -0.08441547 -0.033379268
-0.0757046 0.047872517 0.074373715 -0.13069963 0.10248882 0.01918599 -0.12573348 0.1355081
0.07733044 0.040138207 -0.03170946 0.14936069 0.07958919 0.007990045 0.12404359 0.12474275
0.12440538 0.06309384 0.072826244 0.05165648 0.09220574 0.012327864 0.040322877 -0.084818475
0.017973645 0.04045484 -0.1303143 0.035531815 0.016237985 -0.0021851158 -0.078352176 0.10639453
0.12268042 0.06181665 -0.020391827 0.062009074 0.103344224 0.013500844 0.13135853 0.0727113
-0.0031571789 -0.0463317 0.14739127 0.09188355 -0.03244704 0.0047948435 -0.08547925 0.0010885036
-0.054309577 0.023543172 -0.007944921 0.004722324 -0.08844638 -0.008685601 -0.004644029 -0.06203043
-0.08492556 -0.02217749 0.009192284 0.054299396 0.024569567 -0.13857028 -0.040397022 -0.05631892
0.005632093 -0.18396325 -0.057841163 0.061068464 -0.091819175 -0.031000081 -0.069320604 0.02778759
-0.20493965 -0.09890816 0.16337368 -0.12705956 0.043643665 -0.3220163 -0.10214241 0.10196296
-0.124258384 -0.009377248 0.0025772494 -0.074021235 0.061042853 -0.02134697 0.15281308 -0.09396547
-0.060809888 -0.03623147 0.08469286 -0.09054446 0.04053314 -0.03000263 -0.04806256 -0.12679277
0.021375546 -0.09094907 -0.033824604 0.07530834 -0.08646727 -0.024157163 -0.012623693 -0.015222967

model.11.bias f4 [32]
00000000: 6807 bb3d 12f7 063e e9cc a13d ee6e f13c
00000010: 23ef 223e b116 1a3e e616 b03d 9210 bb3d
00000020: 9148 a13d 273b 493d 4358 483d 4e99 a93e
00000030: 51f4 253e 26c1 233e 7455 f43d f203 fd3d
00000040: 40bc 5f3d 5395 1b3e 3c04 113d cb54 1d3e
00000050: 727d bbbb 1500 8d3d a4b2 943c aa5e f33b
00000060: 6f73 3d3e 36da 9e3d 6848 5bbc c171 753d
00000070: 2d4b 013e aa05 763d f68f 1d3e 0896 433e
0.09132272 0.13180187 0.07900412 0.02947184 0.15911536 0.15047719 0.085981175 0.0913402
0.07875169 0.049128678 0.048912298 0.33124775 0.1620648 0.15991649 0.119303614 0.12354268
0.05462289 0.15193681 0.03540443 0.15364377 -0.0057217414 0.06884781 0.018151589 0.0074270563
0.18501066 0.07756464 -0.013383962 0.059922937 0.12626334 0.060063995 0.15386948 0.19100201

model.13.weight f4 [32, 32]
00000000: f610 103d fcad 203b 5d57 203e 834a b2bd
00000010: 1c09 543e 5e36 df3d f7ba 7dbd b6c5 afbd
00000020: 9c18 0dbe ef11 fd3d 0236 6d3e 9dd2 c7bc
00000030: 9897 223e e4e1 cbbd 8ec6 213d 2864 c5bd
00000040: 8ce3 3e3c 0f5c a63d eb55 603d 8552 f43e
00000050: d9e7 78bd 1b33 3abe 6c40 9abb 3145 303e
00000060: 0177 283e c568 373e 990d 223e d83b 973d
00000070: 7f1d 03be 8f4a 053e e5e9 adbd aa71 ca3e
00000080: 740c cc3c 468e 0b3d a7cb 143c 1435 863d
00000090: d55e 643e 25c5 43bd 9780 4c3e ae11 f8bd
000000a0: db8c 8dbd 9273 07bd 22c8 87bd 6c5e 9dbd
000000b0: b5e7 963e 6f8a a33b 5da2 403d 478e 27be
000000c0: 397c ce3c 86af 96bd bc2a ce3d 66c7 0f3f
000000d0: 7a7f 86bd 265a 3a3d 9572 9cbd 2db8 503e
000000e0: 0d13 66bd a2f3 063e 3edd 2a3e e90e 3fbd
000000f0: fbca 9abd 53d1 f7bd ca76 bebd 3edf 843e
00000100: 2779 2cbe 9adb 783d 55f0 0fbd 4b16 14bc
00000110: 401d 0f3e 1079 15bd 22f2 fc3d 43d3 00be
00000120: 609f 80be ecc1 ae3e c173 4e3e 24d2 f73d
00000130: efb0 af3e 0869 ca3d 970c 133e 2c4a 52be
00000140: ca92 c53d 5097 00bd 41c8 003e b6cd 7c3e
00000150: d599 6a3d b7b9 afbd f592 463c 0ec0 cbbd
00000160: b2b9 37be 675c 363e 9b42 49bd f969 c3bd
00000170: d711 813d 2242 fe3b 0a54 2e3e 35e8 bd3e
00000180: 0493 45bb 3d63 ba3e 6779 90bd 0a7b ecbd
00000190: 5d14 d6bd 685e bbbd b1f8 24bc 7de5 403e
000001a0: 92c0 0e3d da63 7c3e cc89 343c 95d4 de3e
000001b0: 194f cebd 0cf3 81bd a12d 223d 5ae2 1b3e
000001c0: 27ef a5bd f38f 1bbe f26a f13d 0a88 afbe
000001d0: f79e b2bd ee26 b83d e856 043e 953d 2b3d
000001e0: b89b 7b3d d9ed febd f1b9 a83d efd1 06be
000001f0: 3ebb ec3d 621c 2e3e b5aa 71bd c99c 00be
00000200: a0e4 303b d66e a13d 5ad1 18be 13a7 fb3e
00000210: 3088 7bbe 30a5 ee3e acf0 5abd cdd8 033e
00000220: d0be 023e 21b4 053f 0d52 14be 98a5 8e3e
00000230: fac9 c0be b5f6 653e 3d71 a13d 53df fd3c
00000240: 9a7e 86bd 8b16 b0be 987c 823e 16f6 f1bc
00000250: 44d5 733d 4635 ab3d c72f 24be 72af 4d3d
00000260: c176 a2bd eb32 673b 7a5a f7bc 3bfb b9bd
00000270: f6be df3d 9f2e dd3e 98ab 89be e436 8cbe
00000280: 661d aa3d 0072 e13e 7a63 133e bd3d e03d
00000290: 6f45 07be e31a ec3d e300 2c3e 9e19 8ebd
000002a0: aeb9 a03d c694 e93e 619f c6bd 0e56 d23e
000002b0: 4bd6 153e b9df 04be 3257 e8bb b9aa c83c
000002c0: f834 5c3e c962 1e3e e54c a93d bf76 033f
000002d0: 8361 0cbe b0f0 913d 5cb7 e1bd b734 ed3c
000002e0: 0308 8b3d 9759 343d b664 193e ef12 83bd
000002f0: 5705 87bd 6dea debd 3a7b 6f3d 36c6 993e
00000300: a70b 10be 8b51 373d 5d2e 1bbd 7a86 da3d
00000310: 907e 983e 624b 9bbd 52c4 843e 8225 96bd
00000320: 4764 7e3d 7e31 f03d b179 423e fecf 153e
00000330: 0456 e23e 1b02 8bbe f77c 463d af96 d4bd
00000340: 0868 943e 5915 423e ee00 bbbc 99d9 fa3e
00000350: f7d6 13be 5bf9 06be 984b 22be cb80 f73d
00000360: 0942 c9bd d627 1d3e 6977 4b3e a866 8cbd
00000370: 0544 90bd 1c66 89bc 5e7a 313d ef09 bc3e
00000380: c7a7 59be 0964 193e 8d14 d6bd 8267 9ebd
00000390: 2612 a33d 84c7 84bd f0a6 363c f471 21be
000003a0: 2c99 de3d e8da b8bd 091a 8c3d 1f32 2bbd
000003b0: 5f22 333d 528c 9c3c 2318 b13c 9b21 e43d
000003c0: b4c8 04be c8d0 3b3d 72df 86bd dff3 e1bd
000003d0: 28f7 45bd d59d 6bbd cf9f 05bd 0708 983d
000003e0: 4e9a 05be 00fd abbd 431b 33be 5036 acbd
000003f0: a250 f5bd 2315 c33d 48b7 c3bb 5cd5 743e
0.035172425 0.0024517765 0.15658326 -0.08705618 0.207066 0.108990416 -0.06194588 -0.08582632
-0.13778919 0.12356936 0.23165134 -0.02439242 0.15878141 -0.099551946 0.039495997 -0.09638244
0.011650931 0.081230275 0.054769438 0.47719207 -0.060767982 -0.18183558 -0.0047073867 0.17213894
0.16451646 0.1791106 0.158255 0.07384461 -0.1280422 0.13016723 -0.084918775 0.39539844
0.024908282 0.03407123 0.009081758 0.065530926 0.223018 -0.047795434 0.19970928 -0.12112747
-0.06911632 -0.0330692 -0.06629969 -0.07684025 0.29473653 0.004990868 0.04702984 -0.16362868
0.025205718 -0.07357697 0.10066745 0.5616363 -0.06567283 0.04549613 -0.07639042 0.20382757
-0.056170512 0.13178876 0.1668596 -0.04664508 -0.07558247 -0.12100472 -0.09300001 0.2595157
-0.16843091 0.060756303 -0.035141308 -0.009038518 0.13976002 -0.036492407 0.12350871 -0.1258059
-0.25121593 0.34132326 0.20161344 0.12100628 0.34314677 0.09883314 0.14360271 -0.20536107
0.096471384 -0.031394303 0.12576391 0.24687847 0.057275612 -0.08580344 0.012119998 -0.09948741
-0.17941931 0.17808686 -0.049135786 -0.09541697 0.06302231 0.0077593485 0.17024246 0.37091222
-0.0030147443 0.36403838 -0.07054406 -0.11546905 -0.10453103 -0.09148866 -0.010069058 0.18837543
0.034851618 0.24647465 0.011019181 0.43521562 -0.100736804 -0.06345186 0.039594296 0.15223065
-0.08102255 -0.15191631 0.11787976 -0.34283477 -0.087217264 0.089918 0.12923777 0.041806776
0.0614278 -0.124477096 0.082385905 -0.13166021 0.11559151 0.17003015 -0.05900069 -0.12559809
0.002699174 0.078824684 -0.14923611 0.49150905 -0.2456367 0.46610403 -0.05345218 0.12875672
0.12768102 0.5222798 -0.14484425 0.27860713 -0.37654096 0.22457393 0.078829266 0.030990278
-0.06567116 -0.343922 0.25485682 -0.029536288 0.059529558 0.083597705 -0.1603385 0.050216146
-0.07932807 0.0035278152 -0.03019451 -0.090811215 0.10925095 0.43199632 -0.26888728 -0.27385628
0.083063886 0.44032288 0.14393416 0.10949276 -0.1321008 0.11528566 0.16797213 -0.0693848
0.078479156 0.45621318 -0.09698368 0.4108128 0.14632528 -0.12975968 -0.0070904726 0.02449547
0.21504581 0.15467371 0.082666196 0.5135307 -0.13709073 0.071259856 -0.11021301 0.0289558
0.067886375 0.044030752 0.14979824 -0.06400096 -0.06592815 -0.10884557 0.058467127 0.30034035
-0.14066945 0.0447555 -0.037886012 0.106701806 0.2978406 -0.075827375 0.2593103 -0.07331373
0.06210735 0.1172819 0.18991734 0.14630124 0.4420625 -0.27150044 0.04845902 -0.10380303
0.2898562 0.18953456 -0.022827592 0.4899414 -0.14437471 -0.13181059 -0.15849149 0.12085112
-0.09827048 0.15347227 0.1986977 -0.068555176 -0.07044224 -0.016772322 0.04332959 0.3672633
-0.21255408 0.14979567 -0.104531385 -0.07734586 0.07962446 -0.06483367 0.011148199 -0.15766126
0.10869059 -0.09026128 0.06840903 -0.041795846 0.04373395 0.019109879 0.021617955 0.11139222
-0.12967187 0.045853406 -0.065855876 -0.11032843 -0.04833141 -0.057523567 -0.03262311 0.07423406
-0.13047144 -0.08397865 -0.17490868 -0.08408797 -0.1197827 0.09525516 -0.0059727766 0.23909515

model.13.bias f4 [32]
00000000: c90c 8fbd 042b 413e 01a4 d63d 5dfd 09bd
00000010: 5ed5 3a3e 1cb6 e13d fd8d 473e d765 62be
00000020: b40d 103c 5623 97bd 94ec 183e 700f a43d
00000030: 37c5 173e c2df 9d3d 5aa0 d63d 5c8f ca3d
00000040: a037 8bbc e3e2 293d e591 bd3c c3dc 92bd
00000050: 1762 a53d 0438 023e b3fc 9abd 6f0a b9bd
00000060: b43a 573e d2b6 933d 2b3f cb3c bf48 ea3d
00000070: 627c 8a3b 8c05 df3d fd45 f5bd 71d3 693e
-0.069848605 0.18864065 0.104805 -0.03368889 0.18245456 0.11021063 0.19487758 -0.22109161
0.00879233 -0.07379787 0.14933997 0.08010757 0.14821325 0.07708694 0.104798034 0.09890625
-0.016994298 0.04147614 0.023140857 -0.07171013 0.0807535 0.12716681 -0.0756773 -0.09035193
0.21018487 0.072126046 0.024810394 0.114396565 0.0042262534 0.1088973 -0.1197624 0.22834565
