results/Weights/model2.pth (torch, 141450 bytes, 17 tensors)

model.0.weight f4 [128, 8]
0.015500609 -0.45395097 -0.15049623 0.040582746 -0.21233796 0.104975276 -0.33071598 0.4175727
-0.1332113 -0.094674885 0.22343726 -0.30605575 -0.084004916 -0.38073182 0.14300902 -0.34013778
-0.07158071 0.42300552 0.14476623 0.18101369 -0.024520298 0.0412585 0.22965819 0.07522114
0.3278594 -0.02222843 -0.08346982 0.25661036 -0.2808702 0.025504312 0.19059046 -0.14153363
-0.17623495 -0.08326554 0.30706233 -0.25073552 -0.018409928 -0.32686374 -0.21464655 -0.28287244
-0.27548116 -0.3545765 -0.1072488 0.41133824 0.27369353 -0.0016294994 -0.124286905 0.21096309
-0.18494123 0.32880574 0.016707107 -0.31805202 -0.41225815 -0.33289033 -0.2880829 -0.38917497
0.08676164 -0.2521138 0.42975003 -0.20696013 0.14986119 0.5423573 0.113087 -0.075480826
-0.17542453 -0.16561413 -0.031981234 -0.022837777 -0.3865857 0.24860208 -0.10170682 0.034374863
-0.5305018 -0.050909743 -0.063742094 -0.19416185 -0.33015817 -0.19835173 0.123067886 0.0070447493
0.28344506 0.30138496 -0.20276614 -0.12233715 -0.32298425 -0.074462496 -0.24210529 -0.36359963
-0.026378585 -0.13627233 0.62182665 -0.12290014 0.13558543 0.14897643 -0.2057751 -0.16478105
-0.21344459 -0.028629629 0.09423793 0.20742331 -0.45411378 -0.32527697 0.120602876 0.21546352
-0.32030892 -0.020950124 0.33827516 0.11583283 -0.016742634 -0.3764031 -0.30397525 -0.24997543
-0.20204815 0.07783755 0.14026132 0.0838233 0.20852727 -0.24897426 -0.21561453 -0.14815643
-0.5714827 0.332593 -0.3178222 0.008459475 -0.048367687 -0.18849427 -0.015232073 0.13785687
0.35450476 0.12924664 -0.24465388 -0.20788984 0.030287124 0.1921559 -0.12647942 0.04998923
-0.016294949 0.026100587 0.22627391 0.06421096 -0.29793116 -0.07160967 -0.14967196 -0.37080166
0.29238155 0.049334105 -0.18535993 -0.09354625 -0.016061092 0.50360304 -0.19104658 -0.08843156
-0.2647637 0.34150112 0.19457385 0.09556791 0.0458355 0.19415493 0.05025549 0.28340885
0.0014645522 0.13120303 -0.22875385 0.24603572 -0.27393025 0.14263642 -0.24213466 0.1454827
-0.17369787 -0.40677765 -0.09633666 0.16695993 -0.16731283 -0.045791786 0.14588356 -0.3894362
-0.2044068 0.2629419 -0.15915337 -0.07965701 -0.24258156 0.2160621 -0.4792841 0.050741434
0.065964475 -0.03086974 0.16915365 0.08128839 0.14157818 0.32812154 -0.35327122 0.39073446
-0.32766643 -0.30992258 -0.11032188 -0.14757997 -0.33048964 -0.022650022 0.058537144 0.15234199
-0.019851567 0.08191108 0.0652919 -0.12599821 -0.2559622 0.033766087 -0.36644804 0.25451425
-0.2724615 0.18590866 -0.303993 -0.09176738 0.15073715 0.086394496 -0.2704115 0.1762658
0.27617097 0.17541517 -0.05309215 -0.1863637 0.09982891 0.31159878 -0.10525461 -0.28478605
0.10678451 -0.10012658 -0.1951656 -0.20018293 0.026841985 -0.3074546 0.04285682 0.24777934
0.21337631 -0.103059106 0.25976878 0.2675729 0.02762623 0.18919812 -0.32763395 0.12987684
0.19990443 0.15939201 -0.30007944 0.15052445 -0.076379865 0.25614634 -0.15572777 0.38919893
-0.10858832 -0.15300079 0.035678193 -0.21101096 0.0049444353 -0.277574 -0.2826552 0.19723037
00000000: 44f6 7d3c 436c e8be af1b 1abe 183a 263d
00000010: 1f6f 59be 47fd d63d 9b53 a9be 17cc d53e
00000020: 8b68 08be e8e4 c1bd bdcc 643e 57b3 9cbe
00000030: c50a acbd 48ef c2be f570 123e 8a26 aebe
00000040: e898 92bd 2e94 d83e 993d 143e a75b 393e
00000050: cbde c8bc acfe 283d 842b 6b3e 8b0d 9a3d
00000060: 30dd a73e 6518 b6bc 3af2 aabd 6f62 833e
00000070: 38ce 8fbe 6bee d03c 252a 433e 31ee 10be
00000080: ef76 34be 2087 aabd 4637 9d3e 6860 80be
00000090: 6bd0 96bc af5a a7be 4ecc 5bbe a8d4 90be
000000a0: de0b 8dbe 0d8b b5be 42a5 dbbd ed9a d23e
000000b0: 8f21 8c3e ed94 d5ba 228a febd b506 583e
000000c0: 3c61 3dbe 3a59 a83e 58dd 883c b7d7 a2be
000000d0: 8013 d3be 9a70 aabe 9a7f 93be f141 c7be
000000e0: 16b0 b13d 0f15 81be 3208 dc3e 5bed 53be
000000f0: 3675 193e eed7 0a3f 289a e73d b195 9abd
00000100: 7da2 33be c096 29be c1fe 02bd 4a16 bbbc
00000110: 90ee c5be 8b91 7e3e aa4b d0bd a8cc 0c3d
00000120: f7ce 07bf bc86 50bd 378b 82bd 5dd2 46be
00000130: 7e0a a9be b71c 4bbe 040b fc3d a4d7 e63b
00000140: b61f 913e 214f 9a3e eda1 4fbe e68b fabd
00000150: 315e a5be cb7f 98bd 73ea 77be bb29 babe
00000160: e717 d8bc f98a 0bbe 0830 1f3f 12b3 fbbd
00000170: e8d6 0a3e 478d 183e b5b6 52be 5dbc 28be
00000180: 3891 5abe af88 eabc d1ff c03d c766 543e
00000190: 9a81 e8be b48a a6be a4fe f63d 78a2 5c3e
000001a0: 88ff a3be 989f abbc 6732 ad3e c339 ed3d
000001b0: d927 89bc e8b7 c0be a5a2 9bbe 8ff9 7fbe
000001c0: b6e5 4ebe 4b69 9f3d aaa0 0f3e 8dab ab3d
000001d0: 2c88 553e 1cf3 7ebe 0eca 5cbe 52b6 17be
000001e0: b14c 12bf a149 aa3e 97b9 a2be 9c99 0a3c
000001f0: 321d 46bd a404 41be f28f 79bc 5a2a 0d3e
00000200: a681 b53e 3b59 043e 8c86 7abe 13e1 54be
00000210: b41c f83c 84c4 443e d283 01be 82c1 4c3d
00000220: fc7c 85bc e6d0 d53c 59b4 673e 0981 833d
00000230: 6f8a 98be 17a8 92bd 9b43 19be b7d9 bdbe
00000240: 09b3 953e 8f12 4a3d fece 3dbe 2d95 bfbd
00000250: 8d92 83bc 21ec 003f b7a1 43be 9b1b b5bd
00000260: 1c8f 87be 3cd9 ae3e 5e3e 473e 1cb9 c33d
00000270: 01be 3b3d 8dd0 463e b3d8 4d3d f71a 913e
00000280: 38f6 bf3a 165a 063e 733e 6abe caf0 7b3e
00000290: 9640 8cbe 480f 123e 26f2 77be 6bf9 143e
000002a0: dbdd 31be 2945 d0be 284c c5bd 8bf7 2a3e
000002b0: 0e54 2bbe 2b90 3bbd 8062 153e 2e64 c7be
000002c0: 0450 51be 52a0 863e 1af9 22be 3723 a3bd
000002d0: 4d67 78be 623f 5d3e ba64 f5be 40d6 4f3d
000002e0: 6218 873d 89e2 fcbc 9d36 2d3e 877a a63d
000002f0: dff9 103e 8cff a73e f7df b4be 590e c83e
00000300: e5c3 a7be 2cae 9ebe 70f0 e1bd 341f 17be
00000310: f035 a9be 8a8c b9bc a5c4 6f3d 8aff 1b3e
00000320: c19f a2bc ffc0 a73d c2b7 853d ad05 01be
00000330: 7a0d 83be 4f4e 0a3d 149f bbbe b14f 823e
00000340: 1380 8bbe d75e 3e3e f8a4 9bbe 89f0 bbbd
00000350: d75a 1a3e 99ef b03d 6073 8abe 067f 343e
00000360: 4866 8d3e 09a0 333e 2777 59bd 20d6 3ebe
00000370: 1973 cc3d e089 9f3e bb8f d7bd 7acf 91be
00000380: d6b1 da3d 2a0f cdbd 7ed9 47be c1fc 4cbe
00000390: b9e3 db3c b06a 9dbe a28a 2f3d deb9 7d3e
000003a0: 527f 5a3e a710 d3bd 6a00 853e 51ff 883e
000003b0: 6750 e23c 27bd 413e a3bf a7be 6ffe 043e
000003c0: bfb3 4c3e a937 233e 03a4 99be 1523 1a3e
000003d0: 0c6d 9cbd 9d25 833e 1a77 1fbe 1545 c73e
000003e0: 8e63 debd 3dac 1cbe 4c23 123d 4213 58be
000003f0: ee04 a23b 2e1e 8ebe 2fb8 90be c2f6 493e

model.0.bias f4 [128]
-0.20457587 0.018357048 -0.2795981 -0.1196491 0.23767276 -0.11533582 -0.32370347 -0.49345917
0.18787858 -0.00276865 -0.17520797 -0.23265968 -0.11111812 0.14989835 0.1406056 -0.25560895
-0.19238366 0.0597237 -0.0129987225 -0.10114494 0.1090581 -0.20461462 0.0698264 -0.41822204
0.21719934 -0.13389213 0.1397178 0.18889907 -0.53824687 -0.054823942 0.22780198 0.31094545
-0.15675108 -0.2502512 0.15268682 -0.14545473 -0.27629536 -0.2758738 -0.024791244 -0.15235256
-0.2446463 0.017713241 0.17171234 -0.13841791 -0.07530107 -0.17450039 -0.20784473 -0.067898445
0.14803763 0.010930958 0.07625819 -0.089162774 -0.3705158 -0.31116208 -0.14084099 0.20847346
-0.10903889 0.024225222 0.11886267 -0.12391533 0.1055279 -0.38336143 0.23481566 -0.16486186
-0.054840013 -0.35191014 0.25954375 -0.25121218 -0.15655138 -0.04116263 -0.2804109 0.08451292
-0.28933132 0.2524163 -0.18987727 -0.17067975 0.19944294 -0.16090393 -0.13771687 0.12353596
0.077066585 -0.010368893 0.2687412 0.026684763 0.028331067 0.2057415 -0.26063773 0.090692654
0.26618883 0.10257533 0.13448738 -0.20977959 -0.07666877 -0.007362031 -0.30764842 0.17058441
-0.06989814 -0.17002918 0.15503661 -0.28285456 0.13833897 0.060931955 0.25811055 -0.18850291
-0.049096134 0.23232244 -0.34040734 -0.18345544 0.12223086 -0.14806405 0.03150534 -0.46796936
0.18965887 -0.10388604 -0.15825841 0.14710319 0.105133 0.06791034 0.03672498 0.018166242
-0.27420586 0.0045001563 -0.25816974 -0.19643341 -0.26874077 -0.46243697 -0.38233796 -0.29349008
00000000: 567c 51be 8561 963c 7b27 8fbe 960a f5bd
00000010: 7d60 733e 3035 ecbd 76bc a5be aea6 fcbe
00000020: 3e63 403e 3d72 35bb b869 33be 573e 6ebe
00000030: e691 e3bd f47e 193e eafa 0f3e 2ddf 82be
00000040: 3900 45be d7a0 743d 98f8 54bc 1425 cfbd
00000050: da59 df3d 7f86 51be 2501 8f3d 3321 d6be
00000060: 8169 5e3e 051b 09be 2f12 0f3e c26e 413e
00000070: 8cca 09bf 128f 60bd ec44 693e 3e34 9f3e
00000080: 5b83 20be ed20 80be ef59 1c3e 16f2 14be
00000090: 9676 8dbe 553f 8dbe 0217 cbbc 4f02 1cbe
000000a0: 8f84 7abe 5c1b 913c 5cd5 2f3e 6dbd 0dbe
000000b0: 7337 9abd 3bb0 32be 40d5 54be 570e 8bbd
000000c0: 2d97 173e c317 333c 412d 9c3d f99a b6bd
000000d0: 3fb4 bdbe a350 9fbe 9f38 10be 117a 553e
000000e0: c84f dfbd f973 c63c 466e f33d 52c7 fdbd
000000f0: 031f d83d f347 c4be 8473 703e 8cd1 28be
00000100: ec9f 60bd 912d b4be ebe2 843e e29e 80be
00000110: 014f 20be 259a 28bd 0492 8fbe 1c15 ad3d
00000120: 3c23 94be b63c 813e 306f 42be acc6 2ebe
00000130: c53a 4c3e 00c4 24be a705 0dbe 6c00 fd3d
00000140: 16d5 9d3d 4ae2 29bc 7298 893e 019a da3c
00000150: 8e16 e83c e6ad 523e 4f72 85be 12bd b93d
00000160: e749 883e 0413 d23d 0fb7 093e 76d0 56be
00000170: 8404 9dbd 313d f1bb 1884 9dbe aead 2e3e
00000180: c226 8fbd 211c 2ebe ebc1 1e3e 50d2 90be
00000190: bba8 0d3e c993 793d 1127 843e e806 41be
000001a0: 0719 49bd efe5 6d3e df49 aebe bedb 3bbe
000001b0: 2c54 fa3d 1a9e 17be be0b 013d ae99 efbe
000001c0: ef35 423e 34c2 d4bd 7e0e 22be 38a2 163e
000001d0: f84f d73d 9414 8b3d ef6c 163d 5fd1 943c
000001e0: b664 8cbe 0c76 933b d32e 84be d725 49be
000001f0: 6498 89be 8ac4 ecbe cdc1 c3be 5544 96be

model.3.weight f4 [128, 128]
-0.03884668 0.14158249 -0.32880574 0.05485917 0.023508834 0.040788777 -0.06631581 -0.10363486
-0.01472552 -0.027032143 0.08411332 -0.107830904 -0.14812447 -0.19753473 -0.10004277 0.002836966
0.019046256 0.0018580026 0.027323965 -0.17020199 0.031668764 -0.14605094 -0.03324305 0.11865063
-0.013776034 0.02588075 0.023498565 0.039054353 0.09542714 -0.04867942 0.004280961 -0.032062814
0.04970069 -0.0374185 -0.046451557 -0.11921516 -0.04133279 0.119982705 0.043507818 0.1773619
-0.18466842 -0.054349408 -0.0030078136 -0.009396525 0.060368955 0.04965445 -0.016494734 0.09726142
-0.16632369 -0.1532213 0.0010311253 -0.08248701 -0.13452826 0.09210153 0.032786567 -0.038737778
-0.06809395 -0.036758527 0.041337445 -0.22367647 -0.032865837 0.101599604 -0.00039407174 0.03912692
-0.05065588 0.12687145 -0.1303225 -0.05992651 -0.03920291 0.045260813 -0.020049917 0.017709952
0.0031149404 -0.14865269 0.06577118 -0.152874 -0.14371203 -0.21656308 0.038908347 0.029526835
-0.003468325 0.12153951 0.053263307 0.06613009 -0.061791807 -0.025999025 0.100687906 0.067105375
0.03138443 0.0339632 -0.08748991 -0.070375495 -0.011923303 0.03221207 0.002381505 0.02498601
-0.16632247 -0.009210811 -0.1564345 -0.060900588 -0.09650547 0.051477578 -0.040750485 -0.092168145
-0.034236383 0.00046819315 -0.07454327 -0.048983067 0.103071585 -0.14220852 0.036779564 0.03562901
-0.008732722 0.051778316 -0.18920256 -0.0913539 -0.18676093 0.0015368154 0.030311925 0.023796046
-0.173686 -0.048451252 -0.3094593 -0.12687387 0.11699568 -0.18183708 -0.035504922 0.049457777
-0.09641207 -0.023448145 0.10335251 -0.18399751 0.0125598265 0.111300014 0.007762708 -0.31481794
-0.08222749 -0.056564193 0.020584522 -0.37135753 -0.2992045 0.028060151 0.065417 0.05446439
0.10483742 0.07220115 -0.05451233 0.0025335983 0.026349925 -0.013469566 -0.076456256 -0.1165022
-0.026080828 -0.3324904 0.007407515 -0.013669698 0.020273663 -0.13756318 -0.028353939 0.009643904
0.08268657 -0.022764938 -0.085343465 -0.076854624 -0.002888352 0.16135605 0.016925743 0.12509981
0.0091310125 0.04243437 0.02204663 0.048877973 -0.066820525 -0.04249544 -0.09633964 0.01711761
0.009982845 -0.09216224 0.033803824 -0.02535704 -0.022764113 -0.30565143 0.017677998 0.058988787
0.103972405 -0.22709161 -0.23838925 -0.027310746 0.07120709 -0.041196283 -0.003749984 0.073879026
-0.0135447495 -0.17760992 0.037147522 -0.012418832 -0.23050146 0.009241409 -0.013174523 -0.0818427
0.030693965 0.053545274 -0.07674281 -0.025595304 0.046722274 0.06797538 -0.12229306 -0.093700096
0.038973633 -0.0035680959 0.029805187 0.063141726 -0.19257787 -0.009001081 -0.31459445 -0.2557424
0.056316055 0.032640904 -0.034427594 0.15421884 -0.29369563 -0.10002943 0.016321411 0.025814103
-0.20038238 -0.20436056 0.004015783 -0.023456996 -0.055809963 0.0061977906 0.09009809 -0.13159665
-0.062948965 0.08669291 0.1413326 0.060952637 0.06753002 -0.017428175 -0.089125045 0.057352375
-0.012231905 0.14452009 0.07894049 -0.015724663 -0.03885378 0.05336468 0.03239022 0.10900565
-0.006171725 -0.04211485 -0.09719932 0.13330568 0.019946542 0.080345705 0.03261452 0.12502053
00000000: b21d 1fbd 00fb 103e 3a59 a8be 02b4 603d
00000010: 9995 c03c 2212 273d 95d0 87bd 833e d4bd
00000020: 4f43 71bc 8372 ddbc 9b43 ac3d 73d6 dcbd
00000030: f1ad 17be 8b46 4abe 39e3 ccbd 64ec 393b
00000040: e506 9c3c 3988 f33a 82d6 df3c 6e49 2ebe
00000050: 1bb7 013d 618e 15be dd29 08bd 1aff f23d
00000060: e0b4 61bc de03 d43c 1080 c03c 75f7 1f3d
00000070: 4e6f c33d 1264 47bd 4e47 8c3b 4c54 03bd
00000080: f392 4b3d 2444 19bd fd43 3ebd 1427 f4bd
00000090: 924c 29bd 7eb9 f53d 4135 323d 5c9e 353e
000000a0: b819 3dbe 7c9d 5ebd bd1e 45bb e2f3 19bc
000000b0: 7045 773d 7762 4b3d f71f 87bc ff30 c73d
000000c0: c250 2abe 0be6 1cbe d326 873a f3ee a8bd
000000d0: c7c1 09be ba9f bc3d 354b 063d 81ab 1ebd
000000e0: d774 8bbd 1c90 16bd 7451 293d 720b 65be
000000f0: 549e 06bd 7413 d03d 6a9b ceb9 8d43 203d
00000100: 8a7c 4fbd 97ea 013e 4373 05be 8075 75bd
00000110: 3b93 20bd 6763 393d b93f a4bc 7614 913c
00000120: 0724 4c3b 6938 18be 0ab3 863d 008b 1cbe
00000130: 3f29 13be b6c2 5dbe 5c5e 1f3d 43e2 f13c
00000140: d64c 63bb b5e9 f83d a02a 5a3d 366f 873d
00000150: 6819 7dbd e8fb d4bc 7635 ce3d 8b6e 893d
00000160: f68c 003d ff1c 0b3d e92d b3bd 0721 90bd
00000170: f559 43bc cef0 033d 0613 1c3b 76af cc3c
00000180: 7050 2abe f1e8 16bc 5e30 20be e572 79bd
00000190: a9a4 c5bd 27da 523d fbe9 26bd a7c2 bcbd
000001a0: 733b 0cbd d277 f539 24aa 98bd 78a2 48bd
000001b0: 3217 d33d 1c9f 11be 2ba6 163d baef 113d
000001c0: b113 0fbc 8015 543d 51be 41be c117 bbbd
000001d0: 423e 3fbe f86e c93a b750 f83c edef c23c
000001e0: beda 31be d274 46bd 7371 9ebe 39eb 01be
000001f0: 6e9b ef3d 8033 3abe 9c6d 11bd 3d94 4a3d
00000200: b173 c5bd 5316 c0bc 7baa d33d d869 3cbe
00000210: bbc7 4d3c 43f1 e33d 505e fe3b d12f a1be
00000220: e366 a8bd dbaf 67bd dfa0 a83c 9322 bebe
00000230: 5531 99be 67de e53c 59f9 853d 0d16 5f3d
00000240: 00b5 d63d 32de 933d 5248 5fbd ba0a 263b
00000250: ccdb d73c 74af 5cbc 1995 9cbd b598 eebd
00000260: 76a7 d5bc 2f3c aabe bdba f23b def6 5fbc
00000270: f414 a63c 5ddd 0cbe 8546 e8bc 7701 1e3c
00000280: 9457 a93d 897d babc 8ec8 aebd f565 9dbd
00000290: 814a 3dbb 853a 253e dba7 8a3c 2a1a 003e
000002a0: 3e9a 153c a9cf 2d3d 229b b43c 4534 483d
000002b0: 33d9 88bd b30f 2ebd b84d c5bd 3b3a 8c3c
000002c0: 168f 233c 8ebf bcbd e175 0a3d 91b9 cfbc
000002d0: ce7b babc 587e 9cbe 73d1 903c 3a9e 713d
000002e0: 7cef d43d b48a 68be 501c 74be c9ba dfbc
000002f0: 06d5 913d 6fbd 28bd 4bc2 75bb e34d 973d
00000300: ccea 5dbc 60df 35be 0028 183d 5b78 4bbc
00000310: 9308 6cbe 4769 173c f4d9 57bc 259d a7bd
00000320: e971 fb3c 4a52 5b3d 562b 9dbd 3ead d1bc
00000330: db5f 3f3d ad36 8b3d c974 fabd d6e5 bfbd
00000340: d1a2 1f3d b7d6 69bb 022a f43c 7350 813d
00000350: 2233 45be 4579 13bc 8612 a1be abf0 82be
00000360: aaab 663d 78b2 053d f303 0dbd 8beb 1d3e
00000370: 465f 96be 3bdc ccbd 7bb4 853c 1978 d33c
00000380: 0a31 4dbe e543 51be d496 833b e328 c0bc
00000390: fd98 64bd d616 cb3b 5985 b83d 46c1 06be
000003a0: 63eb 80bd 0d8c b13d 7eb9 103e 79a9 793d
000003b0: 2e4d 8a3d 88c5 8ebc 3187 b6bd 53ea 6a3d
000003c0: 5468 48bc 13fd 133e 8dab a13d 02d1 80bc
000003d0: 2425 1fbd ec94 5a3d 9bab 043d 5b3e df3d
000003e0: 2f3c cabb 9f80 2cbd 7010 c7bd 4981 083e
000003f0: ee66 a33c 4a8c a43d ce96 053d 6205 003e

model.3.bias f4 [128]
-0.12098637 -0.033087973 -0.015070757 -0.027926445 -0.02314331 -0.02993736 0.037722297 0.051084217
0.119912945 -0.057138044 0.06929354 0.048910525 -0.053067777 0.005827898 -0.14511544 -0.11165752
-0.03300292 -0.034027074 0.09239131 0.026416376 -0.02571401 0.0884646 -0.054825604 -0.034507245
-0.026097044 -0.07558795 -0.066509195 0.022720873 0.07642582 0.089562654 0.18205936 0.04519743
0.08875701 0.010916612 0.062847085 -0.05952387 0.008750988 0.11815816 0.0006437946 0.12147041
0.048258618 -0.0954238 0.09823441 -0.06316813 0.025145212 -0.047971025 -0.08159384 0.01804752
0.112248756 0.061499488 0.11428267 0.007016407 -0.17983982 0.009322034 0.034595784 -0.037885934
0.15912308 0.08474349 -0.1654524 0.037407715 0.11407285 0.14027312 0.07691135 -0.01627862
0.01828586 0.10276792 -0.063483626 0.112103105 0.12968622 0.026811866 0.06707558 -0.127984
0.041735332 0.019373154 0.101880334 -0.17077304 -0.025656361 -0.05927651 -0.006557856 0.016021023
-0.06344686 0.05302528 0.02527994 0.0329378 -0.05497278 0.10660002 0.03204164 0.052495874
0.033119254 -0.15854385 0.07127449 -0.032347497 0.083614156 0.014206098 0.17275524 0.021104317
-0.039030857 -0.05089267 -0.027915983 -0.0069459286 0.09378321 -0.005794035 -0.025088923 0.008631533
0.09313774 0.13541208 0.0077494225 0.052598935 -0.019046057 0.0965171 0.019934312 -0.085563496
-0.022504631 0.0008284546 -0.06500123 0.11696826 -0.051431656 0.04707136 -0.047853287 0.04302678
0.067208335 0.16103642 0.026064105 0.06574783 0.0814486 0.10714601 -0.03900562 0.06062847
00000000: b4c7 f7bd 4187 07bd 56eb 76bc 00c6 e4bc
00000010: 0a97 bdbc 323f f5bc b282 1a3d af3d 513d
00000020: eb94 f53d 9509 6abd c6e9 8d3d 6756 483d
00000030: 995d 59bd f4f7 be3b 2499 14be b3ac e4bd
00000040: 122e 07bd f95f 0bbd a837 bd3d 2867 d83c
00000050: 30a6 d2bc ee2c b53d d090 60bd 7857 0dbd
00000060: 78c9 d5bc dbcd 9abd f935 88bd 2021 ba3c
00000070: 2485 9c3d a06c b73d c56d 3a3e f120 393d
00000080: 3cc6 b53d 97db 323c f9b5 803d 4dcf 73bd
00000090: 4e60 0f3c e8fc f13d 53c4 283a 7ac5 f83d
000000a0: d4aa 453d 8e6d c3bd 1f2f c93d 4b5e 81bd
000000b0: 55fd cd3c 447d 44bd ac1a a7bd 65d8 933c
000000c0: ade2 e53d e3e6 7b3d 080d ea3d e3e9 e53b
000000d0: ee27 38be 72bb 183c 4fb4 0d3d 482e 1bbd
000000e0: 29f1 223e ff8d ad3d 5b6c 29be d538 193d
000000f0: 079f e93d c2a3 0f3e b383 9d3d be5a 85bc
00000100: 3acc 953c fd77 d23d b403 82bd 5096 e53d
00000110: 77cc 043e 8fa4 db3c ec5e 893d 3d0e 03be
00000120: abf2 2a3d 73b4 9e3c a3a6 d03d 21df 2ebe
00000130: 4a2d d2bc edcb 72bd 49e3 d6bb 853e 833c
00000140: 6df0 81bd 0931 593d e017 cf3c c9e9 063d
00000150: 232b 61bd 1c51 da3d 183e 033d ea05 573d
00000160: 0ea8 073d 5259 22be 5cf8 913d cf7e 04bd
00000170: e63d ab3d b2c0 683c c0e6 303e f6e2 ac3c
00000180: d2de 1fbd d574 50bd 0fb0 e4bc ac9a e3bb
00000190: 6911 c03d e3db bdbb 4987 cdbc 466b 0d3c
000001a0: 00bf be3d 77a9 0a3e deee fd3b fb71 573d
000001b0: 7a06 9cbc c2aa c53d 484d a33c ea3b afbd
000001c0: a25b b8bc a62c 593a 5d1f 85bd 0e8d ef3d
000001d0: 00aa 52bd e6cd 403d cf01 44bd d93c 303d
000001e0: 86a4 893d bbe6 243e 6484 d53c cca6 863d
000001f0: 86ce a63d 5e6f db3d 5bc4 1fbd 8f55 783d

model.6.weight f4 [64, 128]
0.073797636 -0.01574915 0.13218571 0.012865042 -0.03336474 0.02253482 0.04512001 -0.04266557
0.05736102 -0.06564049 -0.06279839 0.015130172 0.007673632 0.059107088 -0.13155316 0.063504785
-0.05816733 0.00093856687 0.009079996 -0.026431749 -0.08578692 0.038829282 0.040864363 -0.017100967
0.0063598836 0.014319417 0.0474362 -0.035872106 0.32783 -0.03320528 -5.3027547e-05 -0.01328474
0.013388646 0.023369752 -0.04089897 0.07149543 0.10504936 -0.06563126 0.0591109 0.00021272058
-0.060666345 0.009770699 0.0076387576 0.029387629 0.06909963 -0.068005055 0.08662677 0.043514073
-0.056916535 -0.1187637 -0.032284737 0.19043545 -0.1846324 0.006993791 0.1256653 -0.04265336
-0.051456135 0.049092796 0.0039129127 0.069878265 0.03631323 0.036862537 0.124753885 -0.037610065
-0.01628955 -0.043103095 -0.05594994 0.036291767 -0.041122455 -0.01611957 0.08267648 0.10731925
-0.18367794 -0.09124525 0.11820093 0.041804813 0.053294566 -0.09528857 0.040594522 0.040680207
-0.011133649 -0.04617582 -0.011946582 0.12824771 -0.1519996 -0.05189257 -0.06233049 -0.0796211
0.095880784 0.2219684 -0.01544265 0.1500629 0.07174274 0.07474918 -0.04041122 -0.017854469
-0.020163069 -0.0338024 0.008649355 0.018976545 -0.02650455 0.08735111 0.012976231 0.12287795
0.006564556 -0.07941291 0.100075744 0.05346362 0.12425787 -0.05892779 0.011164352 -0.09208833
0.005565345 -0.022820467 -0.019212022 0.009377491 0.08511891 0.0611266 0.055839375 0.1306692
0.063685596 -0.018514521 0.11019985 0.01242218 0.060871724 -0.10503369 -0.06464352 0.0068591665
0.08404239 -0.19208519 0.22633342 0.09057012 0.11179922 0.09346409 0.099852346 -0.10030474
-0.050497584 -0.081149645 0.10119845 -0.061854433 0.053466506 0.05813491 -0.2910974 -0.020300552
-0.09380524 -0.012226681 0.103921846 0.13914959 0.0035157294 0.028972117 0.0011070742 0.085362926
0.0010985973 0.08537217 0.06438982 0.09735123 0.18977709 -0.059699886 0.0195457 -0.020842422
-0.07724492 0.085094444 -0.011672114 0.006702996 0.069246896 -0.007895289 0.057512846 -0.047536734
-0.10364284 0.01693577 -0.071508616 0.0325152 0.0957282 0.14047822 0.03469203 0.06634458
-0.01073738 0.0016383411 -0.049225062 0.2233752 -0.10808424 0.029059319 0.051414393 -0.021650206
0.020699002 -0.014630324 0.1726094 0.04205313 -0.16238141 -0.06505845 0.14141387 0.056599423
0.061499685 0.05917135 0.023251485 -0.11445627 0.09578044 -0.025660768 0.046431422 0.1857966
-0.21344231 -0.12192796 0.05195508 -0.08524107 0.05651317 -0.028887296 0.05961552 0.03358287
0.02423972 0.0065388526 0.028679198 -0.00649639 -0.25825164 0.06256686 -0.028645925 -0.09876013
-0.12786807 0.15581422 -0.039088212 0.17339683 0.07996761 -0.092221044 0.09243405 -0.012373653
0.0020735115 -0.026662178 -0.005384923 -0.015786879 0.035983335 0.029536908 0.0576506 0.16434893
0.002842727 -0.013602257 0.027715266 -0.0097906375 0.12567836 0.052611586 0.061013777 0.1309689
-0.023144497 -0.055343725 -0.140147 0.047342364 0.07323601 -0.032898776 0.05478132 0.11158213
0.013879992 -0.033594187 0.06470294 0.07444225 0.09582822 -0.12115925 -0.037939347 -0.04152726
00000000: 3723 973d 5d04 81bc b15b 073e e6c7 523c
00000010: 77a9 08bd f19a b83c c2cf 383d 18c2 2ebd
00000020: 64f3 6a3d 856e 86bd 719c 80bd 8ae4 773c
00000030: 1773 fb3b 461a 723d dfb5 06be cc0e 823d
00000040: de40 6ebd 280a 763a 43c4 143c 6587 d8bc
00000050: 0db1 afbd 740b 1f3d 6461 273d 5417 8cbc
00000060: 9266 d03b fd9b 6a3c 764c 423d a1ee 12bd
00000070: 55d9 a73e 4202 08bd e569 5eb8 3da8 59bc
00000080: 0d5c 5b3c ec71 bf3c ae85 27bd 326c 923d
00000090: 1e24 d73d af69 86bd 451e 723d bf0d 5f39
000000a0: 467d 78bd 4815 203c 8b4e fa3b 53be f03c
000000b0: 1b84 8d3d 3c46 8bbd 6069 b13d d03b 323d
000000c0: 5021 69bd 623a f3bd 003d 04bd 8301 433e
000000d0: 4710 3dbe 2c2c e53b 68ae 003e 4ab5 2ebd
000000e0: abc3 52bd 8715 493d e437 803b 561c 8f3d
000000f0: 2ebd 143d 2cfd 163d f77e ff3d 030d 1abd
00000100: aa71 85bc df8c 30bd c42b 65bd ada6 143d
00000110: 0570 28bd 300d 84bc 4952 a93d 32ca db3d
00000120: 1216 3cbe cade babd 5413 f23d 863b 2b3d
00000130: 674b 5a3d a726 c3bd 7146 263d 4aa0 263d
00000140: e969 36bc db22 3dbd 99bb 43bc 5e53 033e
00000150: c8a5 1bbe 4e8d 54bd 424e 7fbd 6310 a3bd
00000160: 255d c43d af4b 633e 2b03 7dbc 17aa 193e
00000170: dced 923d 1916 993d 3c86 25bd 8943 92bc
00000180: 052d a5bc 6374 0abd 06b6 0d3c b374 9b3c
00000190: 1220 d9bc 24e5 b23d 429a 543c 6fa7 fb3d
000001a0: 7d1b d73b 3ca3 a2bd 83f4 cc3d abfc 5a3d
000001b0: e97a fe3d 445e 71bd b0ea 363c ce98 bcbd
000001c0: 7f5d b63b fdf1 babc 8862 9dbc 0ca4 193c
000001d0: d352 ae3d e35f 7a3d d4b7 643d 26ce 053e
000001e0: 986d 823d c4ab 97bc 75b0 e13d 6686 4b3c
000001f0: a154 793d e71b d7bd d263 84bd dcc2 e03b
00000200: 6b1e ac3d fbb1 44be f3c3 673e d47c b93d
00000210: fdf6 e43d 1a6a bf3d 637f cc3d 926c cdbd
00000220: 8ed6 4ebd c931 a6bd 2241 cf3d 135b 7dbd
00000230: b2ff 5a3d df1e 6e3d b80a 95be 584d a6bc
00000240: f61c c0bd 6b52 48bc fad4 d43d 3b7d 0e3e
00000250: 2768 663b ef56 ed3c 3f1b 913a c2d2 ae3d
00000260: cffe 8f3a 9bd7 ae3d cfde 833d 1560 c73d
00000270: ed54 423e de87 74bd 4e1e a03c babd aabc
00000280: 9632 9ebd ff45 ae3d 653c 3fbc cea4 db3b
00000290: 51d1 8d3d 3e5b 01bc 9792 6b3d e1b5 42bd
000002a0: b342 d4bd e2bc 8a3c 1c73 92bd a92e 053d
000002b0: 260d c43d 86d9 0f3e 3b19 0e3d abdf 873d
000002c0: d6eb 2fbc 9bbd d63a 38a0 49bd 78bc 643e
000002d0: 455b ddbd cf0d ee3c e697 523d c65b b1bc
000002e0: f490 a93c 07b4 6fbc 85c0 303e e73f 2c3d
000002f0: 5047 26be 5d3d 85bd ccce 103e ccd4 673d
00000300: 18e7 7b3d a85d 723d e679 be3c 0d68 eabd
00000310: 8928 c43d 8836 d2bc e02e 3e3d 7741 3e3e
00000320: 9f90 5abe 5eb5 f9bd dace 543d df92 aebd
00000330: 5b7a 673d 0da5 ecbc 672f 743d 318e 093d
00000340: 6192 c63c df43 d63b a3f0 ea3c abdf d4bb
00000350: 8f39 84be 0e23 803d dcaa eabc c042 cabd
00000360: d9ef 02be c38d 1f3e f61a 20bd f08e 313e
00000370: 0fc6 a33d 63de bcbd 104e bd3d ddba 4abc
00000380: c0e3 073b a46a dabc 0274 b0bb 7c53 81bc
00000390: 4363 133d 63f7 f13c 0923 6c3d 164b 283e
000003a0: 0b4d 3a3b 00dc 5ebc 200b e33c e968 20bc
000003b0: d4b1 003e 3f7f 573d 95e9 793d b61c 063e
000003c0: 8799 bdbc 1ab0 62bd b282 0fbe 11ea 413d
000003d0: c3fc 953d dec0 06bd 6162 603d 2c85 e43d
000003e0: e868 633c 0f9a 09bd fa82 843d 2e75 983d
000003f0: 9641 c43d 5722 f8bd 4a66 1bbd 7d18 2abd

model.6.bias f4 [64]
-0.06789075 0.015396605 0.13318436 0.0757225 -0.07170213 0.09048409 0.02893543 0.054115035
-0.037270237 0.07205895 -0.018706845 -0.009891671 0.1109724 -0.006195751 0.120947294 0.04986459
0.09512716 0.09520088 0.114440896 0.07046511 -0.004813278 0.07095812 -0.020789716 0.13078003
0.022619735 0.021875221 0.07615462 -0.061722513 -0.0055800993 -0.055957977 0.06515013 0.020461472
-0.04117599 -0.05054499 -0.054638058 0.10502226 -0.00794781 -0.0065108114 0.07416192 0.060032293
0.103577696 0.041914094 -0.03237533 0.000766125 0.10383481 0.09093496 0.13480052 0.12675594
0.08048967 -0.05963705 0.0019478448 -0.05851373 0.129312 0.03752457 0.017298743 0.094519295
-0.031038713 0.07988014 -0.08748993 0.016652923 0.11839046 0.0914492 0.017228626 0.101725884
00000000: 4e0a 8bbd 0b42 7c3c 7b61 083e 6614 9b3d
00000010: 91d8 92bd b94f b93d ff09 ed3c baa7 5d3d
00000020: ada8 18bd a593 933d 193f 99bc ad10 22bc
00000030: 7f45 e33d ba05 cbbb 37b3 f73d d03e 4c3d
00000040: 07d2 c23d aef8 c23d fd5f ea3d 0350 903d
00000050: b4b8 9dbb 7e52 913d 324f aabc 33eb 053e
00000060: 064d b93c aa33 b33c f4f6 9b3d bfd0 7cbd
00000070: 44d9 b6bb 3134 65bd 6e6d 853d d19e a73c
00000080: 28a8 28bd 4308 4fbd 28cc 5fbd e915 d73d
00000090: 8837 02bc a558 d5bb 34e2 973d 6ce4 753d
000000a0: 8b20 d43d 1dae 2b3d fe9b 04bd c7d5 483a
000000b0: 58a7 d43d 1c3c ba3d 2609 0a3e 4fcc 013e
000000c0: c5d7 a43d fb45 74bd d34e ff3a 18ac 6fbd
000000d0: 5d6a 043e 5db3 193d 18b6 8d3c 5593 c13d
000000e0: e644 febc 3398 a33d ec2d b3bd b66b 883c
000000f0: b376 f23d b849 bb3d 0c23 8d3c a955 d03d

model.8.weight f4 [64, 64]
-0.079781175 -0.10599998 -0.02501813 -0.16501719 0.032609127 0.07024257 -0.01414469 0.08708437
0.019569676 0.10442787 -0.075582296 0.047932006 -0.11430757 0.10783433 0.09266045 0.1788522
-0.058288027 -0.11836283 -0.02325326 -0.17397091 -0.038504425 0.0111264335 -0.20594446 -0.07549206
0.03191911 0.16072449 0.0656333 -0.17120382 0.13729104 0.15681121 -0.05602768 0.024043756
-0.032309726 -0.0092118755 0.09081596 0.016047223 0.08681629 -0.023310374 -0.27967313 0.07808302
-0.08094773 0.13922642 -0.08610331 0.06492348 0.095935754 0.028820848 0.03004107 0.06678783
0.063953556 -0.099209696 0.019555448 -0.02402972 0.1624427 0.16334815 -0.28150952 0.0026115577
0.05744376 0.03714946 -0.09068121 -0.13792056 -0.17572582 0.032627854 -0.23602937 -0.06038473
-0.18666038 -0.14201663 0.1335219 -0.13876046 -0.18285568 0.028724043 -0.15160157 0.1222327
-0.04016765 0.12576966 -0.02687765 -0.132228 0.12395076 0.07935817 0.024347264 0.17770319
0.08956069 0.041722536 -0.07216385 -0.098672405 -0.0609203 0.008884303 0.0032390105 -0.10114908
-0.0877841 -0.02081883 -0.10424515 0.06798698 0.13630088 0.2510476 -0.090999484 0.072587244
0.007990398 -0.12308185 0.02650169 0.096974224 0.09979414 -0.05554674 -0.19019438 0.023344984
0.037330676 0.08181228 0.02486343 0.05470802 -0.081397645 0.047970604 0.04239427 0.1333745
0.03509892 -0.12640423 -0.042715967 -0.06008777 -0.016663432 -0.03232765 -0.30102152 -0.015375259
0.056827474 -0.052716304 -0.16970074 -0.0396556 -0.09740162 0.087912165 0.0038054201 -0.028743979
0.14512081 0.078198545 -0.03786361 0.303811 -0.10413918 0.07428497 0.05904373 0.08821282
-0.10435021 -0.07144332 0.07545993 0.023134705 -0.060731053 0.03054158 0.07791292 0.108112924
0.03313268 0.063932896 -0.06912897 0.13367462 -0.055436663 0.03955478 0.075416975 -0.12534279
0.089629374 -0.046184834 0.04667386 0.006445529 -0.024539266 -0.03601513 -0.075241566 0.11453733
0.07200899 0.030380668 0.08472745 -0.0142323235 0.044533387 -0.04413085 0.29842472 -0.02277981
0.15148099 0.092554346 0.025923876 -0.09338343 0.05158478 0.008528746 0.08389242 0.12116438
-0.03496431 0.011107501 -0.0080681695 0.08061486 -0.13156165 -0.1304751 0.19981696 0.111321844
0.11043539 -0.09261783 0.094582796 -0.077518076 0.08485111 -0.12362676 0.15447314 0.14962214
0.0073973904 0.13881771 0.15739521 0.14023627 0.080786236 -0.018784652 0.16729735 0.13461597
0.06696314 -0.030573642 0.0068090367 0.09896624 0.1643777 -0.05396787 -0.13158454 -0.048079215
0.08845997 -0.049407594 0.08531011 0.23913006 -0.072902426 0.17523043 0.26103902 -0.045130882
0.16960202 -0.12225591 0.07686338 -0.0043855137 -0.12400896 -0.14316683 0.09912263 -0.051900096
0.053838067 0.18136881 0.068548776 -0.031981476 -0.114981756 0.11690628 0.19768305 0.033563323
0.09722792 0.029444778 0.07764705 -0.13993722 0.022242615 -0.091815874 0.0033753256 -0.071016215
-0.0024059438 -0.024267524 -0.048565865 0.16585943 -0.12991558 -0.119531296 0.16093713 0.013246051
0.13273482 -0.0605919 -0.032263484 -0.07813404 0.1039842 -0.038250685 0.18475394 0.03429765
00000000: 5064 a3bd 8416 d9bd d2f2 ccbc 44fa 28be
00000010: 2691 053d 56db 8f3d 21bf 67bc 4a59 b23d
00000020: 9650 a03c 47de d53d e4ca 9abd 5a54 443d
00000030: 161a eabd 3fd8 dc3d c3c4 bd3d 0825 373e
00000040: 6dbf 6ebd 3668 f2bd 9f7d bebc 6e25 32be
00000050: d1b6 1dbd a54b 363c 1be3 52be 959b 9abd
00000060: 9dbd 023d f694 243e c06a 863d 0e50 2fbe
00000070: 0696 0c3e 1e93 203e 487d 65bd 69f7 c43c
00000080: 3457 04bd 68ed 16bc b8fd b93d 7775 833c
00000090: bdcc b13d 66f5 bebc 5131 8fbe fee9 9f3d
000000a0: ecc7 a5bd 5f91 0e3e ef56 b0bd 9af6 843d
000000b0: f779 c43d b319 ec3c b118 f63c 0fc8 883d
000000c0: 15fa 823d 742e cbbd bf32 a03c fad9 c4bc
000000d0: 6157 263e bd44 273e 0422 90be ab26 2b3b
000000e0: 264a 6b3d 082a 183d 12b7 b9bd 0c3b 0dbe
000000f0: 78f1 33be c9a4 053d afb1 71be fb55 77bd
00000100: e623 3fbe cf6c 11be f7b9 083e 3917 0ebe
00000110: 853e 3bbe af4e eb3c 713d 1bbe 2355 fa3d
00000120: d586 24bd c3c9 003e 842e dcbc c766 07be
00000130: e5d9 fd3d 8986 a23d ea73 c73c d3f7 353e
00000140: 986b b73d 40e5 2a3d a4ca 93bd c214 cabd
00000150: 9187 79bd 788f 113c 9445 543b 4027 cfbd
00000160: 26c8 b3bd 408c aabc 7b7e d5bd c23c 8b3d
00000170: 7592 0b3e 5089 803e f05d babd 9fa8 943d
00000180: 29ea 023c 5612 fcbd 121a d93c 6c9a c63d
00000190: df60 cc3d fa84 63bd 51c2 42be fb3d bf3c
000001a0: 0de8 183d 328d a73d 64ae cb3c 8415 603d
000001b0: cfb3 a6bd d37c 443d 9da5 2d3d 5393 083e
000001c0: e3c3 0f3d 1c70 01be f0f6 2ebd 981e 76bd
000001d0: c081 88bc ff69 04bd 7e1f 9abe 83e8 7bbc
000001e0: edc3 683d 0ded 57bd 08c6 2dbe e96d 22bd
000001f0: 807a c7bd 4b0b b43d 5b64 793b 7e78 ebbc
00000200: 8d9a 143e 8f26 a03d df16 1bbd 1e8d 9b3e
00000210: ec46 d5bd b822 983d d7d7 713d eca8 b43d
00000220: 90b5 d5bd e050 92bd bc8a 9a3d fe84 bd3c
00000230: 20c1 78bd 5632 fa3c cf90 9f3d 4f6a dd3d
00000240: 22b6 073d 40ef 823d 7d93 8dbd 00e2 083e
00000250: 8e11 63bd 3104 223d 3774 9a3d dc59 00be
00000260: 9b8f b73d 4f2c 3dbd 172d 3f3d 0435 d33b
00000270: 9206 c9bc 9a84 13bd 4018 9abd 8c92 ea3d
00000280: 7379 933d e1e0 f83c 9685 ad3d b12e 69bc
00000290: a468 363d 8dc2 34bd 20cb 983e b99c babc
000002a0: d51d 1b3e 228d bd3d 4f5e d43c d03f bfbd
000002b0: 904a 533d 27bc 0b3c cacf ab3d 0825 f83d
000002c0: bc36 0fbd 3cfc 353c 5b30 04bc 6719 a53d
000002d0: 19b8 06be 449b 05be d19c 4c3e b5fc e33d
000002e0: f32b e23d 6bae bdbd a0b4 c13d ccc1 9ebd
000002f0: 6bc6 ad3d 0730 fdbd 352e 1e3e 8c36 193e
00000300: cf65 f23b 3b26 0e3e 362c 213e 199a 0f3e
00000310: 4173 a53d 45e2 99bc ff4f 2b3e c5d8 093e
00000320: f923 893d 9375 fabc 571e df3b d0ae ca3d
00000330: a152 283e 6a0d 5dbd 19be 06be b6ee 44bd
00000340: 802a b53d 9e5f 4abd 11b7 ae3d 83de 743e
00000350: de4d 95bd 9b6f 333e e8a6 853e 29db 38bd
00000360: 27ac 2d3e 4e61 fabd 8c6a 9d3d 5bb4 8fbb
00000370: 69f8 fdbd 539a 12be ce00 cb3d 3295 54bd
00000380: 4e85 5c3d bfb8 393e 4d63 8c3d 02ff 02bd
00000390: 8e7b ebbd 8f6c ef3d 6d6d 4a3e b279 093d
000003a0: 6f1f c73d 2d36 f13c 6b05 9f3d b44b 0fbe
000003b0: 2536 b63c f609 bcbd 9134 5d3b f370 91bd
000003c0: 0aad 1dbb b0cc c6bc 00ed 46bd 0ed7 293e
000003d0: 9708 05be d3cc f4bd b4cc 243e f705 593c
000003e0: a3eb 073e 362f 78bd b726 04bd bd04 a0bd
000003f0: abf5 d43d c0ac 1cbd 2330 3d3e b17b 0c3d

model.8.bias f4 [64]
0.06811452 0.0068477564 -0.06454207 -0.045921057 0.07102806 0.07514913 -0.048461057 0.14586066
-0.07296044 0.037782177 0.12605688 0.12239345 -0.041682333 0.11058284 0.16382565 0.07898925
0.09455623 0.12148061 -0.09921804 -0.13708632 0.098596446 0.051977947 0.12867329 0.0911946
0.14584993 0.08984481 -0.15000752 0.03623773 0.14545026 0.076385334 0.02025066 -0.02177087
0.042541735 -0.00068877946 -0.04196633 -0.015967164 -0.043438002 0.22237827 -0.093837574 0.10621529
-0.09029542 0.10329829 -0.061735664 0.08027799 0.058809932 0.031000527 0.112778835 -0.0819584
-0.02802081 0.028935099 0.026607042 0.061432686 0.08907053 0.030988635 0.025606655 0.09726255
0.09824295 -0.097727075 0.05875786 -0.05129762 -0.051232044 0.1217321 0.086924635 0.06954506
00000000: a07f 8b3d 2563 e03b a22e 84bd b817 3cbd
00000010: 2977 913d c9e7 993d 1a7f 46bd 7f5c 153e
00000020: 486c 95bd 7cc1 1a3d 0e15 013e 6ba9 fa3d
00000030: 18bb 2abd 4279 e23d e9c1 273e 1ec5 a13d
00000040: b2a6 c13d d3ca f83d d432 cbbd 5b60 0cbe
00000050: efec c93d d4e6 543d eec2 033e 3cc4 ba3d
00000060: af59 153e 8e00 b83d 929b 19be 046e 143d
00000070: eaf0 143e ea6f 9c3d b6e4 a53c d358 b2bc
00000080: 3e40 2e3d 358f 34ba e3e4 2bbd 92cd 82bc
00000090: 0cec 31bd 21b7 633e ea2d c0bd 6787 d93d
000000a0: ceec b8bd 0e8e d33d 89de 7cbd c968 a43d
000000b0: afe2 703d d1f4 fd3c 97f8 e63d ced9 a7bd
000000c0: e68b e5bc 4d09 ed3c 03f7 d93c d7a0 7b3d
000000d0: 9c6a b63d e1db fd3c 0cc5 d13c 9631 c73d
000000e0: 9a33 c93d 2225 c8bd 15ac 703d 741d 52bd
000000f0: b1d8 51bd ae4e f93d 8b05 b23d a46d 8e3d

model.11.weight f4 [32, 64]
0.116377786 0.1755522 -0.05447432 -0.023059685 0.18872347 -0.026077686 -0.08815752 0.055606086
-0.055972908 -0.028713446 0.15419163 0.03004664 -0.15181927 0.007232228 0.1328179 -0.09778755
0.15208894 0.07896203 0.0708304 0.04000382 0.09769381 -0.006105747 0.1830975 -0.09072556
0.1060263 -0.086261876 -0.14906253 -0.08490764 0.028088126 0.08970848 0.04381732 -0.007620975
-0.080264755 -0.04078993 -0.029248029 0.025414694 0.14152035 0.08551887 0.021673586 0.093191564
-0.09951979 0.019131118 -0.03570673 0.045368887 0.1627991 0.0025179072 0.09836896 -0.07975387
-0.041278027 -0.02673865 -0.10587068 0.07163834 0.14268777 0.088587075 -0.0019795508 -0.005953412
-0.031713843 -0.107120074 -0.059154943 0.15849234 0.16059476 -0.019127117 0.07634019 -0.106733195
0.027541684 0.0025510404 0.06655963 -0.07527148 0.09572314 0.065841705 0.0010522963 0.09764146
0.04588937 0.028422004 0.14408301 0.08643678 0.009259934 0.1232586 0.021671928 -0.061629523
0.10560704 0.022760577 0.01508778 -0.023754487 -0.09854494 0.043040346 -0.021139387 0.10497195
0.14894599 -0.03161105 -0.23144886 0.1219696 0.17744759 0.03503328 -0.016234636 0.16496338
0.04291389 -0.03822789 0.10008742 0.15144931 -0.014699384 0.05218087 0.05782697 0.13779746
-0.031807497 0.11986297 -0.062214654 0.096445926 0.08478387 0.13469349 0.14559786 0.1579012
-0.12767096 -0.0030092238 -0.005053762 0.15504415 0.15032968 0.09513435 0.015865723 0.04352709
0.1413688 -0.052827377 0.07994483 0.12492253 0.1538669 0.043305103 0.075770296 0.02504433
-0.056893945 0.1723658 0.13917421 -0.017918818 -0.071380585 -0.16119246 0.032991268 0.046536144
0.012934092 -0.17410676 0.060491618 0.012413647 0.0682148 -0.024500104 -0.021685116 -0.0880246
-0.09388527 -0.18968521 -0.05396782 0.10006992 -0.017043939 0.040012788 0.09675003 -0.037012313
-0.040331047 -0.20653448 -0.008514843 -0.020282714 -0.079200104 -0.0023996474 0.05009653 0.049540702
0.05100028 -0.1219622 -0.17772071 -0.091613255 0.12253601 0.072661184 -0.04661069 -0.0148063665
-0.06448867 0.07919592 -0.10430717 -0.042822894 -0.078485414 0.005944347 0.15679273 -0.048288006
0.080293275 -0.10619868 -0.09798529 0.09420999 -0.094414495 0.120821066 0.018541524 -0.0062704026
-0.003158385 -0.17382148 -0.00084713317 0.07498558 0.0860478 -0.0420383 0.020314945 -0.07973244
0.16859536 0.04197735 -0.12904239 -0.040657733 0.102840155 0.1106952 -0.003953028 0.17995393
-0.08879267 -0.030037621 0.18099768 0.10895246 -0.10602338 0.15303382 0.025276747 -0.122455634
0.18473071 0.0842693 -0.07568696 -0.04189821 -0.06733667 0.06548217 0.0039371443 0.008586203
-0.022634545 -0.054013167 -0.10253886 0.044920854 0.16652514 0.03814627 0.17336997 0.11993382
-0.094429635 0.077515736 0.08502598 0.009907369 0.09968896 0.121688634 0.0087999385 0.018984666
0.019598743 0.049965817 0.07317786 -0.12816118 0.088687114 0.08386997 0.010431484 0.03963926
-0.008806493 -0.09558132 -0.12947877 0.09119694 -0.016805762 0.03318478 0.117954 -0.05346952
-0.12378871 -0.18856716 -0.02301838 0.16653231 0.12894677 0.019050762 -0.09478393 -0.11589854
00000000: 7a57 ee3d f5c3 333e 7720 5fbd aae7 bcbc
00000010: ba40 413e dfa0 d5bc ee8b b4bd 35c3 633d
00000020: d943 65bd 7638 ebbc 69e4 1d3e 5f24 f63c
00000030: 8376 1bbe 53fc ec3b 6a01 083e d744 c8bd
00000040: 34bd 1b3e d8b6 a13d 870f 913d 0cdb 233d
00000050: b113 c83d b812 c8bb e97d 3b3e 53ce b9bd
00000060: 5124 d93d 11aa b0bd d9a3 18be 0fe4 adbd
00000070: 1219 e63c 14b9 b73d ca79 333d 5fb9 f9bb
00000080: d961 a4bd 5713 27bd 9099 efbc 7a32 d03c
00000090: b6ea 103e 8424 af3d ce8c b13c 38db be3d
000000a0: 08d1 cbbd ddb8 9c3c 3841 12bd bad4 393d
000000b0: cfb4 263e 7903 253b aa75 c93d ff55 a3bd
000000c0: 2613 29bd 030b dbbc bad2 d8bd 1fb7 923d
000000d0: be1c 123e 246d b53d 5abb 01bb d714 c3bb
000000e0: 60e6 01bd c561 dbbd 744c 72bd d14b 223e
000000f0: f472 243e 79b0 9cbc 3f58 9c3d ef96 dabd
00000100: 199f e13c 5b2f 273b 6a50 883d ef27 9abd
00000110: 7e0a c43d 04d8 863d 34ed 893a 3ff8 c73d
00000120: 7ef6 3b3d 43d5 e83c 7f8a 133e c405 b13d
00000130: fab6 173c 016f fc3d 5489 b13c 3d6f 7cbd
00000140: 8148 d83d 6474 ba3c bc32 773c c598 c2bc
00000150: eed1 c9bd 134b 303d 822c adbc 89fb d63d
00000160: 4c85 183e 977a 01bd ee00 6dbe 33cb f93d
00000170: d2b4 353e 0e7f 0f3d 80fe 84bc 29ec 283e
00000180: 7ac6 2f3d d994 1cbd a2fa cc3d 8715 1b3e
00000190: afd5 70bc 9cbb 553d f9db 6c3d c71a 0d3e
000001a0: 9448 02bd b87a f53d cbd4 7ebd 7185 c53d
000001b0: 2aa3 ad3d 17ed 093e 9b17 153e dab0 213e
000001c0: 2dbc 02be 6636 45bb 079a a5bb e5c3 1e3e
000001d0: 06f0 193e ccd5 c23d d5f8 813c 7649 323d
000001e0: fcc2 103e 8561 58bd 1dba a33d 62d7 ff3d
000001f0: 498f 1d3e b160 313d 752d 9b3d c429 cd3c
00000200: a009 69bd a980 303e af83 0e3e 7cca 92bc
00000210: fc2f 92bd a30f 25be da21 073d af9c 3e3d
00000220: 84e9 533c 0b49 32be 0fc6 773d 9c62 4b3c
00000230: 33b4 8b3d 71b4 c8bc fca4 b1bc 3e46 b4bd
00000240: ec46 c0bd d73c 42be 5c0d 5dbd 75f1 cc3d
00000250: bb9f 8bbc 73e4 233d e124 c63d 399a 17bd
00000260: 2b32 25bd c67d 53be d781 0bbc ef27 a6bc
00000270: aa33 a2bd 6743 1dbb 0532 4d3d 31eb 4a3d
00000280: abe5 503d 51c7 f9bd 6bfc 35be bb9f bbbd
00000290: 29f4 fa3d 63cf 943d daea 3ebd 6796 72bc
000002a0: a312 84bd 7831 a23d ff9e d5bd 0f67 2fbd
000002b0: f6bc a0bd ccc8 c23b 468e 203e a5c9 45bd
000002c0: cd70 a43d b27e d9bd 83ac c8bd 2bf1 c03d
000002d0: 635c c1bd 0971 f73d 65e4 973c f377 cdbb
000002e0: e8fc 4ebb 42fe 31be 2512 5eba 0a92 993d
000002f0: d439 b03d 5a30 2cbd 876b a63c c34a a3bd
00000300: 43a4 2c3e 71f0 2b3d b023 04be b988 26bd
00000310: dc9d d23d 2ab4 e23d 6788 81bb d845 383e
00000320: eed8 b5bd 7511 f6bc 7557 393e 7822 df3d
00000330: c922 d9bd e6b4 1c3e 2e11 cf3c 05ca fabd
00000340: 0c2a 3d3e 6295 ac3d c401 9bbd 759d 2bbd
00000350: cfe7 89bd 841b 863d 2903 813b 25ad 0c3c
00000360: 156c b9bc e93c 5dbd e5ff d1bd eefe 373d
00000370: 9185 2a3e 433f 1c3d e687 313e dd9f f53d
00000380: 5364 c1bd 92c0 9e3d 1a22 ae3d 8452 223c
00000390: ba29 cc3d e437 f93d 9e2d 103c bb85 9b3c
000003a0: 8b8d a03c f5a8 4c3d 46de 953d af3c 03be
000003b0: 97a1 b53d 05c4 ab3d d1e8 2a3c c75c 223d
000003c0: 1c49 10bc 24c0 c3bd 1596 04be 76c5 ba3d
000003d0: 3dac 89bc c4ec 073d de91 f13d db02 5bbd
000003e0: ef84 fdbd c017 41be 0b91 bcbc 7287 2a3e
000003f0: 9f0a 043e 5810 9c3c 141e c2bd 375c edbd

model.11.bias f4 [32]
0.07672916 0.21351326 0.06342659 0.036580525 0.10422235 0.033336025 0.13138232 -0.077034295
-0.045956615 0.21312821 0.0840282 -0.09323625 0.13978098 0.16981164 0.07054663 0.08288033
0.2275287 0.1596898 0.04955357 0.037828278 0.021532856 -0.024110667 -0.053514928 0.17295007
0.02264843 0.09275981 0.07046386 -0.058420286 0.09776994 0.11776506 0.10688562 0.058276955
00000000: 2e24 9d3d 38a3 5a3e cde5 813d 76d5 153d
00000010: 8772 d53d 5b8b 083d 1689 063e 28c4 9dbd
00000020: 013d 3cbd 483e 5a3e fa16 ac3d a6f2 bebd
00000030: bf22 0f3e 1ae3 2d3e c07a 903d 2abd a93d
00000040: 49fd 683e b985 233e aff8 4a3d d3f1 1a3d
00000050: ac65 b03c bc83 c5bc 7832 5bbd d319 313e
00000060: 3389 b93c dbf8 bd3d 5b4f 903d 1c4a 6fbd
00000070: 9b3b c83d cf2e f13d d9e6 da3d d1b3 6e3d

model.13.weight f4 [32, 32]
-0.15727456 -0.14066418 -0.05153826 0.048387617 0.18529175 -0.03323503 0.06650476 -0.16972516
0.055909645 -0.026082855 0.03692035 0.055028636 -0.06403441 0.034221966 -0.03475446 -0.110665575
0.0974978 0.31020266 -0.27059346 -0.13547482 0.053559206 0.18289736 -0.054694463 -0.13346153
0.10052657 0.09538748 -0.11325802 0.16504031 0.017222792 -0.099736124 0.020231018 0.14111643
0.10696528 0.08851529 -0.03341774 0.12641706 0.058310498 -0.1918993 -0.074908346 -0.13102157
0.010352842 -0.008062961 -0.0621669 -0.06908697 0.07508648 0.13038933 -0.049361724 -0.21440174
0.013300015 0.10113899 -0.18568145 -0.0018490056 0.20662552 -0.072746664 -0.049643353 -0.01150853
0.16139124 -0.13840003 0.09301924 0.14312813 0.107935056 -0.07224459 0.13676941 0.18606214
-0.103446305 0.067142025 -0.09309745 -0.037305914 0.23603122 0.006081399 0.13329498 0.20315725
0.14348888 0.0121394405 0.07553959 0.121342465 0.22746758 0.1917793 -0.001390851 -0.0037160048
0.15437846 0.15065213 -0.14126228 -0.1137616 0.17626145 0.111275785 -0.09227084 0.18721189
0.22604915 -0.11575131 -0.03385738 0.07679358 -0.0326865 -0.10858105 -0.07246097 0.12539722
0.09121166 -0.014349226 -0.15422471 -0.056244593 0.19693163 -0.1268825 -0.062331397 0.109604254
0.15478168 -0.052727647 0.18402687 -0.06954071 0.04164978 -0.0020317421 -0.12245615 0.11143607
0.07675416 0.2268587 -0.24873109 -0.14549021 0.19437209 0.08999752 -0.102313265 -0.08684343
-0.003144998 0.032901436 -0.049879964 0.05405931 0.046362497 -0.046978936 -0.0054138037 0.16306788
-0.15186343 0.11202514 -0.12027224 0.09761909 0.13413191 0.04046062 0.2137555 -0.02728248
0.15079425 -0.19571051 -0.029397586 -0.06756961 0.06950415 -0.0891898 0.013072595 -0.1563093
0.10290328 0.177538 -0.12523776 -0.07126849 0.083999574 0.13005044 -0.17779589 0.119223244
-0.0266968 0.10896641 0.17118947 0.15958388 0.14261626 0.01016942 -0.09779651 0.31495994
0.11769606 0.05035521 -0.0712865 -0.028920047 0.17789556 0.01827935 -0.03374284 -0.10784688
0.029636147 -0.03627345 0.17259598 -0.1535344 0.2238198 0.07850771 0.14927982 -0.096622504
-0.06117177 0.24929157 0.07376196 -0.0726518 0.22825898 0.22767824 0.061493892 -0.010788398
0.22056359 -0.10827115 0.23427355 0.13378729 0.24294302 -0.009264465 -0.17160788 0.05824895
0.14197345 0.0313085 -0.068714544 0.09706535 0.16420515 -0.13735208 0.16866879 -0.053695768
0.07825313 -0.12082603 0.007240269 0.15095629 0.15007718 0.15087679 -0.11119257 -0.1181381
-0.059468556 -0.052841637 0.02073507 -0.041646775 0.13990672 0.13701406 -0.058041397 -0.025963992
-0.022451613 -0.060718656 0.10154691 0.15860066 0.095584 -0.029566092 -0.16297089 0.03629908
0.01744452 0.15886018 0.008924681 -0.109450795 0.10518348 0.07246053 -0.055403765 0.102359906
0.17902772 -0.043047752 0.23066927 0.19805813 0.16686566 0.22054148 -0.15315989 -0.027222484
0.13036136 0.077898964 -0.17318949 0.009704426 0.014204204 -0.018232951 -0.17818342 -0.12334974
-0.010515079 -0.14205211 -0.07418802 0.23848154 -0.03581505 -0.0750408 -0.048948552 0.09709268
00000000: 950c 21be 450a 10be c819 53bd 1832 463d
00000010: 1fbd 3d3e 7421 08bd a633 883d 6fcc 2dbe
00000020: 8301 653d b6ab d5bc cb39 173d b565 613d
00000030: 7924 83bd 552c 0c3d b15a 0ebd a2a4 e2bd
00000040: edac c73d e2d2 9e3e 3a8b 8abe e9b9 0abe
00000050: e660 5b3d 7249 3b3e 4d07 60bd 24aa 08be
00000060: e0e0 cd3d 835a c33d d2f3 e7bd 5400 293e
00000070: d016 8d3c 7442 ccbd 85bb a53c d380 103e
00000080: 9d10 db3d 8147 b53d 0ae1 08bd 7973 013e
00000090: fdd6 6e3d 4081 44be 8c69 99bd 852a 06be
000000a0: f79e 293c 821a 04bc b8a2 7ebd 787d 8dbd
000000b0: f1c6 993d c884 053e 852f 4abd 218c 5bbe
000000c0: 4ee8 593c f521 cf3d 4723 3ebe 555a f2ba
000000d0: a495 533e 34fc 94bd d456 4bbd 468e 3cbc
000000e0: bf43 253e bdb8 0dbe df80 be3d 2e90 123e
000000f0: 0e0d dd3d f9f4 93bd 480d 0c3e 1387 3e3e
00000100: a8db d3bd c281 893d e0a9 bebd 16ce 18bd
00000110: 2bb2 713e 7946 c73b 7b7e 083e 7408 503e
00000120: c0ee 123e 81e4 463c 80b4 9a3d 6682 f83d
00000130: 43ed 683e cb61 443e 374d b6ba 3788 73bb
00000140: 6315 1e3e 8d44 1a3e 0fa7 10be d7fb e8bd
00000150: e27d 343e 8fe4 e33d 7ff8 bcbd 79b4 3f3e
00000160: 6e79 673e 060f edbd 09ae 0abd f445 9d3d
00000170: 48e2 05bd be5f debd 6b66 94bd 2168 003e
00000180: 2ecd ba3d 0419 6bbc 15ed 1dbe bb60 66bd
00000190: 72a8 493e 7ced 01be 354f 7fbd 3278 e03d
000001a0: 177f 1e3e f2f8 57bd 8a71 3c3e 5c6b 8ebd
000001b0: f698 2a3d fa26 05bb 4aca fabd 9838 e43d
000001c0: 4931 9d3d a64d 683e 5db3 7ebe 63fb 14be
000001d0: 7a09 473e 9f50 b83d 9e89 d1bd f8da b1bd
000001e0: 501c 4ebb a8c3 063d ef4e 4cbd 4c6d 5d3d
000001f0: 9ae6 3d3d fc6c 40bd 4766 b1bb 44fb 263e
00000200: 1682 1bbe 706d e53d 4b51 f6bd 84ec c73d
00000210: e059 093e 09ba 253d b9e2 5a3e 827f dfbc
00000220: cf69 1a3e 5668 48be 35d3 f0bc f061 8abd
00000230: 3158 8e3d 24a9 b6bd 702e 563c 8c0f 20be
00000240: f4be d23d 85cc 353e 543e 00be 37f5 91bd
00000250: f807 ac3d f12b 053e 2010 36be 512b f43d
00000260: 3fb3 dabc c829 df3d 4b4c 2f3e f569 233e
00000270: ff09 123e a49d 263c 8949 c8bd 6e42 a13e
00000280: a20a f13d 4441 4e3d a8fe 91bd bce9 ecbc
00000290: 412a 363e 93be 953c ef35 0abd d3de dcbd
000002a0: 81c7 f23c 7893 14bd 00bd 303e 1f38 1dbe
000002b0: 0531 653e a6c8 a03d cfdc 183e 05e2 c5bd
000002c0: 408f 7abd 4a46 7f3e 8310 973d 78ca 94bd
000002d0: b9bc 693e 7c24 693e 05e1 7b3d d2c1 30bc
000002e0: 6cdb 613e 44bd ddbd 68e5 6f3e 89ff 083e
000002f0: 0ec6 783e fcc9 17bc fab9 2fbe 7396 6e3d
00000300: 7d61 113e 573d 003d 36ba 8cbd 33ca c63d
00000310: 6525 283e 06a6 0cbe 83b7 2c3e 18f0 5bbd
00000320: 2d43 a03d a373 f7bd c73f ed3b 4994 1a3e
00000330: d5ad 193e 727f 1a3e eeb8 e3bd 63f2 f1bd
00000340: 4d95 73bd 7970 58bd 98dc a93c cf95 2abd
00000350: b543 0f3e 6a4d 0c3e d1bc 6dbd 70b2 d4bc
00000360: 72ec b7bc 20b4 78bd d4f7 cf3d 3668 223e
00000370: 8bc1 c33d 9734 f2bc d7e1 26be 58ae 143d
00000380: cfe7 8e3c 3eac 223e d338 123c bd27 e0bd
00000390: 706a d73d 3066 943d 0fef 62bd 12a2 d13d
000003a0: 0b53 373e d752 30bd 9134 6c3e c0cf 4a3e
000003b0: d5de 2a3e a0d5 613e f2d5 1cbe b001 dfbc
000003c0: 737d 053e 7e89 9f3d 9658 31be 50ff 1e3c
000003d0: c0b8 683c 455d 95bc b775 36be ca9e fcbd
000003e0: 7047 2cbc 1c76 11be e3ef 97bd 8134 743e
000003f0: cdb2 12bd feae 99bd 477e 48bd 87d8 c63d

model.13.bias f4 [32]
0.07779266 0.17554462 -0.012971287 0.092138745 0.016844973 -0.041013807 0.18294531 0.12766263
0.121504925 0.0070756203 0.061696798 -0.14567712 -0.0094261095 0.0630977 0.17966251 -0.08189267
0.11914649 0.19161496 0.0031285794 0.23148248 -0.16480018 -0.037492506 0.023709545 -0.11003852
0.09756535 -0.11513921 -0.05271884 0.16554478 0.11942643 0.113593034 0.16243081 -0.010754778
00000000: c251 9f3d f8c1 333e 8585 54bc 3db3 bc3d
00000010: 78fe 893c 18fe 27bd 0456 3b3e feb9 023e
00000020: 93d7 f83d 9bda e73b c8b5 7c3d 622c 15be
00000030: f86f 1abc 5e39 813d 73f9 373e 58b7 a7bd
00000040: 1303 f43d b636 443e da08 4d3b be09 6d3e
00000050: 61c1 28be be91 19bd 853a c23c e05b e1bd
00000060: 58d0 c73d 1bce ebbd b6ef 57bd 9284 293e
00000070: d895 f43d 77a3 e83d 4354 263e cf34 30bc
