results/Weights/model1_balance_nos.pth (torch, 149458 bytes, 17 tensors)

model.0.weight f4 [128, 21]
00000000: 6009 bb3d 487d a33d 4435 0abf ccd8 4fbd
00000010: 80c5 aabd aae3 b4bd b283 98be 0b2d 8cbd
00000020: 8701 a93d 72d6 a5bd ce2d f23e 24b4 013e
00000030: d96b 9c3c afe8 e8be d50a 1f3e 9f91 b83b
00000040: 20ab b33e 28d3 f93c 4b66 0abe fb63 c8bd
00000050: 487b aabc 6aff 363c e700 1dbd 7743 183e
00000060: a6d7 b63b 8507 8f3d 45a6 77be 1c14 6d3a
00000070: e395 793d 3488 11bc 5c87 ad3d 42e3 e9bd
00000080: b7cb 2abd bca7 cebe e648 5fbd 2ce7 95be
00000090: 4740 a8be 28f0 cbbd be88 d43d 0602 feba
000000a0: c52d ba3c bac7 0e3d 8422 023f 346a 1ebe
000000b0: c467 cf3e ce74 1dbc e187 ac3d d35d 2cbe
000000c0: d214 0c3e abfb 55be b0d2 8f3b a5e5 0cbd
000000d0: 6925 5f3e baa4 223e e0b9 c93d 3c24 0c3e
000000e0: 4125 60bc a1bc 073b a7ed 433e 096c 543e
000000f0: 11cb 31be dcc6 07be 9094 853d e8f0 d63d
00000100: 8ffe 413e cabe ba3d 2202 0fbd 331f dcbd
00000110: fd04 5c3d da2a 05be 288d 843d 09f6 283e
00000120: 56c7 bc3d ef5c 02bd 6d9a 53be 5deb e73e
00000130: 1ac6 d43d 5b1d 0c3e 2598 e23d 34ae 8f3d
00000140: e913 943d f370 8c3d 40d6 6abe c443 0f3e
00000150: 5a00 48be c357 403d afc4 64bd 6eff 3f3a
00000160: 030c 56bc 5b6d 9cbd 9e23 55bc fc1a 313e
00000170: e714 973d ecd2 223d 856c 76be 3f4a 37be
00000180: 9da5 6b3e ec3a 9abe c905 06bd 6fc4 183c
00000190: abf4 91be 2352 273e db8b 91bd fc6a ef3d
000001a0: 0b66 1d3e 8b16 44be b070 553c f88b 4bbf
000001b0: a287 573c c143 503d b4e0 6f3e 4943 88be
000001c0: 71e2 53bd a6d8 dc3d ad2c 08be 56d9 3d3e
000001d0: cf57 023d d246 063e 5ff3 01be 1116 143a
000001e0: 4a02 143b 5f5a c53e 0591 aa3d af86 babd
000001f0: f7fd 263e d9bd 013c b4ef f2bd 734b 453e
00000200: b4e9 b8be 50c3 223d 234b 00be f010 a13e
00000210: 1829 b73e 8a1e d83d 5085 f8bd 4878 86be
00000220: 06f9 053f c088 07be c085 a5bc 9638 bcbe
00000230: 9e16 1a39 c374 343d 48af 3e3e c3b8 6bbe
00000240: 93c5 c139 df7f cbbb 9c64 ac3c 4ad1 473d
00000250: 1fc9 523e c11c c83d 9c87 273c 2c74 e6bd
00000260: f918 63be ef70 c2bd 7dfc 313d 5ea0 a0bd
00000270: 66cd 6c3d 4bcb 9ebe 5ea7 04be 232b fb3d
00000280: dcaa 653e 26d7 383a 7db6 0abd 00ce a0bd
00000290: 8b04 2bbe 2037 0a39 e7f0 c33a c9dd 9bbc
000002a0: 4957 b5bd b7a6 0abe d862 f2bd dd67 d7bd
000002b0: ff9c 0e3e 4199 afbd 9265 19be 1fe2 4f3d
000002c0: 1a06 e83d dda7 69bd df4c 8ebd d194 3cbe
000002d0: 004d 14be 1b0b d03d 91d9 59bd 5221 57bd
000002e0: 1358 29bc bfdf 0d3e d6b8 eb3c 9c23 7bbd
000002f0: 8293 bb3d 7019 4c3d 53d7 b93d c08e d33c
00000300: d0b3 0c3d edb2 7f3b d530 a93d 1e8b 643e
00000310: 46cf 33be 7837 10bd 4286 38be 0af6 29be
00000320: 0577 e9bd 4294 b43c da8c 98bd 9e85 6239
00000330: e47c afbb 3b53 163e 8156 3d3d a57e 663d
00000340: 1d6e 393d d636 91bd 901a 703e 6566 353d
00000350: ebbd 9abd 9f98 0fbb 8708 133c 3f5e f3be
00000360: 181f 8ebd f833 d83d b1bd 673b f8a1 15bb
00000370: 6587 e4be 52d9 c83d 8da9 b2bd 25d5 363e
00000380: d69a f6be fa7c aebd b6e5 e6bd 982e 18bd
00000390: 926c 1cbd d231 b63d d619 a3bc 8248 333e
000003a0: 4051 c63d 7a67 a2bd 5704 063d 663c 873e
000003b0: e950 76bd de51 9c3e a950 033e b6d1 283e
000003c0: c1fe b83d 1edb 94bd f4c5 bcbd dc0d 5bbe
000003d0: 193c 85bc 985f 0cbf 196b d3be 6a36 02be
000003e0: 2045 a13d eef8 a0bd 580f 913d f42b 2abd
000003f0: b343 dbbd 6dc6 e73d 9213 073c 2ce3 2cbe
0.091326475 0.0798288 -0.53987527 -0.050743863 -0.083384514 -0.08832486 -0.29787976 -0.06844529
0.082522444 -0.08097543 0.4730057 0.12666374 0.019094395 -0.45490023 0.15531476 0.0056325938
0.35091496 0.030496195 -0.13515584 -0.09784695 -0.020810738 0.011169294 -0.03833094 0.14869486
0.0055799065 0.06983856 -0.2418452 0.0009043829 0.06093396 -0.008882571 0.084730834 -0.11420299
-0.041698184 -0.40362346 -0.05451288 -0.29277933 -0.3286154 -0.099579155 0.10377644 -0.0019379265
0.022726903 0.034858443 0.50833917 -0.15470201 0.40508854 -0.009610368 0.08424354 -0.16832666
0.13679817 -0.20896785 0.0043891296 -0.034398694 0.21791615 0.1588315 0.09849906 0.13685697
-0.013680757 0.0020711797 0.19133626 0.20744337 -0.1736262 -0.13259453 0.06522477 0.10495168
0.18944763 0.091184214 -0.034914143 -0.10748138 0.053715695 -0.13004628 0.06472236 0.16500105
0.09217708 -0.03182691 -0.20664378 0.45296755 0.103893474 0.13683073 0.110641755 0.070156485
0.0723036 0.06857481 -0.22933292 0.13990694 -0.19531384 0.046958696 -0.055851635 0.0007324134
-0.013064387 -0.076380454 -0.01300898 0.1729545 0.07377034 0.039751932 -0.24064834 -0.17899416
0.23012395 -0.3012308 -0.03272036 0.009324177 -0.2850698 0.16339926 -0.071067534 0.116903275
0.15370958 -0.19149224 0.013027355 -0.7951045 0.013154896 0.050845865 0.23425561 -0.26613835
-0.051729623 0.1078351 -0.13298292 0.18539938 0.031822022 0.13112953 -0.12690495 0.000564904
0.0022584372 0.3854551 0.083284415 -0.0910772 0.16307817 0.007918798 -0.11862126 0.19267063
-0.361158 0.039737046 -0.12528662 0.31458235 0.3577354 0.105527 -0.12134802 -0.26263642
0.52333105 -0.1323576 -0.020205379 -0.36761922 0.0001469501 0.044056665 0.18621552 -0.230197
0.00036959033 -0.006210312 0.021044068 0.048783578 0.20584534 0.09771109 0.010225203 -0.11252627
-0.22177495 -0.094941966 0.043453682 -0.078430876 0.05781307 -0.31014475 -0.1295447 0.12264087
0.22428459 0.00070511026 -0.03386544 -0.078517914 -0.16700952 0.00013181241 0.0014949114 -0.019026654
-0.08854539 -0.13540159 -0.11835259 -0.10517857 0.13927077 -0.08574153 -0.14980152 0.050752755
0.11329289 -0.057044853 -0.06948256 -0.18416144 -0.14482498 0.10158368 -0.053186003 -0.05252201
-0.01033594 0.13854884 0.02877466 -0.061313257 0.09158994 0.049828947 0.09074273 0.025824904
0.03435117 0.003901656 0.08261267 0.22318694 -0.17559537 -0.03520915 -0.18019965 -0.16597763
-0.11399654 0.022043351 -0.0744874 0.00021602816 -0.0053554643 0.14680187 0.046225075 0.05627312
0.045271028 -0.07090537 0.23447633 0.044287104 -0.07555755 -0.0021911038 0.008974201 -0.47532842
-0.069395244 0.10556787 0.0035360868 -0.0022832137 -0.44634548 0.098070756 -0.087237455 0.17854746
-0.48165005 -0.08519931 -0.11274283 -0.03715381 -0.03818948 0.08896221 -0.01990978 0.17508128
0.09683466 -0.07929893 0.032718983 0.26413268 -0.060135756 0.3053121 0.12823738 0.16486248
0.090329655 -0.07268356 -0.09217444 -0.21392006 -0.016264008 -0.54833364 -0.41292647 -0.1271607
0.07874513 -0.078599796 0.07083005 -0.041545823 -0.10706272 0.113171436 0.008244412 -0.16883534

model.0.bias f4 [128]
00000000: 7c52 833e 841f 0bbf b7fc a03e 1bff aebe
00000010: 1195 2abe d389 723e 6697 b73d d108 04bf
00000020: 7904 163e c2a0 0ebf d3af b5be d3ed f3be
00000030: c337 1abc 2fa8 c33e 2d55 873e ae26 18bf
00000040: 0ea7 df3e 5380 6e3e 6c0e 26be 2f0f c23e
00000050: 9e0d 40be 7ab8 45be 83aa c3be 872b f7bd
00000060: 8ae1 69bd d1dc debc 3875 31bf df28 0bbe
00000070: a926 c5be be87 9b3e 3e7c eb3d 98e2 e0be
00000080: 551d 1abf 2298 b83e 87d4 353f 9f6d fcbe
00000090: ad99 df3e 1837 0abe 4586 ac3e a021 b5bc
000000a0: ded4 7a3e ff35 8c3e 5dfa 503e 4627 8bbc
000000b0: 17c8 4cbc c5ad ffbe b478 cbbe 4a23 91bd
000000c0: 6ffe 1c3e fe8e d53d 48c9 983e 901c f63e
000000d0: 31a9 0ebf 7ca6 c23e aed3 c03e 8039 0f3f
000000e0: a218 ffbe 8d9c c13b 3113 5d3e a1f9 5f3e
000000f0: bee0 29be fffe 3ebe 71b6 283e 493f 86be
00000100: 6053 da3e baf5 dfbe 3dda 8c3e 1cb9 7fbd
00000110: 63cc 42be 6609 deba 7a69 973e 89d6 e9be
00000120: e0e0 bdbe 32ca 18be dcb0 bb3e 8260 103f
00000130: f2ed 71be 8ccf 553b 9d01 253e 3d21 e7be
00000140: acbf 683e 31c9 af3c b27e 61bd 5595 eebe
00000150: ab19 0ebf 9d61 233c 0ce1 c0be 96e1 b1be
00000160: 6719 133e 4244 cabe 6e66 823d 88b2 013e
00000170: 1f67 0fbd 8d51 743e a2a9 cfbe b653 e0be
00000180: 5bd5 263f 30b2 3bbd f997 123e 8f1c 4f3e
00000190: 631b 05bf adb4 15bf 38b2 413e 098d 12bf
000001a0: 9906 48be 0c55 3bbd d4b4 07be fa6c a7be
000001b0: 3ffb 1cbe d8be 62be 031b df3c c78d fd3c
000001c0: 0484 10bf 5412 333d c0ae 7cbd 5f9c b0be
000001d0: 9609 e8be 5229 abbe 5344 a6be 30f8 5d3e
000001e0: 7b9b cebb 52d7 b63d 2a98 14bf 7f48 12bf
000001f0: b185 253d cd53 df3d 0a44 b03e 4b43 acbe
0.25648868 -0.54344964 0.31442806 -0.34179005 -0.16658427 0.23685388 0.08964424 -0.5157595
0.14650144 -0.55714047 -0.35485706 -0.47642383 -0.009412709 0.3821425 0.2643217 -0.5943402
0.4368214 0.2329114 -0.16216439 0.3790221 -0.18755195 -0.19308653 -0.38216028 -0.12068849
-0.057099856 -0.027204903 -0.69319487 -0.1358981 -0.38506058 0.30377 0.11498307 -0.43922877
-0.6020101 0.36053568 0.71027416 -0.49302384 0.43671933 -0.13497579 0.3369619 -0.02211076
0.24495265 0.27384946 0.20408006 -0.0169865 -0.012498877 -0.49937263 -0.39740527 -0.07086809
0.15331434 0.10427664 0.29841065 0.48068666 -0.55726916 0.38017642 0.376615 0.55947113
-0.4982348 0.005908555 0.21589352 0.2187257 -0.16589639 -0.18651961 0.16475846 -0.26220158
0.42641735 -0.43742162 0.27510253 -0.062432393 -0.1902328 -0.0016940057 0.2957266 -0.4567149
-0.37085629 -0.14920881 0.3665837 0.5639726 -0.23625925 0.0032624928 0.16113897 -0.45142546
0.22729367 0.02145824 -0.055052467 -0.46598306 -0.55507916 0.009972003 -0.37671697 -0.3474242
0.14365159 -0.39505202 0.06367193 0.1266576 -0.035010453 0.23859234 -0.40559107 -0.43813866
0.65169305 -0.04582423 0.14315785 0.20225738 -0.51994914 -0.58478814 0.18915641 -0.5724645
-0.19533767 -0.045735404 -0.13252574 -0.3270033 -0.15330218 -0.22143114 0.02723456 0.030951394
-0.5645144 0.04371865 -0.061690092 -0.34494302 -0.45319813 -0.33429962 -0.32474002 0.21676707
-0.006305156 0.08927788 -0.58044684 -0.5714187 0.0404107 0.109046556 0.3442691 -0.3364509

model.3.weight f4 [128, 128]
00000000: 013b febd ed71 96bc 51ef 353c 0a05 593b
00000010: ac66 5abd c346 2dbe d1fc 313d b1cf d9bc
00000020: e81e 8c3d b05a 1fbc e01a b93c 7988 323c
00000030: 495e a93c 4cf0 98bc 2d4e 65bd 822a b93d
00000040: b17c 2cbe a51f e4bd 6321 053d 84ec 90bd
00000050: 0348 d3bb b973 efbb 3a9c 65bc 0e8f 093d
00000060: 5d51 ef3c 72b3 86bd f9a6 233e d8f7 f0bc
00000070: b21c 0b3e 0e00 983c 593f cebd eff3 4a3c
00000080: 1e86 07be 1022 e7bd b970 d3bd 2b15 553d
00000090: bca8 c6bd 2a90 003d d19a 3abd ab3c a6bb
000000a0: 8139 c4bd 90d4 f8bd 1dca c7be d8e8 59be
000000b0: 0c7c c0bb ea60 003a dc3b 7abc f1aa e13c
000000c0: 0910 04be 08ac 7bbd c658 e7bd bee2 c2be
000000d0: 56fb 663d 60d4 dcbd 3adf edbb 9e68 d1bd
000000e0: af7b 3dbd cc09 62be 162e 78bd 5dc6 16be
000000f0: b209 0aba 6b55 75bd fe7e f5bd a982 423c
00000100: 428e 0abe e719 1cbc 022e ecbc e78c 673d
00000110: 20c9 58bc 02c6 423d 2fc9 b33d 2746 8f3d
00000120: 08b8 17bc 2dbc 27bd 577c 30be f985 0cbd
00000130: e108 ba3c 399a 07be 996f aebb cdcd 613c
00000140: e704 77bd eff8 a5bd 1e9e d9bc 1bba 0cbc
00000150: 7621 8fbd 5643 b73b 93ee 6bbc 24c2 603d
00000160: e215 51be ff8a 4ebc d9fa 843d 73ba 07be
00000170: e35d 50be 1767 1fbe 7dbf b93c 14b3 fc3c
00000180: e06f 96bd b61f 89bd 826c f2bd f313 65be
00000190: 6bab e7bc 7d0e 99bc b58c 713d 8625 7d3c
000001a0: 1dc9 483c 249d 75bd f6eb 8a3b ba0f 29bc
000001b0: 26bf 05bd dfd6 32bb 2621 283d 063d e83c
000001c0: 74c6 7abd 1096 0cbe 4c8c a43d 3d3b b0bc
000001d0: d7aa 3cbd d75a 01bc a7f3 093b c030 91bd
000001e0: 3763 28bb 2fb0 353c cab2 20bd 2b07 133d
000001f0: da9b 0abf 7a04 5d3a 6b3b e83c efca 863c
00000200: 835e d53d 5e42 8a3a 50c4 93bd 138d 67bd
00000210: 3431 3dbd 4dcd 6c3d 0d73 62bc 9eec 8dbd
00000220: 8360 b13d bffc 2c3d dd04 af3d cdad 013d
00000230: a55a 6bbd a091 19be c87b 2e3c d92f a53b
00000240: 4350 f6bd 7cf6 5ebd 6ecf 42be 0031 883d
00000250: 7082 e8bc 545f d13c 11a4 91bc e86d b0bc
00000260: 4d68 063d 3a0e 1ebe 9fd3 87bd 4201 02bd
00000270: 02a1 fbbd 8214 dabc 94d4 9abb 6a3b a5bd
00000280: 43f2 dcbd c83e 573d 980a c1bc fca3 debd
00000290: cc39 383d 331e 4c3a a94d 553d 92c0 9ebd
000002a0: 22b1 ba3d e960 e23d 2517 a23d 5e03 9c3d
000002b0: 0b07 82bd f224 8e3d fd0d 89bd 8951 2b3d
000002c0: 8fc8 d93d e54e e3bd f68a c53c 556e 6e3d
000002d0: 5243 a6bd 78c3 b53d a8df 41bd b767 833d
000002e0: aeb3 edba a3a1 803d bcd7 39bd c36c c8bc
000002f0: c5e8 f4bc 873d 84bc 09c9 183b 6743 8d3d
00000300: bc49 20bd fb2d 58bc 3b1e a3bd 8160 453d
00000310: 071f 323d 4cff a23d 8943 303e 2806 04bd
00000320: 56da a6bd ec24 61bd f493 df3d d8db 6abb
00000330: c667 98bc 27e2 1b3e 0721 0bbd 2454 083d
00000340: 3b97 4f3d ca1f d03d 86c2 f3bb 0fc0 17be
00000350: ab74 3d3d 1d44 08be e789 b8bc 56cd 5dbe
00000360: 7de5 373d ab53 893b 1db7 cfbc a6d8 f03d
00000370: 6dd0 89bd 511b 623d f0fc 53bd c5cb ae3d
00000380: c649 ee3d b6e5 283d 0df6 b73c 0d90 3a3b
00000390: 58ff 0bbe 753b b6ba ebab 32bd c817 debd
000003a0: 4bc2 a6bd a3b6 b9bd e2a9 953d 4dc4 8e3d
000003b0: e561 dabc 9f7a 213d bdb8 823d 939a b8bc
000003c0: 2cb6 49bd e82b 7cbc 243b f5bd df44 8fbd
000003d0: 1829 babd 2b06 25bd 1444 82bd c2c5 a83c
000003e0: f973 3fbd 8d79 8ebc d101 3fbc 8bff 7ebc
000003f0: 2d0f 493e 53e6 853c 8455 193d 0316 ac3a
-0.12413598 -0.01836487 0.011104421 0.0033114576 -0.05332057 -0.16921525 0.043453995 -0.026588293
0.068418324 -0.009726211 0.022595823 0.010896795 0.020674841 -0.01866927 -0.055982757 0.09041311
-0.16844441 -0.11138848 0.032502543 -0.07076362 -0.0064477935 -0.0073074964 -0.014014298 0.033583693
0.029213602 -0.06577195 0.15981664 -0.029415056 0.13585165 0.018554714 -0.10070676 0.01238726
-0.13234755 -0.11285794 -0.103242345 0.05202214 -0.09700152 0.031387486 -0.0455578 -0.00507315
-0.095812805 -0.12149918 -0.39021388 -0.21280229 -0.0058741625 0.0004897254 -0.015273061 0.027547332
-0.12896742 -0.06144336 -0.11296229 -0.38063616 0.056392036 -0.10782695 -0.0072592767 -0.10225032
-0.046260532 -0.2207405 -0.060590826 -0.14724107 -0.0005265727 -0.059895914 -0.119871125 0.011871972
-0.1353083 -0.00952766 -0.028830532 0.05653086 -0.013231546 0.047552116 0.08778607 0.069958024
-0.009260185 -0.040950943 -0.17234932 -0.034307454 0.022709312 -0.13242425 -0.005323362 0.013781977
-0.06030741 -0.08104121 -0.026564654 -0.008589293 -0.06988804 0.005592744 -0.014400142 0.054872647
-0.20418504 -0.012606381 0.06493158 -0.13254718 -0.20348315 -0.1556667 0.022674317 0.03084711
-0.07345557 -0.066955015 -0.118371025 -0.22370891 -0.02827998 -0.018683666 0.05897208 0.015450841
0.01225498 -0.059964314 0.0042395545 -0.010318691 -0.032652996 -0.0027288718 0.041047238 0.02834941
-0.061224416 -0.1372912 0.08034572 -0.021512622 -0.046061363 -0.007895193 0.002104977 -0.070893764
-0.0025693902 0.011089369 -0.039233007 0.035895508 -0.5414406 0.0008431148 0.028348645 0.016454188
0.10418417 0.0010548343 -0.07215178 -0.056531023 -0.046189502 0.057812978 -0.013821376 -0.06929897
0.08660986 0.042233225 0.085458495 0.03165989 -0.057459492 -0.14996958 0.010649629 0.0050411043
-0.120270275 -0.054434285 -0.1902444 0.06649971 -0.02838251 0.025558151 -0.017778428 -0.021536782
0.032814313 -0.15435115 -0.066321604 -0.03173948 -0.12286569 -0.026621107 -0.0047250483 -0.08067973
-0.10788395 0.052550107 -0.023564622 -0.10871121 0.044976994 0.00077864825 0.052076016 -0.077515736
0.09115817 0.110536404 0.07914571 0.0761783 -0.063489996 0.069406405 -0.06692121 0.041825805
0.10633957 -0.11099032 0.024114113 0.05821069 -0.08118309 0.08875173 -0.047332436 0.064162664
-0.0018135214 0.0628083 -0.045371756 -0.024465924 -0.02989615 -0.01614262 0.0023313186 0.068976216
-0.03913282 -0.013194556 -0.079647504 0.048187736 0.04348662 0.0795885 0.17213263 -0.032232434
-0.08147113 -0.054966852 0.10916892 -0.0035836603 -0.01860417 0.15222989 -0.033967044 0.033283368
0.050681334 0.10162313 -0.0074389605 -0.14819358 0.04625384 -0.13307233 -0.022526694 -0.2166036
0.04489659 0.004190882 -0.02535587 0.117600724 -0.06729207 0.055201832 -0.051754892 0.0853496
0.11635165 0.041234694 0.022456193 0.0028467209 -0.13671625 -0.0013903218 -0.043620985 -0.1084438
-0.08142527 -0.09068038 0.07307793 0.06971035 -0.026658008 0.03942358 0.06382892 -0.022534644
-0.049246 -0.015391327 -0.11974171 -0.06995558 -0.09089869 -0.040289085 -0.06360641 0.02060211
-0.04674146 -0.017391944 -0.011658148 -0.015563856 0.19634695 0.016345179 0.03743507 0.0013129119

model.3.bias f4 [128]
00000000: 2c40 29be 0e82 b83d 47d8 43be c156 e03d
00000010: 2161 aa3d d767 4fbe f379 9bbe b4c3 37be
00000020: 8ce2 28be e348 fc3c e017 7ebe 8f29 7cbe
00000030: 0d8a 743d a58e b9bc eb84 9b3d 2411 93be
00000040: 19af 16be 3b08 a5bd 2984 babd f19b 523e
00000050: c1bc 89be 437f 5ebe 2114 13be 5c8e 11be
00000060: 1766 7cbe 0e19 8fbe c64a 81be 7d73 15be
00000070: b3e2 d7bd fff5 a53d 137c 7abe cb82 ae3c
00000080: 238e fbbd 9778 90be ec98 88be 6690 46be
00000090: c621 4dbe f0ae afbd 8321 8fbe 42e9 32be
000000a0: 15aa 95bc 8ca8 efbd 6471 d03c 2f24 01be
000000b0: 7d13 6dbe 8d65 893c 7783 27be 7d46 cbbe
000000c0: 0f4e 40bd d8c1 14be 3c4c 80be 9cc3 69bd
000000d0: 85e6 7abd 6bbf a3be 6fa0 db3d d185 453e
000000e0: 3f45 4ebe 0915 08be 01ff 86be 228b 3b3d
000000f0: aa24 40be 95e1 26be 3414 3dbe b39e 87be
00000100: eb1b 08be 8df1 a3be b48c 083e f8db da3d
00000110: 4b1f e73d c1e6 38be cff0 993d b096 ffbd
00000120: 556b f9bd 5f26 50be f075 5bbe 5629 3fbe
00000130: 8b10 8dbe 3f48 86be 4221 47be 3156 9fbd
00000140: 4a08 6d3b 4efa 1ebe 6f52 68be a415 40be
00000150: b4f6 91be 836a 9f3b 9ffc 4bbe 92bf 99bd
00000160: 7554 2dbe 57bf 20be 41ea 6bbe 6018 26be
00000170: 9c52 aebd 5187 a6be e473 68be b8b7 2ebe
00000180: 1ce7 873d 098b dd3d d6da 29be a377 343e
00000190: 4de8 2fbe 27e7 1bbe 2782 053c fde2 74be
000001a0: 3535 c6bc 0a84 a0be 78a8 40be a20b 57be
000001b0: 9516 c3bd ca8c 01be fa7a 39be fbad d33d
000001c0: 9b0b 003e 5435 71be 7913 bcbe 3fbf 1bbd
000001d0: 44ad 5f3e 7d94 463e 4861 ddbc 8f5c 713d
000001e0: e7ef 08be c115 a23d 0536 dfbd 1ea0 0ebe
000001f0: bc36 b43d 6654 98bd 4e70 2e3d 9a49 e03b
-0.16528386 0.09009181 -0.19125472 0.10954047 0.08319307 -0.20254456 -0.30366477 -0.17945749
-0.16492671 0.030796474 -0.24813795 -0.24625228 0.059701968 -0.022651026 0.075937115 -0.28724015
-0.14715232 -0.080582105 -0.09107239 0.205673 -0.2690182 -0.21728234 -0.14363147 -0.14214462
-0.24648319 -0.27948803 -0.2525236 -0.14594837 -0.10541286 0.08103561 -0.24461393 0.021302601
-0.1228297 -0.28217003 -0.2667917 -0.19391021 -0.20032415 -0.085782886 -0.27955255 -0.17471793
-0.018269578 -0.1170207 0.025444694 -0.12611459 -0.23151965 0.016772056 -0.16358744 -0.39702216
-0.046949442 -0.1452707 -0.25058162 -0.057071313 -0.061254997 -0.31981978 0.1072396 0.19289328
-0.20143603 -0.13289274 -0.26366428 0.045786984 -0.18763986 -0.1629699 -0.18464738 -0.26488265
-0.132919 -0.32020226 0.13334924 0.10686487 0.112852655 -0.18056776 0.07516634 -0.12479913
-0.12178675 -0.20327137 -0.21431708 -0.18668112 -0.27551684 -0.26226994 -0.1944628 -0.077801116
0.003616827 -0.15525171 -0.22687696 -0.18758255 -0.28508532 0.004864992 -0.19920586 -0.07507242
-0.16926749 -0.1569799 -0.2303858 -0.16220236 -0.0851185 -0.32525113 -0.22700459 -0.1706227
0.066358775 0.108175345 -0.16587386 0.17623763 -0.1717846 -0.15224896 0.0081487065 -0.23914714
-0.024195293 -0.31350738 -0.18814266 -0.21000531 -0.095257916 -0.12651363 -0.18113318 0.103359185
0.12504427 -0.235555 -0.36733606 -0.038024183 0.2184344 0.19392581 -0.027023926 0.05892616
-0.13372765 0.079143055 -0.10898975 -0.13928267 0.08799502 -0.07437973 0.04258757 0.0068447115

model.6.weight f4 [64, 128]
00000000: 01ea 6c3d b9cd 873d 6bb4 083e 87ce 523d
00000010: 279e 19bd 5720 fb3d c6e0 af3d 655d 903d
00000020: f475 223e 7cca 653d da2a 443c 2cbe 87bc
00000030: 71aa 203c c330 f93d 5393 a73d e686 a93d
00000040: 0c52 55bc 8f16 eb3c 5b84 0a3d 3487 d33c
00000050: 3fcd f53c 4c44 55bc f0c3 efbc 52b4 d73d
00000060: adfa 9d3d 87fc 113e ce4a c03d 78b8 fa3d
00000070: 4542 dd3d 83e8 513d f99a 493d 945a 8a3c
00000080: 32a4 bb3d 6348 df3c 908f d53d d6fc 0f3e
00000090: c661 ed3b ae2f 463d 0207 0e3e ab92 b43d
000000a0: d1bd 423b 2e47 213e 7e96 78bd e881 60bb
000000b0: 51b4 9c3d 367f ec3c 00ec d53d bb58 153d
000000c0: 3317 213e ba3f 59bc 7103 dcbc 3976 0c3c
000000d0: 8e78 a5bc 7ea8 cd3c 06fe 763c 7fa7 1dbd
000000e0: 2d7a 1ebc 3870 8b3d 3a45 683d 4eee 6f3d
000000f0: 594b a1ba bf17 fb3d 456a ae3d 4c02 8c3d
00000100: 92de 593e 8103 3d3d cf8f b43d ce1c dbbc
00000110: d3d7 ad3c 3e9e 8bbc 4f1e 393d d08a 3c3d
00000120: f04b d43b 03da b53d 60cd 1d3e 3527 c63d
00000130: db39 803d 2492 ba3d 243b 7fbc 19b3 643d
00000140: c9cd a33d 0bbb 703d 8a03 b23d 6516 b23d
00000150: a4d2 c2bb e45f b4bc 5899 6f3c 2ad3 96bc
00000160: fc2d e23d 329e 303c eb97 e73d 6d7e 2a3c
00000170: 6fac 703d 8fcb 673e 2f8a 0e3e 12d7 a93d
00000180: 2bd3 53bd 812d 55bd 4bd0 363d 70ac d43d
00000190: 2bfa 833d 9414 8e3d 9939 fe3c 8b7a 5f3d
000001a0: 7816 ef3c 44bf 903d 5609 cb3c 3f5a c2bc
000001b0: d8aa 1b3e a831 73bc 0a6f c53c 5e1c 04bd
000001c0: 893a d5bc 306e 183e 3273 343e 5b5e 8c3d
000001d0: 5ffa a93d ed20 96bc b50c c53c 9c7a 32bd
000001e0: 47b5 973d abf2 603e 054a e4bc 93e9 36bb
000001f0: 29d3 313d 2d77 1a3d bc18 da3c dd63 373e
00000200: 31dd cfbb ce81 f6bd 0369 41bd 4853 a0bc
00000210: 7088 9ebc 98f2 adbd f8b3 4ebe 8ff7 b4bd
00000220: 7ee6 b7be dd24 a93d e94b 4dbd 2744 5cbd
00000230: c646 d6bc fc17 60bd cef8 67bb 69fc 4cbe
00000240: c2d4 72bd 6c98 99be b713 aa3c 8460 c7bc
00000250: 3493 00bd 9606 8a3d 8d12 6ebd f6f8 1bbe
00000260: 67db 58be 8aa1 01be b59d 35be 5d43 45be
00000270: 0c60 47be 6279 d1bd 9b29 5bbd 1037 823d
00000280: 05e1 04be 616f dbbd d929 16be 62f1 a1be
00000290: ac6b d7bd 3fbd 31be b939 89be bb88 7dbe
000002a0: 576a 0ebe 39b7 49be b92c 3a3e 8f5f e5bc
000002b0: 5310 48be edec 08be f615 3ebe 0bdf d1bd
000002c0: 0fe3 cebe b168 29be 404b 79be 2e58 23bd
000002d0: 1334 613d 2608 0bbe 26d8 93bd 2c77 0e3e
000002e0: 5e89 08be 58ce a6be 6beb 32bd 8f3c 2c3e
000002f0: 0544 6cbb 78ac f4be 0679 ffbd 12fe 84bd
00000300: a400 0bbe f791 f7bc 60c8 753d eeac d3bd
00000310: 3a0a 153e d9e2 01be d119 8f3d 58d3 84ba
00000320: 61e4 fbbd 71d5 4fbe 1ee4 26bc 6322 fbbc
00000330: 010f a73d eb62 953d c753 e0be 8461 e2bd
00000340: db7b 69be 3322 6fbd 143e c7bb f6ce 91bd
00000350: 1499 15be 258c 0fbd e1c1 abbe 497b 5bbd
00000360: 18d6 dbbc fbc9 44be 0f7b 62bd 27d6 91bd
00000370: bc48 a63c 535b 41bc 8502 4bbe 73b4 3cbb
00000380: cc8e 313d 2148 a03d 16e8 44be 32da 7ebe
00000390: 8f2c 0bbd 5206 b7bd 5ad6 8e3d 157a 9cbe
000003a0: f076 17bb 4c28 0cbe f0aa 82be de39 1fbd
000003b0: ffd3 12be 0df2 8b3d a250 e8bd 170c 083e
000003c0: c591 383d 7979 0bbe 8891 32be b884 6dbd
000003d0: 53fd 55bd 990c 3e3e ccf1 08bd 4b18 e23d
000003e0: 8b30 64be 1777 a5bd bc6d 0dbe 73b6 bb3c
000003f0: 7db1 8c3d 4c11 95be b52e 22bc dd02 93be
0.05784035 0.06631035 0.13350074 0.05146649 -0.03750434 0.12262028 0.08587794 0.070490636
0.15865308 0.056101307 0.011973107 -0.016570173 0.009806261 0.12167504 0.08182397 0.08277683
-0.01302005 0.02869728 0.03381763 0.025821306 0.030005096 -0.0130167715 -0.029268235 0.1053244
0.07713828 0.14256488 0.09389268 0.12242216 0.108036555 0.05124713 0.04922006 0.016888894
0.09162177 0.027256196 0.10427773 0.14061293 0.0072443215 0.048385315 0.13869861 0.08817037
0.002971519 0.15749809 -0.060690396 -0.0034257118 0.0765158 0.028869253 0.10445404 0.036461573
0.15731506 -0.0132598225 -0.02685711 0.008573108 -0.020199087 0.025104757 0.015075212 -0.038489815
-0.009672684 0.068085134 0.056706645 0.058576874 -0.001230578 0.122603886 0.08516363 0.068363756
0.2127631 0.04614592 0.08816492 -0.026747134 0.021221077 -0.01704323 0.04519492 0.04603082
0.006478779 0.08879473 0.15410376 0.09675447 0.06261035 0.09109905 -0.015578065 0.055834863
0.07998235 0.058772128 0.08692081 0.08695678 -0.0059455205 -0.02201838 0.014623962 -0.018411238
0.11043927 0.010779904 0.11308273 0.010406119 0.058758195 0.22636245 0.139199 0.082929745
-0.051715057 -0.05204535 0.044632237 0.10384452 0.064442 0.06937519 0.031033324 0.054560225
0.029185519 0.07067731 0.024784725 -0.023724673 0.1520189 -0.014843382 0.0241008 -0.032253616
-0.026028888 0.14885783 0.17622069 0.068539344 0.082997076 -0.018326247 0.02405391 -0.04357396
0.07407623 0.2196757 -0.027867327 -0.0027910217 0.04341427 0.03771131 0.026623122 0.17909189
-0.0063435067 -0.12036477 -0.047219288 -0.019570962 -0.019352168 -0.08493537 -0.2018584 -0.088362806
-0.3591804 0.08258984 -0.05012122 -0.053775933 -0.026156794 -0.054710373 -0.0035396102 -0.20018162
-0.059284933 -0.299991 0.020761354 -0.024338014 -0.031390384 0.067395374 -0.05812316 -0.1523169
-0.21177445 -0.12659279 -0.17735942 -0.19263978 -0.19470233 -0.1022823 -0.053506475 0.063581586
-0.12976463 -0.10714603 -0.14664401 -0.31629473 -0.10518584 -0.17357348 -0.2680185 -0.2475919
-0.13907753 -0.196988 0.18181123 -0.027999667 -0.19537477 -0.1337163 -0.18563065 -0.1024762
-0.40407607 -0.16543843 -0.24345112 -0.039879017 0.054981302 -0.13577327 -0.072189614 0.13912648
-0.13333651 -0.32579303 -0.043681543 0.16819976 -0.0036051285 -0.47787833 -0.12474255 -0.064937726
-0.13574463 -0.030220969 0.060005546 -0.10335718 0.14554682 -0.12684192 0.06987346 -0.0010133786
-0.12299419 -0.20296265 -0.010186223 -0.030656045 0.08157159 0.07294258 -0.43813917 -0.11053756
-0.22801153 -0.058382224 -0.0060803983 -0.07119553 -0.14609176 -0.03504576 -0.33546355 -0.05358437
-0.026835486 -0.19217674 -0.05529314 -0.071209244 0.020298354 -0.011801559 -0.1982518 -0.002879408
0.043349072 0.078262575 -0.19229159 -0.24887922 -0.03397804 -0.089367524 0.06974478 -0.3056189
-0.0023111664 -0.13687247 -0.2552104 -0.038873546 -0.14338683 0.06833277 -0.113435045 0.13285862
0.04506089 -0.13620557 -0.17438328 -0.0579879 -0.052243542 0.18559493 -0.03343372 0.1103979
-0.22284143 -0.08079355 -0.13811392 0.022914147 0.06869791 -0.2911476 -0.009898831 -0.28713122

model.6.bias f4 [64]
00000000: cd97 ad3b 8a97 173e 3555 a6bd 9059 d93d
00000010: 556a fa3d 0c8b 6c3d a8b4 5f3e 08b1 81bd
00000020: 938d efbc b72d 3cbe 64c6 e53d e09d 15be
00000030: b1eb 0ebd 99d3 473d de0e e3bd 083d 213e
00000040: 44af 053e 9ac5 3a3e bf0a 0fbe 24c5 00bd
00000050: 90d5 92bd a322 b7bd 8210 9fbd 9433 573e
00000060: f69d 23be e6de e1bd af1a c83c 3fd1 30bd
00000070: 3db0 33bd b4d5 b2bd 0390 0f3e a820 4a3e
00000080: 84f4 8f3c 3de6 98bd 5cff babb da98 4abd
00000090: 9ba6 f7bc d8b9 163e d10d 013e 2660 9fbd
000000a0: d55d 7e3d 2cea 973d 1207 2cbe 4b2a bdbd
000000b0: 2d9c 94bd d0a2 2bbe 2714 cfbd a71b b0bd
000000c0: a2da b0bd b54c 733e baa3 433d 8ea8 043e
000000d0: 36c0 363e cc94 543e 1ba5 41bd 138c 873d
000000e0: b6ea f53c 129f 823d 3730 16be 45df 8bba
000000f0: 82bd ecbc 29cf afbd 825d c0bd 9233 003b
0.005297637 0.14803901 -0.08121721 0.10612786 0.122273125 0.057749793 0.21846259 -0.06332594
-0.029242313 -0.18376814 0.11219481 -0.14611006 -0.03489274 0.04878578 -0.1108682 0.15745938
0.1305514 0.18239442 -0.13968943 -0.031438008 -0.0716964 -0.08942153 -0.077668205 0.21015769
-0.15978226 -0.11028843 0.024426786 -0.043168303 -0.043869246 -0.08732167 0.1401978 0.1973902
0.017572649 -0.074657895 -0.0057067107 -0.049462177 -0.03023081 0.14719331 0.12602927 -0.07782011
0.062101204 0.074177116 -0.16799572 -0.09236582 -0.07256351 -0.16761327 -0.10111266 -0.08599024
-0.08635451 0.2375973 0.047763564 0.12954924 0.1784676 0.20759887 -0.047276597 0.06618514
0.030019145 0.063779965 -0.1466683 -0.0010671398 -0.028898958 -0.085844345 -0.09392835 0.0019561988

model.8.weight f4 [64, 64]
00000000: e7a3 3b3d a5cf 833e 7bf9 26bd fd40 0d3e
00000010: 0344 083e 038a 46be 1bbb 703d fb8c 26bd
00000020: d8c8 143d 4bfc d2bd e7fb fbbd be64 eabd
00000030: 8421 15be 8bb2 803d 683e 41bd ce3b ed3d
00000040: 6616 1e3e e060 1a3e d8fe 54be 2e22 f5bd
00000050: 06d5 a23d 4060 c9bd d548 04bc df48 f33c
00000060: 3389 bf3c c517 8bbd 1128 75be ed4c 993d
00000070: ef05 6abe 7cbc b5bd 87a0 be3d 0137 e73e
00000080: 4648 29be 8ffe 09be c9f5 36be 802d 2ebe
00000090: dcc1 a5bc 0759 81be 95b6 d63d 56aa d3bc
000000a0: aa95 453d 9ea8 16be 15c9 c5bd a32d be3c
000000b0: 1d41 f9bd ce83 4a3d d804 5bbc 0082 dd3d
000000c0: 902d a8bd 742a f03d 07c5 d4bc 23a6 61bd
000000d0: 9ccb 603d bb0f 183d 1c2d 0f3c 242b 003e
000000e0: c39d b73d 48d2 a63d 5323 debd 7b38 44bd
000000f0: a6bf 4ebd 551b 97bd 39c5 bbbd b93d ddbb
00000100: 79dc 6dbd 03f8 cdbd 19aa c13c 2bfa 7abc
00000110: 4bfc b2bd e4a5 f93d ea26 48bd 1a20 6f3d
00000120: 777e e63d 7688 473d 179b 583e fe05 57bc
00000130: 86de 3a3e 99e7 4b3d 9812 913d b126 0fbd
00000140: 76e6 aebd a918 8abd 4576 d03d 443a 1f3e
00000150: d66a de3d ac31 e43d 80b6 fd3c fdbe ddbd
00000160: 4672 803d 2090 4abd e603 4b3e 9e10 85bd
00000170: ba8a 013e 999c db3d 7b53 9c3d 1786 c53d
00000180: 1c74 153e 0ab7 053e 5efc 223e 37ef f33d
00000190: fe8b 283e 23c9 813e 91a5 503d 7df3 1c3d
000001a0: 7978 5abe e467 823d fefd 103e 10a6 08bd
000001b0: 7876 a93c db3a d13d 3d4b 273d 504c bf3d
000001c0: 5bd3 dc3d 63c1 81bb e25f 043e e342 be3d
000001d0: 8c49 4d3d ba90 af3b f875 e53d 060e 963d
000001e0: 2b5e c9bd 18fd aa3c 5ba0 eb3d 2c38 ef3d
000001f0: 6b32 cf3c 12b3 963d 7104 67bd 49f7 df3d
00000200: 221c 1d3c ab22 14bd 4f3c 26be a512 8cbe
00000210: eb6c 1b3d 2b85 dbbc fd0e e93d a665 a1bd
00000220: e6d1 58bd 5cc9 20be 1cbe 96bb 1b3e 1dbc
00000230: 914e c9bc 9af6 d33d 53ff f6bd dd01 b13c
00000240: 3010 da3d 9eb6 dd3c 5faa a7bc aa83 07bd
00000250: 757a 48bb 6981 37be 0914 23be 43fb 8e3d
00000260: 3114 b43d 873c eebd c515 2e3d e939 913b
00000270: c620 ccbc fbe6 603d c91f 0cbe 76c0 a5be
00000280: b8ea 423d a68d 05be 0918 06bd 1138 8f3d
00000290: 72ae efbd d473 ba3d 8dff 97bd 2105 dbbd
000002a0: 5d05 1a3c 4a1d 38bd 128e 02be 98e8 f8bc
000002b0: 5301 e03d a433 89bc 4488 96bc f21a e9bd
000002c0: 7e54 a3bc 3c7b f9bd 0f13 4b3c 4ff9 463d
000002d0: 46aa 67bd fb28 60be 9c91 13bd c183 84bd
000002e0: f273 07bc 4b4a ed3d e9ff 82be 2d1a 6f3d
000002f0: 8579 823d 48b0 64bd 1ae4 cfbc e2cc 6fbe
00000300: ec45 59bd db8a 86bd 5e91 063d 79e5 09bd
00000310: e9d9 4dbd 8fa1 ed3d b75e 01be a539 ac3d
00000320: 9258 85bd 738d cd3d 8427 323e 4863 ae3d
00000330: 42e7 623e 5ced d3bd e4bf 50bc 6072 ab3c
00000340: 5a2a 553d 5a4f e1bd 7f09 193c f3fd a13d
00000350: 9aa0 be3c 7db5 943d fe77 0bbc 120d a13d
00000360: 2483 0abb e0b6 003e e711 603e 94b3 203d
00000370: c2ca e63c 7c9b a43c 467c 823d eeed a5bd
00000380: 85f5 453e e335 af3d e531 b63d 22f4 6f3e
00000390: d82e c23d afa1 7c3e 4d27 e83d dce2 233d
000003a0: 6c0e 44be b898 d03d 4e9f 62bb 263e 803d
000003b0: 691a cd3c af4c ec3d 13d3 403a 521c 54bc
000003c0: 1906 ad3d bb9f 66bd b7cf a7bd 8c72 c93d
000003d0: 9149 6c3a c7f3 ccbc 0b50 b73d 8178 c5bd
000003e0: a3ef a83d 548c c53c fdc8 d9bc 6806 d13d
000003f0: 90f6 ca3d 2087 c6bb b55e 39bd 442c 193e
0.045810606 0.25744358 -0.040765267 0.13794322 0.13307194 -0.19388585 0.058772188 -0.040661793
0.036324352 -0.10302027 -0.12303906 -0.11444996 -0.14563566 0.06284054 -0.047178656 0.115836725
0.15438232 0.15076017 -0.2080034 -0.1196941 0.07950787 -0.09832811 -0.008074005 0.029697834
0.023380851 -0.06791643 -0.23941065 0.074853756 -0.22853826 -0.08873841 0.09307962 0.45159152
-0.16531476 -0.13476013 -0.17867197 -0.17009544 -0.02023404 -0.25263235 0.104840435 -0.025838058
0.048238434 -0.1471276 -0.09657494 0.02321512 -0.121706225 0.049442105 -0.013367854 0.10815811
-0.08211815 0.11726847 -0.025972856 -0.05509008 0.054881677 0.037124377 0.008738782 0.12516457
0.089656375 0.08145577 -0.10846581 -0.047905426 -0.05047574 -0.0737826 -0.091684766 -0.0067517427
-0.058071587 -0.1005707 0.02364068 -0.015318434 -0.08739527 0.12189844 -0.048865236 0.058380224
0.1125459 0.048714124 0.21152912 -0.013123987 0.18248948 0.049781416 0.070836246 -0.03494901
-0.08540051 -0.06742985 0.10178808 0.1554957 0.10860221 0.11142287 0.030970812 -0.10827444
0.06271796 -0.049453855 0.19825706 -0.0649731 0.12650576 0.10723228 0.0763311 0.09644716
0.14595073 0.13058105 0.15916583 0.11910861 0.16459653 0.25348768 0.050939146 0.038318146
-0.21335019 0.06367472 0.1415939 -0.033361495 0.020686373 0.10216304 0.040843237 0.09340727
0.107825 -0.003959821 0.12927201 0.092901014 0.050118968 0.005357829 0.112041414 0.073268935
-0.09832414 0.020872638 0.11505195 0.11680636 0.025292596 0.07358374 -0.05640072 0.10935838
0.009589227 -0.036165874 -0.16233943 -0.27357975 0.03794567 -0.026796898 0.11379812 -0.07880716
-0.05293455 -0.15701813 -0.0046002995 -0.009597327 -0.024573596 0.1034977 -0.12060418 0.021607334
0.10647619 0.027064618 -0.020466981 -0.03308455 -0.0030590568 -0.1792046 -0.15925612 0.06981518
0.08792914 -0.116326384 0.04250123 0.0044319523 -0.024917971 0.05490778 -0.13684 -0.323734
0.047587126 -0.13042316 -0.032737765 0.06993116 -0.11703195 0.09104124 -0.07421789 -0.10694338
0.009400693 -0.044949807 -0.12749508 -0.030384347 0.109377526 -0.016748257 -0.018375523 -0.113820925
-0.01993775 -0.12181708 0.012394681 0.048577603 -0.05655887 -0.21890633 -0.036027536 -0.064704426
-0.00826739 0.11586436 -0.2558587 0.058374573 0.06370834 -0.055832177 -0.025377322 -0.23418
-0.0530452 -0.06569453 0.032853477 -0.033666108 -0.050256643 0.116030805 -0.12633787 0.08409432
-0.06511034 0.10036745 0.17397887 0.0851503 0.2215853 -0.10348007 -0.012741063 0.020928562
0.052042343 -0.11001463 0.009340643 0.07909765 0.02326994 0.07261179 -0.008512495 0.07863821
-0.0021135295 0.12569761 0.21881829 0.03923376 0.028172854 0.020093672 0.063713595 -0.08102022
0.1933194 0.085552 0.088962354 0.23432973 0.09481591 0.24671052 0.11335621 0.04001127
-0.19146127 0.10185379 -0.0034579816 0.06261854 0.025037007 0.11538064 0.0007355671 -0.012946205
0.08448429 -0.056304675 -0.08193915 0.09836301 0.0009013648 -0.025018586 0.08950814 -0.09642125
0.08248832 0.024114765 -0.026585096 0.102063 0.09910309 -0.0060585886 -0.045256335 0.14958292

model.8.bias f4 [64]
00000000: d3fc 3a3e 6e6a cebd d677 f63d b3a9 9cbd
00000010: 4a33 2a3c b997 1a3e ce80 c73c 0ecd 0b3e
00000020: a154 83bd 05e6 17bd 97d9 dfbd 8fc8 b23c
00000030: 1158 2cbd 3a41 e33c bd39 083d 0611 f93d
00000040: 15af a43c efd8 113e 25d5 26be 1ff5 8ebc
00000050: 378f f2bd 776e c53d 829a 40be 3e69 8fbd
00000060: 5f67 23bd 0fb1 87bd fd07 fabd 3842 ce3c
00000070: 9a3e ac3c 1904 f2bd a91c 1bbd 56c2 05be
00000080: 179a 093e ce89 843d d160 1bbe 664c ae3c
00000090: f76b 27be bde5 103d ec4a 0c3e 6eda c53c
000000a0: afbe 1d3e 7239 a53d 1449 a73d 0619 00be
000000b0: aa8b fb3c b71b b6bd cdc5 bebb aa8b f1bd
000000c0: c844 0abc 6f8c 07bc b793 373e 2a42 183d
000000d0: 617b 20bd fdc5 13bd 7a4b ae3c 198c e9bb
000000e0: 4ef5 453e c760 0a3e 29ab 0e3e 7a8d 2cbc
000000f0: fba8 a1bd 1fed e1bb 24ec 9b3c 1007 b13d
0.18260507 -0.100788936 0.12034576 -0.07649555 0.010388205 0.1509694 0.024353411 0.13652441
-0.06412626 -0.037084598 -0.10930174 0.02182415 -0.042076174 0.027741063 0.03325819 0.1216145
0.020103017 0.1424291 -0.16292246 -0.017450867 -0.11843722 0.0964021 -0.1880894 -0.07002495
-0.039893504 -0.06625568 -0.12208555 0.02517806 0.021025945 -0.11817188 -0.03786913 -0.13062415
0.13437687 0.06471597 -0.15173651 0.021276664 -0.16349779 0.035375345 0.13700455 0.024152007
0.15404771 0.080675974 0.081682354 -0.12509546 0.030706245 -0.08892005 -0.0058219195 -0.11794217
-0.00843925 -0.008273228 0.17927442 0.037172474 -0.039180163 -0.03607749 0.021276224 -0.0071272966
0.19331858 0.1351348 0.1393248 -0.0105317775 -0.078935586 -0.006894722 0.019033499 0.08643925

model.11.weight f4 [32, 64]
00000000: d964 923d cd2f f83d 0a67 2abe 8c66 173b
00000010: 868a e13d 21a7 fabd 761f 82bd 5e23 223b
00000020: 0946 2d3d fcb0 48bd dbdd 663d 6ae2 7e3d
00000030: 58ba a1bd c68c 893d 619b b8bc 24ab dcbd
00000040: e05a 49bb d6af fc3c e936 093d 7b8e 393d
00000050: 2785 fdbc 516c 96bd 203f ad3c 1d83 9ebd
00000060: e6b5 55bd 9182 733d cd32 a8bd 08ce 9b3d
00000070: 6838 993d 25b5 a1bc 2643 aabb e1b2 e43d
00000080: 8b2b bcbd ff65 afb8 0cb5 283d 6a44 e43d
00000090: 5951 7d3d d905 35bd 337c 47be c760 0fbd
000000a0: 0fd0 d6bd df77 9bbc fd99 c7bd 0ad4 243e
000000b0: e8b1 03be 2c2e f93d f8e0 cf3d 305b 863d
000000c0: 869f da3d 9a94 5abd 6478 d3bd 290a 173d
000000d0: 3f2e 4a3d 2130 c73d 4f4a ecbd fd33 81bd
000000e0: 498a 8bbd 8159 8d3d 6dee febd 8c8a c53a
000000f0: e4e4 de3c 5127 c93c 2664 cbbd 94ac cb3c
00000100: 8cd0 b83d d8ad 503d 593e f33d 4050 eb3d
00000110: 577e c33d 3476 073d 501d 5a3c f04c c8bd
00000120: 065f d63c 5fc0 1b3e bc35 64bd 3ad2 e53c
00000130: f6b9 0ebc c1e8 af3d c7c6 403e 49cd 3cbe
00000140: d267 b53c 6d18 99ba 1b40 fa3d 245a e7bc
00000150: 3c3b 1f3d 13fa 95bc db9f cf3d a273 1d3e
00000160: 1b21 a03d 4c16 753d fdec 393d 5070 463d
00000170: b0cb 433c c84c da3d 0540 2e3e c51b 263e
00000180: 4a30 3bbd 4261 113e 95fc 3e3d 45ac f23d
00000190: 3cb9 9c3d 16dc 9ebd c4ad 373d 300f c43d
000001a0: 6312 3bbc 5813 2cbd 3cfd 933d fee8 553d
000001b0: 7b9a bbbd d9e2 333b d8fb 873d 54d9 963d
000001c0: 7263 403d 086f d33c 6f67 343c aa9e ab3c
000001d0: 6ae4 a13d 33d3 e83d 4ea8 c9bd f5fe 26bd
000001e0: 4615 78bd a2e4 01bd cfdd 083e 03f8 323d
000001f0: 3d17 38bd bc70 053e 99c4 033c d1e4 e93d
00000200: 976c a3bc 3922 903d ac9d 96bd 5ccc f53d
00000210: 4bdb da3d ca65 a13d 5ce9 233e 30ea 423d
00000220: c584 ee3d a9d4 023d e073 3c3d b065 413e
00000230: 8faf f13d ca8e 2d3e d71d 373e 932e 18be
00000240: 4aeb bebd a70d c1bc 003c 3e3e 9f39 e13d
00000250: 45a0 403e 5c66 5f3d eab5 273e 7d83 473d
00000260: 32b1 203e ee09 0e3e 9616 333e 9d55 1b3e
00000270: 388c cc3b a3dd 903a bdd0 073e df43 7a3d
00000280: 0e6d 50bd 616e 98bc a987 183e 85d1 203d
00000290: 16f9 cd3d 988d 9bbd ac69 20bc 6768 0d3e
000002a0: 77b9 b0bd 38b9 b0bb 8545 033e 567a 7d3c
000002b0: 7d2d 9a3d f6bf f13d f66d ac3d eb30 063e
000002c0: 0b17 29bd 2b67 953d 62d6 263d cd1d e1bd
000002d0: c8c5 39ba c0ee 023e 8956 fd3c d415 66bd
000002e0: 1513 67bd f0c1 1dbd d346 0e3e 2dcb de3c
000002f0: a496 f8bc 6d52 fabb 314d d03d 38a2 6d3d
00000300: bc48 f73c 4228 263e 4158 f03b 0468 b03d
00000310: 593f 12bd 4806 f93c 9cfd c83c ffaa ba3d
00000320: e852 f63d 85db ea3d b7dc e1ba e514 acbc
00000330: 769a e73d 475e a43c dca2 2c3e 8684 7bbb
00000340: bcb9 5cbc 0051 b83d 757d 1a3e b6dd fe3d
00000350: fef7 d43d 7c00 053c 0141 6b3d 1652 f43d
00000360: a467 fbbc a3c9 8dbc f91d 2d3d b1d1 10bd
00000370: 8f58 0abb efde fbbc 0b4c d7bc ffd8 063e
00000380: ad3c 4c3d 464c 0e3e 164b c63d 792c b93c
00000390: dffa 18bd 933f 543d 7270 5abd 5855 5bbd
000003a0: 8192 62bd 4c36 95bd 06e0 db3d 689b 933d
000003b0: 0e24 06be 0fd7 133c 0b4c ff3d d393 323e
000003c0: badb 16bd ba32 aa3d 138b dfbc 1780 853d
000003d0: 9a57 ed3d 8f0a d03d 849a 25bd e5fd 63bb
000003e0: de0b 4dbe 3e98 85bd 7bb2 4ebd 1128 973d
000003f0: b636 263d 30d7 063e 0ec7 733b 9470 bcbd
0.071481414 0.12118492 -0.16640869 0.0023101894 0.110127494 -0.122389086 -0.06353657 0.0024740319
0.04230312 -0.04899691 0.05636392 0.062227644 -0.078968704 0.067163035 -0.022535028 -0.1077483
-0.0030724332 0.030845564 0.033499632 0.045301896 -0.030947281 -0.073448785 0.021148264 -0.077398516
-0.052175425 0.05945069 -0.082128145 0.07607657 0.07481462 -0.019739697 -0.005195993 0.11166931
-0.09187993 -8.3636485e-05 0.041188285 0.111458614 0.061845157 -0.04419503 -0.19480972 -0.035004403
-0.10488903 -0.018978057 -0.09746168 0.16096511 -0.12860835 0.1216701 0.10150331 0.065603614
0.10674958 -0.053364374 -0.10325697 0.036874924 0.04936051 0.09725977 -0.11537611 -0.06308744
-0.06813485 0.06901837 -0.1244782 0.0015071197 0.027208753 0.02455488 -0.09931211 0.024862565
0.09024152 0.05094704 0.11877126 0.11489916 0.09545582 0.03307171 0.013312653 -0.097803
0.026168358 0.15210102 -0.055715308 0.028054345 -0.008711329 0.08589316 0.18825828 -0.18437685
0.022144232 -0.0011680253 0.122192584 -0.028241225 0.03887485 -0.018307721 0.10137912 0.15376142
0.07818814 0.059835717 0.045392025 0.048446953 0.011950418 0.10659176 0.17016609 0.1622153
-0.04570035 0.14197257 0.0466276 0.11849264 0.07652518 -0.07756822 0.04484345 0.09573209
-0.011417958 -0.042010635 0.07226035 0.05222415 -0.09160324 0.0027448444 0.06639832 0.07365671
0.04696984 0.02580978 0.011010989 0.02094968 0.07904895 0.11368408 -0.09846555 -0.04077049
-0.060567163 -0.031712182 0.13365863 0.043693554 -0.044944037 0.13031286 0.008042478 0.114205964
-0.01994924 0.070377775 -0.07354292 0.12001869 0.10686358 0.07880743 0.16006988 0.04758662
0.116464175 0.03194109 0.046008945 0.18886447 0.11801063 0.16949001 0.17882477 -0.14861517
-0.093222216 -0.02356608 0.18577576 0.109973185 0.18811138 0.054540977 0.16377988 0.04870938
0.15692595 0.13870975 0.17489085 0.15169378 0.0062423013 0.0011052381 0.13263221 0.061099883
-0.050885253 -0.01860732 0.148955 0.039262313 0.10057275 -0.07595366 -0.009790819 0.13809358
-0.086291246 -0.0053931735 0.12819488 0.015471062 0.075282075 0.11804192 0.08419411 0.13104598
-0.04128174 0.07295068 0.040731795 -0.10992012 -0.00070866616 0.12786388 0.030925052 -0.05617316
-0.056414682 -0.03851503 0.13894205 0.027196491 -0.030345269 -0.0076392205 0.10170973 0.058016032
0.03018605 0.16226295 0.0073347394 0.086135894 -0.035704944 0.030398503 0.024534993 0.09114646
0.12027532 0.11467651 -0.0017231916 -0.021006057 0.11308758 0.020064486 0.16859001 -0.003837855
-0.013472017 0.089998245 0.1508692 0.12444632 0.10398863 0.008117791 0.05743504 0.11929719
-0.030689068 -0.017308062 0.042264912 -0.035356227 -0.0021109914 -0.030745951 -0.026281377 0.13168715
0.049862552 0.13896284 0.0968229 0.022604214 -0.037348624 0.05181844 -0.053329892 -0.053548187
-0.0553155 -0.07285747 0.107360885 0.07207376 -0.13099691 0.009023442 0.12465676 0.17439203
-0.03683064 0.083104566 -0.027287995 0.06518572 0.11588974 0.10158264 -0.04043056 -0.0034788784
-0.20024058 -0.065231785 -0.05046318 0.07380689 0.04057952 0.13168025 0.0037197503 -0.0920116

model.11.bias f4 [32]
00000000: 5c50 ae3c 561d b9bd 53ce 40bd c487 d0bd
00000010: 8266 763e f7f9 f83d c898 873e 53b8 a53d
00000020: ad06 c4bd e5fa d23d 5b69 85bc 1fe5 e83d
00000030: 6fe7 e63c 0532 c63d 6611 953d 0f26 a5bc
00000040: 5975 b73d 9f2c 313d 1a44 ccbd 1e00 80bd
00000050: e2b4 de3d 307b 86bc 9e56 03bd b0aa 073c
00000060: 498c f13d fd81 e3bc 2686 a23d ded1 3bbd
00000070: 964a cf3d af92 f43d d847 053e faa9 a3bc
0.021278553 -0.090387985 -0.047071766 -0.10182145 0.24062541 0.12157052 0.2648375 0.08091798
-0.09571586 0.103017606 -0.016285589 0.113718264 0.028186528 0.09677509 0.07278709 -0.02015975
0.08957929 0.043255445 -0.09973927 -0.06250022 0.108743444 -0.016416162 -0.032065026 0.008280441
0.117943354 -0.027771944 0.07935743 -0.04585444 0.10121648 0.1194204 0.13015687 -0.019978512

model.13.weight f4 [32, 32]
00000000: 05fd 1fbe 4fa0 f5bc 82e3 49be fe48 9cbd
00000010: 47af 543e 3242 ff3d 59ed 173d f46a c3bc
00000020: 037c 21be c240 b83d 509f 813c 27ab d3bc
00000030: 6c6f 413e 8f0b fd3d 27f4 99bd 339f 17be
00000040: b4c2 0a3e 7374 b8bb 0bd4 263d a505 f03d
00000050: bfe8 a13d 7aad 663e 2544 f9b9 1d2a 7cbc
00000060: 15c8 44bd dda8 5b3e a515 29bb f824 ab3c
00000070: 0c80 62bd 5d6d 873c b74b df3d cad2 653e
00000080: 5f4e 273e e2a9 08bc 6188 b13d 915c 4ebd
00000090: 55c9 483e b75b f23d c248 bd3d 5810 383e
000000a0: 0c27 c8bd 4104 82bd 1a40 c1bd 45a4 2a3d
000000b0: 9188 5dbd 1c4a 143e 6fe2 93bd 37be febd
000000c0: 7e65 6ebe 92d3 2abe 29da 7c3d 9f18 10be
000000d0: e839 993e 2c57 dc3d 121c 963d 144f 35bc
000000e0: e17e 9bbe 7b34 03be 1e36 84bc 00e8 96bd
000000f0: 2605 4abd b401 903e e66a 3f3e 2d33 7dbe
00000100: 4a9e c53d b8c4 313e ca53 e93d a5f9 523e
00000110: f3b8 9b3e 9132 0f3d e35b 8c3e deea 52bd
00000120: 31e8 193c a9d5 17be 70ab 143e 943d a4bd
00000130: 34e8 463a 19da 263d 24f3 a1bb 542b 7d3c
00000140: 4dcb 773c 4d38 a5ba cc7f 903d 69bb 933d
00000150: ee9f 843d e3b1 293e bc82 2a3e 614a 913e
00000160: 66e7 00be 2de3 06bd 9566 183d 08f1 613d
00000170: a3bc 9a3d ef81 a93d 206b 1c3e ab88 67be
00000180: 423d e13c d2e0 3d3d 7108 adbd 7dd0 e1bd
00000190: 8a74 e4bd 8e6f 45be 9e77 a83d fa3b 37bd
000001a0: af66 84bd f05e f93d 8d35 b43c 7240 22be
000001b0: abb0 54bd 0f9c c0bd 0aa9 14bd 0d08 debd
000001c0: 1322 183d 343b 59be 723d 0cbc 8dea bb3d
000001d0: 942c bebd 76be acbd 7c6d 22be 7c08 633d
000001e0: f9a7 0ebe a8b7 6fbd ac3f 36be f777 353e
000001f0: 14c4 1ebd 8cc4 92bc f921 663d 79bc 933d
00000200: ba66 ba3d 282d 0fbd 4957 6c3e e6bd 7c3e
00000210: 6041 833e fd76 803c 0df1 933e acbf 1d3e
00000220: d94b 9cbd 22d0 87bc 87c4 083e 6151 e3bd
00000230: e21f 9bbe b109 893e 4b02 233e f9dd 013e
00000240: d146 8fbd 3eb4 19bd a9da d83c 89c7 d5bd
00000250: 22a0 7d3e a556 bc3d 7e3e 633e b0a6 8b3e
00000260: d273 e1bd deed 063e 4bdf 573e 0357 fe3c
00000270: d649 913b c87a c03d 967f a53e 8675 8ebe
00000280: c176 863d 8650 003e b92f 1b3e feed 98bc
00000290: 1c4b e53d b606 7dbd 6037 d33e 7416 d43d
000002a0: 463c fb3d cc48 08bd 6eab 0dbe 51bc fdbd
000002b0: e638 df3d 3a9d 44bd 5809 2c3e 8abf b1bc
000002c0: ed55 05be dbb2 33be 2587 1dbd 0326 f73c
000002d0: 14a5 6fbd 2d71 3b3a 9ab4 e83c 7fb5 62bd
000002e0: e7a1 f33d 5d65 c8bc 2749 333e a499 20bd
000002f0: c45a ffbb 854a 573e db88 923e 73b9 debd
00000300: e9da 183e 902c c5bd c541 b3bc 6ce8 f93c
00000310: 901e b03e 06f6 033e 8cf3 c93e 9e51 96bc
00000320: 5c2c 3e3e fd5d ab3e 562a 8e3e 1040 aa3d
00000330: b0a9 a23d 199f 3d3e 1273 143d 5dc0 6d3d
00000340: 86fc 6cbd 84ea b03e 4089 a6bc d087 51bd
00000350: 9fec 973e ec4f 5a3d 8e12 f83d 5cfa 0b3d
00000360: 261a 563e c2d4 b33d 2a07 a83e 86b1 b5bd
00000370: 3f6d 823c 2755 593e ecfd 8a3e d002 6c3e
00000380: cf85 4cbd 99f7 e83d def2 24be 4f56 963d
00000390: a442 033e fce3 9bbd f6eb 883e 437f d23d
000003a0: 153c 2f3e 17a7 fa3b 1473 89bd e19e a33e
000003b0: 010f 313e e74c 543e c1a3 8f3d c60a 0fbe
000003c0: 3ab2 2a3d 1cee 383d 6c9f 4c3d a19f 8ebc
000003d0: e6b1 c53e 46fb 5b3d 7f09 343e ef79 91bd
000003e0: 8588 9abc 5797 2dbd 9f07 023e 4920 9cbc
000003f0: ee7d 3f3e aef0 493e a655 033e 6180 0e3e
-0.15623863 -0.029983668 -0.19715694 -0.0763111 0.20769988 0.12463798 0.037091587 -0.02385471
-0.15769963 0.089967266 0.015823036 -0.025838448 0.1889016 0.1235572 -0.075172715 -0.14806823
0.13550836 -0.005629116 0.040729564 0.117198266 0.07905721 0.22527114 -0.00047543753 -0.0153909
-0.048042376 0.21451135 -0.0025800255 0.020891652 -0.055297896 0.01653164 0.10903113 0.22443691
0.1633849 -0.0083412845 0.0866859 -0.050381247 0.19608052 0.118338995 0.09242393 0.17974985
-0.097730726 -0.063484676 -0.094360545 0.041660566 -0.054085318 0.14481395 -0.07220923 -0.12438624
-0.23280904 -0.1668227 0.06173149 -0.14071892 0.2992699 0.10758814 0.07329573 -0.011066217
-0.30370238 -0.12812988 -0.016139086 -0.07368469 -0.049321316 0.281263 0.18693122 -0.24726553
0.09649332 0.17360198 0.113929346 0.20603044 0.30414543 0.034960333 0.27413854 -0.051493518
0.009393738 -0.14827599 0.14518523 -0.080195576 0.00075877015 0.040735338 -0.0049423147 0.015452225
0.015124154 -0.001260528 0.07055625 0.0721348 0.06475817 0.16571765 0.16651434 0.2837706
-0.12588271 -0.032931495 0.037207205 0.055161506 0.07555511 0.08276736 0.1527524 -0.22610728
0.02749503 0.046356983 -0.08448876 -0.11026094 -0.111550406 -0.19280836 0.0822594 -0.044734932
-0.06464898 0.12176311 0.021998191 -0.15844896 -0.051926296 -0.09404766 -0.03629402 -0.10841379
0.03714187 -0.2121399 -0.008559572 0.091755964 -0.09285846 -0.08434765 -0.15862077 0.055428013
-0.13931264 -0.058524758 -0.17797726 0.17721544 -0.038761213 -0.017915986 0.056184743 0.07213683
0.09101625 -0.034955174 0.23080172 0.24681816 0.25635815 0.015681738 0.28894845 0.15405148
-0.07631654 -0.016578738 0.13356219 -0.11099506 -0.30297762 0.26765206 0.15918843 0.12682332
-0.06995929 -0.037525408 0.026471453 -0.10438449 0.24768117 0.09196214 0.22191808 0.2727561
-0.11008419 0.13176677 0.21081273 0.03104735 0.0044338508 0.09398419 0.32323903 -0.27824038
0.06565619 0.12530717 0.15154923 -0.018668171 0.111959666 -0.06177398 0.41253185 0.10355845
0.122673556 -0.03327255 -0.13834926 -0.12389434 0.108995244 -0.048001505 0.1680044 -0.021697778
-0.1302106 -0.17548697 -0.038458962 0.030169493 -0.05850704 0.00071503484 0.02840643 -0.05534887
0.11896115 -0.024462396 0.17508374 -0.039209023 -0.0077928025 0.2102452 0.28620037 -0.108752154
0.14927258 -0.0962764 -0.021881947 0.030506335 0.34398317 0.12886819 0.39443624 -0.018349465
0.1857161 0.33470145 0.27766675 0.08313 0.079425216 0.18517722 0.036242552 0.05804478
-0.057858013 0.3455392 -0.020329118 -0.05115491 0.29672715 0.053298876 0.12112914 0.03417431
0.20908412 0.08780815 0.32817966 -0.088717505 0.015921233 0.2122389 0.27146852 0.23047948
-0.049932297 0.113753505 -0.16108271 0.07340681 0.1281839 -0.07611844 0.26742524 0.102781795
0.17112763 0.007649313 -0.067114025 0.31957152 0.1729088 0.20732461 0.070136555 -0.13968953
0.041673876 0.045148954 0.049956724 -0.017410101 0.38612288 0.05370643 0.17581747 -0.07103335
-0.018863926 -0.042380657 0.1269822 -0.019058364 0.18700382 0.19720718 0.12825641 0.1391616

model.13.bias f4 [32]
00000000: ef47 973d d5ab ef3d 97da e33d 563a 3bbd
00000010: 27d3 f13d 3074 4f3d 3a9f 12be 8d52 343d
00000020: d88f 1b3e b91b 88bd b8ee 3abc 550b 36bd
00000030: 3bd0 c33c 4221 58bd 65e6 a43d dab9 053c
00000040: 6d4f 193e 1a03 53bd 38e0 71bd e776 b33d
00000050: a310 4a3d e2d5 573c 4d46 02be 9647 bc3d
00000060: 1b8b 093e 8c9e c93b 1626 123c f0bf f0bb
00000070: b48e 0abe 4df7 e03d 6e32 a23d 87a5 db3d
0.07386767 0.11702696 0.11125677 -0.04570993 0.11807852 0.050647914 -0.14318553 0.04402404
0.15191591 -0.06645913 -0.011409454 -0.0444444 0.023903003 -0.052766092 0.08051757 0.008161986
0.14971705 -0.05151663 -0.059051722 0.08762913 0.049332272 0.013173552 -0.1272213 0.091933414
0.13431971 0.0061529335 0.008920213 -0.0073470995 -0.13531 0.10984669 0.07919775 0.10724931
