results/Weights/model2_smotetraining.pth (torch, 142846 bytes, 17 tensors)

model.0.weight f4 [128, 8]
0	0x3eb143f1	0.34622148
1	0xbdf0f6f5	-0.11765853
2	0x3d35532c	0.044268772
3	0xbcc333c4	-0.023828395
4	0xbead3af1	-0.3383403
5	0xbbe20bda	-0.0068983855
6	0x3d7b47fa	0.06134794
7	0xbe9a573a	-0.30144674
8	0xbd65ed86	-0.056134723
9	0x3c6034df	0.01368448
10	0x3e47d067	0.19513093
11	0x3d8d99f2	0.06914128
12	0x3d3e929e	0.046526544
13	0xbe6d4949	-0.23172487
14	0xbf155afc	-0.58341956
15	0xbe467997	-0.1938232
16	0x3e993452	0.2992273
17	0x3cbf6294	0.023362435
18	0x3e40f1de	0.18842265
19	0x3e3cee65	0.18450315
20	0xbe40b4d5	-0.18818982
21	0xbe359302	-0.1773186
22	0xbf024e06	-0.50900304
23	0x3d55c00f	0.052185114
24	0xbe3969c7	-0.18106757
25	0xbdf5bffb	-0.11999508
26	0xbba3a4c2	-0.004994006
27	0x3d873eca	0.06603773
28	0x3dadda7d	0.08488939
29	0xbe432a02	-0.19058993
30	0xbe5ee200	-0.217659
31	0x3e5eb9d1	0.21750571
32	0x3ef3a710	0.47588396
33	0x3ded187b	0.11576935
34	0xbcdded9a	-0.027090836
35	0x3dcc4381	0.09973813
36	0xbe968f5c	-0.2940625
37	0xbdd6a04b	-0.10479792
38	0x3ef3d3d5	0.47622553
39	0xbe2f370f	-0.17110847
40	0xbd95bdcf	-0.07311594
41	0xb7ed881f	-2.8315988e-05
42	0xbea86a67	-0.3289368
43	0x3dc4f33c	0.09616706
44	0x3e417fbc	0.18896383
45	0xbe2fbd23	-0.17161994
46	0x3e8f355a	0.27970392
47	0x3e817c59	0.25290182
48	0xbd8ceacb	-0.06880721
49	0x3d0dcc5f	0.03461873
50	0x3e0492ff	0.129467
51	0x3c5f9da5	0.013648425
52	0x3d2d1c1a	0.042263128
53	0x3e054690	0.13015199
54	0xbd3e92cf	-0.046526726
55	0xbe9c5c71	-0.30539277
56	0x3ec4533d	0.38344756
57	0x3de56e63	0.11202695
58	0xbc85a25c	-0.01631277
59	0xbd2df1f6	-0.04246708
60	0xbe9816be	-0.2970485
61	0xbe3a3938	-0.1818589
62	0x3f123d0a	0.5712439
63	0xbd0411c5	-0.03224351
64	0x3ea8bc3d	0.32956114
65	0x3e9885d2	0.29789597
66	0xbebbb5e4	-0.3666221
67	0xbe23b9ca	-0.15988842
68	0x3e0708c6	0.1318694
69	0xbea8e7fe	-0.32989496
70	0x3e92a78b	0.2864345
71	0xbe496638	-0.196679
72	0x3e1b3bb9	0.15159501
73	0xbde12e54	-0.109951645
74	0xbeab9b49	-0.3351691
75	0xbd749de8	-0.059720904
76	0xbd1c249d	-0.038120855
77	0xbde96604	-0.11396411
78	0x3e92ccc1	0.2867184
79	0xbe164606	-0.1467515
80	0x3e23fa68	0.16013491
81	0xbdcc8ea8	-0.09988147
82	0x3e8278b5	0.25482717
83	0x3d5667dd	0.052345145
84	0xbd5ad112	-0.05342204
85	0x3d9cf745	0.076643504
86	0xbed1f877	-0.41009876
87	0xbe7bb368	-0.24580157
88	0x3da604b2	0.08106364
89	0x3e82cfa1	0.25549033
90	0xbeca3551	-0.39493802
91	0x3dbf9c76	0.093560144
92	0x3e2c259f	0.16811226
93	0x3e282113	0.16418867
94	0xba1d3d4c	-0.00059982087
95	0xbe2f8998	-0.17142332
96	0xbdf1ed5c	-0.11812851
97	0xbe574710	-0.21023202
98	0xbeae2552	-0.34012848
99	0x3e0bb7f8	0.13644397
100	0xbddc1962	-0.10747029
101	0xbe549a7c	-0.20762056
102	0x3d3a8da3	0.04554523
103	0x3e42bb7b	0.1901683
104	0xbe26f5d9	-0.16304721
105	0x3e2d00b0	0.16894794
106	0x3d4126c4	0.04715611
107	0xbde77f0e	-0.11303531
108	0xbd5f2d91	-0.054486815
109	0x3e51bb55	0.20481618
110	0x3e99b329	0.300195
111	0xbf036d4f	-0.51338667
112	0xbe9a0c0d	-0.3008732
113	0xbe19622d	-0.14978857
114	0x3e3e573a	0.18587962
115	0xbe9c1dd8	-0.3049152
116	0x3d37ce60	0.04487455
117	0x3e02301d	0.12713666
118	0xbef342fa	-0.47512037
119	0x3e4990ff	0.19684218
120	0xbd682f43	-0.056685697
121	0xbe2a9d91	-0.1666167
122	0xbdeea97e	-0.11653422
123	0x3d2fa4e0	0.042881846
124	0xbe5bd230	-0.21466899
125	0xbdfc53e8	-0.12320691
126	0xbe08b240	-0.13349247
127	0xbe072a48	-0.13199723
128	0x3eb43e8e	0.35203975
129	0x3dce5d88	0.100764334
130	0xbd9dc162	-0.077029005
131	0x3dc49db2	0.096003905
132	0xbf00985e	-0.50232494
133	0x3e2d11c3	0.16901307
134	0xbd9f7ea7	-0.07787829
135	0xbe9c8c4a	-0.30575782
136	0xbe5fa168	-0.21838915
137	0xbea31cc5	-0.31857887
138	0x3e8113d4	0.2521044
139	0xbe97af5b	-0.29625973
140	0xbe732293	-0.23743658
141	0xbe992ef1	-0.29918626
142	0xbe5f0172	-0.21777895
143	0xbeb316a9	-0.34978226
144	0x3a80ebf8	0.0009835949
145	0xbe048432	-0.12941054
146	0x3d8d35fc	0.06895062
147	0xbe35c320	-0.17750216
148	0x3e4b497d	0.19852252
149	0x3e401802	0.18759158
150	0x3e0479f4	0.12937146
151	0xbe9fe09a	-0.31226045
152	0xbedf91fb	-0.43666062
153	0xbe36a142	-0.17834952
154	0x3d423f3d	0.04742359
155	0x3e1e489b	0.15457384
156	0xbe2f3e0c	-0.17113513
157	0xbcc51646	-0.024058472
158	0xbdc35482	-0.09537603
159	0xbe0c15b9	-0.13680162
160	0x3e304042	0.17212012
161	0xbe49549b	-0.1966118
162	0x3e96ade6	0.2942955
163	0x3e07b7dd	0.13253732
164	0xbe1ed534	-0.15511018
165	0x3e34be7e	0.17650792
166	0xbd32a27e	-0.043611996
167	0x3d533a40	0.051569223
168	0x3f0269c8	0.5094266
169	0x3db92bb3	0.09041538
170	0xbdd0e07d	-0.10199068
171	0xbe96c658	-0.294482
172	0x3daef0ab	0.085419975
173	0x3e870c37	0.26376507
174	0x3cdbe3cc	0.02684202
175	0xbed49e80	-0.41527176
176	0xbeec7310	-0.46181536
177	0x3e42a9b4	0.19010049
178	0xbd8c4a73	-0.068501376
179	0xbe9a7ff8	-0.30175757
180	0x3e444ac2	0.19169143
181	0xbeea7f25	-0.4580013
182	0xbdb52a54	-0.08845964
183	0x3db1544c	0.086586565
184	0xbeb3663e	-0.35038942
185	0x3e0157bb	0.12631123
186	0xbd1264ca	-0.03574065
187	0xbeeb7b33	-0.4599243
188	0xbe8ce27d	-0.27516547
189	0xbda0e54a	-0.078562334
190	0xbe7281ca	-0.23682323
191	0xbd8a28f0	-0.067460895
192	0x3e8d732b	0.2762693
193	0xbe91a10f	-0.2844319
194	0x3d25b3eb	0.040454786
195	0xbeb422e8	-0.3518288
196	0x3e27ea0a	0.16397873
197	0x3e859ee4	0.26097786
198	0xbea241fc	-0.31690967
199	0x3e3f92a2	0.1870828
200	0xbce8cf62	-0.0284192
201	0xbdb0eac9	-0.08638532
202	0x3e401700	0.18758774
203	0xbe9b40f7	-0.30323002
204	0x3e06f62d	0.13179846
205	0xbe2058ca	-0.1565887
206	0x3d4dfcca	0.050289907
207	0x3e1e30f7	0.15448366
208	0x3eb44ac6	0.35213298
209	0x3e03a4e7	0.12855874
210	0xbe862de4	-0.26206887
211	0x3b9399ad	0.0045044036
212	0xbd8c9fee	-0.06866442
213	0x3d3dc497	0.04633006
214	0x3db70656	0.08936755
215	0x3e7d2b3b	0.24723522
216	0x3d62b88a	0.05535177
217	0xbd984b84	-0.074362785
218	0xbdc8309c	-0.097748965
219	0x3e23db58	0.16001642
220	0x3e4fa4ef	0.20277761
221	0xbc52b47c	-0.012860414
222	0xbd18770b	-0.037222903
223	0xbe7951df	-0.24347638
224	0xbe62e3d8	-0.22157228
225	0xbea40eca	-0.32042533
226	0x3ddef346	0.108862445
227	0x3d929982	0.071581855
228	0x3e5990b9	0.21246614
229	0x3e513fb5	0.20434459
230	0xbebafbad	-0.36520138
231	0xbecad60d	-0.39616433
232	0xbec3427b	-0.38136658
233	0xbc9484f8	-0.01812981
234	0x3ce2b350	0.027673393
235	0x3ddcf2d8	0.10788506
236	0x3e18c407	0.14918528
237	0x3d1b2274	0.037874654
238	0x3e7739ca	0.24143139
239	0x3caa81d8	0.020813867
240	0xbe8e51bc	-0.27796733
241	0xbdba9960	-0.09111285
242	0x3ebaf8bb	0.3651789
243	0x3b02e03f	0.0019970087
244	0xbd24c7fe	-0.04022979
245	0xbcbf0c55	-0.02332131
246	0xbde1abb9	-0.110190816
247	0xbec5d3db	-0.38638195
248	0x3e4a369d	0.19747396
249	0x3e302c07	0.17204295
250	0x3e03b77e	0.12862965
251	0xbed800ea	-0.42188197
252	0x3bb3e6b1	0.005490147
253	0xbd893368	-0.06699258
254	0xbe4ff635	-0.20308764
255	0xbe59a025	-0.21252497

model.0.bias f4 [128]
0	0xbe490bf3	-0.19633465
1	0x3ef497a3	0.4777194
2	0x3ea8e20d	0.32984963
3	0x3e64a251	0.22327544
4	0xbf136d17	-0.5758833
5	0xbeebed2c	-0.46079385
6	0xbeae4407	-0.34036276
7	0xbf0d25a4	-0.5513556
8	0xbec24f94	-0.37951338
9	0xbeacd6ad	-0.33757535
10	0x3e6f6780	0.23379326
11	0xbdc807ed	-0.09767137
12	0xbeaa7f0e	-0.3330006
13	0xbda05c6b	-0.07830127
14	0x3edd6c33	0.43246612
15	0x3e29b718	0.16573751
16	0xbf12e66a	-0.57382834
17	0x3ea26b0f	0.31722304
18	0x3ef3cb50	0.47616053
19	0x3e2fd8a1	0.17172481
20	0x3ed14f4a	0.40880805
21	0xbdea1d94	-0.11431423
22	0x3e23c737	0.15993963
23	0xbea2caa3	-0.31795225
24	0x3dc1ed96	0.09469144
25	0xbe34a03b	-0.17639248
26	0xbf0bebfb	-0.5465695
27	0xbec63845	-0.38714805
28	0x3e6cd2b0	0.23127246
29	0x3d34a0a2	0.044098504
30	0xbda2f467	-0.07956772
31	0xbf01d3b8	-0.5071368
32	0xbe390279	-0.1806735
33	0xbe6f5a97	-0.23374401
34	0xbcee90be	-0.029121753
35	0xbeb5b70a	-0.3549121
36	0x3db75b2f	0.08952939
37	0x3e936b9e	0.28793043
38	0xbedc3a9a	-0.4301346
39	0xbe938c49	-0.28817967
40	0xbc879918	-0.016552493
41	0x3e80e5ef	0.25175425
42	0x3de5d043	0.112213634
43	0x3e5469b4	0.20743448
44	0x3d8e215f	0.06939959
45	0x3d8352aa	0.06412251
46	0xbe7c5241	-0.24640752
47	0x3d9758ec	0.073900074
48	0xbe85041c	-0.25979698
49	0xbeb2c145	-0.34913078
50	0xbe73aab5	-0.23795588
51	0xbe3dcf51	-0.18536116
52	0xbe1d7561	-0.15376808
53	0x3f315bcc	0.69280696
54	0x3e0c633f	0.13709734
55	0xbe6de148	-0.23230469
56	0x3ecc882d	0.39947644
57	0xbf003b70	-0.50090694
58	0x3d441967	0.047875788
59	0xbf1ace6b	-0.6047122
60	0x3e827ac8	0.254843
61	0x3e82d343	0.25551805
62	0x3ead4275	0.33839765
63	0x3d8cdee1	0.06878448
64	0x3eb81d63	0.3595992
65	0xbcbe1e8d	-0.023207927
66	0xbea91eba	-0.33031255
67	0xbed76364	-0.42068017
68	0x3ec8c907	0.39215872
69	0xbc5d6fcd	-0.013515425
70	0x3eafe1a2	0.34351832
71	0xbf03aac3	-0.51432437
72	0xbf1584bf	-0.5840568
73	0xbe391fdb	-0.18078558
74	0xbe80794f	-0.2509255
75	0x3ef88a68	0.48543096
76	0xbda7aaf9	-0.08186907
77	0xbe0fa48e	-0.14027616
78	0xbe3447e8	-0.17605555
79	0xbed071c8	-0.40711808
80	0xbe9fabf1	-0.31185868
81	0xbd137028	-0.035995632
82	0xbe8cfa94	-0.27534926
83	0xbf3447cc	-0.70422053
84	0xbd15695a	-0.036477424
85	0xbe63a1ca	-0.22229686
86	0xbefb14cf	-0.49039313
87	0x3e29caa1	0.16581203
88	0x3ed2ecd8	0.41196322
89	0xbd9b19fa	-0.07573314
90	0x3f352d6f	0.7077245
91	0xbe18192d	-0.14853354
92	0x3eaed3d7	0.34145996
93	0xbdbb5eae	-0.09148918
94	0x3ded8573	0.11597719
95	0xbcadabb8	-0.021200046
96	0x3e18383f	0.14865206
97	0x3e0336a1	0.12813808
98	0x3e48bcdb	0.19603293
99	0x3e4fb551	0.2028401
100	0x3e2a8359	0.16651668
101	0xbea48075	-0.32129255
102	0x3e40f2e8	0.18842661
103	0x3ca88e65	0.020575712
104	0x3e6a0e59	0.22857036
105	0xbe2c2148	-0.16809571
106	0xbe572241	-0.2100916
107	0xbe270f45	-0.16314419
108	0xbc32dec5	-0.01091737
109	0xbeb374f7	-0.35050175
110	0xbed7044e	-0.41995472
111	0xbc5a07b8	-0.013307504
112	0x3d95c0db	0.07312175
113	0x3ed45dce	0.41477817
114	0xbe8a7b73	-0.2704731
115	0xbe893c48	-0.26803803
116	0xbf26a819	-0.65100247
117	0xbd8ba246	-0.068180606
118	0xbf35a494	-0.7095425
119	0xbf077258	-0.5290885
120	0xbce6671e	-0.028125342
121	0x3edccac7	0.43123457
122	0x3a406d3e	0.0007340497
123	0x3df90ddf	0.12160849
124	0x3dc8a92b	0.09797891
125	0xbe9135fd	-0.28361502
126	0x3e9a51be	0.3014049
127	0x3d8e745f	0.0695579

model.3.weight f4 [128, 128]
0	0x3d88210d	0.06646929
1	0xbcc610d6	-0.02417795
2	0xbd10da7d	-0.035364617
3	0xbd46d612	-0.048543997
4	0x3b4db42b	0.0031387906
5	0xbd9c3b44	-0.076284915
6	0x3ce0bd11	0.027433904
7	0xbbceba08	-0.0063087977
8	0xbca5e67e	-0.020251509
9	0xbccd2e09	-0.025046365
10	0x3bccff61	0.0062560295
11	0xbdba181c	-0.0908663
12	0xbd89cfc6	-0.06729083
13	0x3c93575e	0.017985996
14	0x3cdaca46	0.02670778
15	0xbd83ea38	-0.06441158
16	0x3d2af6fb	0.041739445
17	0x3db40e46	0.08791785
18	0x3c83dc2c	0.016096197
19	0xbd9e4c09	-0.07729346
20	0x3cb81b50	0.022473961
21	0xbc251bc2	-0.010077419
22	0x3d7906fb	0.060797673
23	0xbc83873e	-0.0160557
24	0xbdf48d70	-0.119410396
25	0xbcbe5cf3	-0.023237681
26	0xbd909eff	-0.07061576
27	0xbbef0802	-0.007294656
28	0xbd3cb3b9	-0.046069834
29	0xbd141b76	-0.036159
30	0x3d4f58e5	0.050621886
31	0xbc0946a3	-0.0083786575
32	0x3cab3c2e	0.02090272
33	0xbb8560d2	-0.00407038
34	0xbc65f6da	-0.014035905
35	0xbdd01b3c	-0.101614445
36	0xbe01b0ea	-0.12665144
37	0xbdb8007e	-0.08984469
38	0x3d4d3368	0.050097853
39	0xbd866a40	-0.06563234
40	0x3bcea11f	0.006305828
41	0xbd2e39b9	-0.042535517
42	0x3d4f58e0	0.050621867
43	0xbd461490	-0.048359454
44	0x3d887ba2	0.06664206
45	0xbd95bc02	-0.0731125
46	0x3da5cc88	0.08095652
47	0xbdb54bc7	-0.08852344
48	0xbdaba63d	-0.08381317
49	0x3d520ca7	0.051281597
50	0xbc5d327f	-0.013500809
51	0xbd656140	-0.056000948
52	0xbd634985	-0.055490036
53	0xbd9ece05	-0.07754139
54	0xbd17aab7	-0.03702804
55	0xbdb2ddea	-0.08733733
56	0xbd4846f9	-0.04889581
57	0x3b13b14a	0.0022536092
58	0xbc88c746	-0.016696583
59	0xbd94efb2	-0.07272281
60	0x3d84dd22	0.0648749
61	0xbdaf3cc7	-0.08556514
62	0x3ba19b82	0.004931868
63	0xbd670e55	-0.056410152
64	0xbc84e405	-0.01622201
65	0xbd45026c	-0.048098013
66	0xbcd98979	-0.02655481
67	0xbd898cbe	-0.067162976
68	0x3c713060	0.014721006
69	0xbcc90b27	-0.02454145
70	0xbd825ed7	-0.063657455
71	0xbd9059ba	-0.07048364
72	0xbd43b6a7	-0.047781613
73	0xbd7b39fa	-0.061334588
74	0xbd9b3682	-0.07578756
75	0xbacefa1f	-0.0015791095
76	0xbdc831ce	-0.097751245
77	0xbde2fb46	-0.11083083
78	0xbd8f5e10	-0.07000363
79	0x3da424d9	0.08014841
80	0x3d9d6fa4	0.076873094
81	0x3d11bf91	0.035583083
82	0x3c1e9877	0.009679905
83	0xbd998702	-0.07496454
84	0x3d64a25d	0.055818904
85	0xbc69ee13	-0.014277953
86	0xbda6b490	-0.08139908
87	0xbcd3e70a	-0.025867004
88	0xbdce5898	-0.10075492
89	0xbdbd5445	-0.09244589
90	0xbdada05e	-0.08477853
91	0x3c346d32	0.011012362
92	0xbd899eed	-0.06719766
93	0x3cc8e22d	0.024521912
94	0xbca05602	-0.019572262
95	0x3d440ce0	0.04786384
96	0xbd8a58da	-0.06755228
97	0xbc889eb5	-0.01667724
98	0xbccba04b	-0.024856707
99	0x3d05171c	0.032492742
100	0x3d2c50d2	0.042069264
101	0xba5fa6cb	-0.0008531629
102	0xbdbb7539	-0.09153218
103	0xbdadea7f	-0.08491992
104	0xbcb4a6fb	-0.022052279
105	0xbd85fce2	-0.06542374
106	0x3d18b564	0.037282363
107	0xbc83e91f	-0.016102372
108	0x3c233b7d	0.009962914
109	0x3c927cfa	0.01788186
110	0x3d42ee17	0.04759034
111	0x3d8ae1ad	0.067813255
112	0x3d099593	0.03358991
113	0xbd28da36	-0.041223727
114	0xbcceeab7	-0.025258405
115	0xbdd63cdc	-0.10460827
116	0xbd87f7f1	-0.06639088
117	0xbba8ff79	-0.005157408
118	0x3ccb0a03	0.024785047
119	0xbd8899f1	-0.06669987
120	0xbd7355f6	-0.05940815
121	0xbd2428ae	-0.040077858
122	0x3c8e8d03	0.017401224
123	0xbd3c6434	-0.045994
124	0x3d54c56e	0.051946096
125	0x3ce409cc	0.027836703
126	0x3d70fca0	0.058834672
127	0xbc6cfce5	-0.014464592
128	0xbda40363	-0.080084585
129	0x3d3dfa33	0.046381187
130	0xbe76f3a4	-0.24116379
131	0x3ccc13f8	0.024911866
132	0x3d8bbeba	0.068234876
133	0x3d4c9032	0.049942203
134	0xbc7e81da	-0.015533889
135	0x3d94d2e0	0.07266784
136	0xbda20c41	-0.079124935
137	0x3d61c2e6	0.05511751
138	0xbe722a7e	-0.23649022
139	0x3d49361b	0.049123865
140	0xbd7470a1	-0.059677724
141	0x3ce39c26	0.027784418
142	0xbd4eff90	-0.050536692
143	0x3c80b69a	0.015712071
144	0xbd6b06ed	-0.05737965
145	0xbc954949	-0.018223422
146	0x3d4dcf9c	0.05024682
147	0xbd3ac605	-0.045599002
148	0xbe02e642	-0.12783149
149	0x3df7f509	0.121072836
150	0x3d4e0120	0.05029404
151	0xbdbe579b	-0.09294053
152	0xbd7cf600	-0.06175804
153	0xbd2e0270	-0.042482793
154	0xbd535713	-0.051596712
155	0x3c8d3557	0.017237348
156	0xbd0e24fc	-0.03470324
157	0x3cd86aba	0.026418079
158	0xbe84b83f	-0.2592182
159	0x3d5362af	0.051607784
160	0xbdc3d781	-0.095625885
161	0x3c20edf6	0.009822359
162	0xbc88d1e8	-0.016701654
163	0xbd53d9ae	-0.051721267
164	0xbe4e66cb	-0.201564
165	0x3c2a9593	0.010411638
166	0xbca69c99	-0.020338343
167	0x3d358a0b	0.0443211
168	0x3adc872f	0.0016824956
169	0x3d1a7445	0.03770854
170	0x3cbb4017	0.022857709
171	0xbd1b61af	-0.037934955
172	0x3d313ce3	0.043270957
173	0x3d82328f	0.063572995
174	0xbdd449a1	-0.10365606
175	0xbea39025	-0.3194591
176	0xbe17fe51	-0.14843108
177	0xbdaee8ca	-0.08540495
178	0x3ce05d04	0.027388103
179	0x3d216ee0	0.03941238
180	0xbea23270	-0.31679106
181	0xbe3a27a2	-0.18179181
182	0x3c83ac10	0.016073257
183	0xbd11ddd6	-0.03561195
184	0x3c9231f5	0.017846087
185	0xbd65ba5a	-0.05608592
186	0x3c1e6f91	0.009670154
187	0x3da6cfef	0.08145129
188	0x3c864333	0.016389465
189	0xbd2e1491	-0.042500082
190	0xbe0aa2c8	-0.13538659
191	0xbe74c0a3	-0.2390161
192	0xbca1122b	-0.019661983
193	0xbd35621c	-0.044283018
194	0xbc56e99a	-0.013117218
195	0x3e0b886f	0.13626264
196	0x3c6788ec	0.014131766
197	0xbd606ab2	-0.054789253
198	0x3d1bc6f2	0.038031526
199	0x3d3c7d21	0.04601777
200	0x3cebf627	0.028803898
201	0xbc3f2029	-0.011665382
202	0x3dcd0c84	0.10012153
203	0xbde7523f	-0.11294984
204	0x3d8cbe10	0.06872189
205	0x3c8fdbb0	0.01756081
206	0xbe1342f5	-0.14381011
207	0xbd02c419	-0.031925295
208	0x3daf9494	0.08573261
209	0xbd2c63d4	-0.04208739
210	0xbdb30ad0	-0.08742297
211	0x3ce71652	0.028208885
212	0x3da45abe	0.0802512
213	0x3d2c9d5f	0.04214227
214	0xbd95b46c	-0.07309803
215	0xbe9cda8e	-0.30635494
216	0xbdfdbf87	-0.123900466
217	0xbd9ea065	-0.077454366
218	0x3c73c7fc	0.014879223
219	0x3dc8c763	0.09803655
220	0x3c8feba5	0.017568419
221	0x3d8793bb	0.06619974
222	0x3c9f847a	0.01947235
223	0xbda82458	-0.08210057
224	0xbe6407fe	-0.22268674
225	0x3c04f65f	0.00811538
226	0x3db560d0	0.08856356
227	0xbd1d6c5c	-0.038433418
228	0xbec3ea37	-0.3826463
229	0xbe336898	-0.17520368
230	0xbdb6317a	-0.08896156
231	0xbc5d1462	-0.013493629
232	0xbdc18927	-0.09449988
233	0x3cf067d0	0.029346377
234	0x3d3b9199	0.04579315
235	0xbe381a15	-0.179787
236	0x3d809480	0.06278324
237	0x3dea87b4	0.114516646
238	0xbd05c584	-0.03265907
239	0x3cb43975	0.022000054
240	0xbd64176b	-0.055686396
241	0x3d1d1369	0.03834859
242	0xbd0859fc	-0.03328894
243	0x3d22f147	0.03978088
244	0xbc7e15f2	-0.015508162
245	0xbd01bdaa	-0.03167502
246	0xbd80b6ad	-0.06284843
247	0x3e02a1b6	0.12757
248	0x3c758a5f	0.0149866035
249	0xbd9be486	-0.07611947
250	0x3d97a46d	0.074044086
251	0x3ccf789d	0.025326068
252	0xbdd53573	-0.10410585
253	0xbd7dd9df	-0.061975356
254	0x3c7c041d	0.01538184
255	0xba650230	-0.00087359827

model.3.bias f4 [128]
0	0xbd949f5e	-0.072569594
1	0xbe3108b6	-0.17288479
2	0xbe84a7ed	-0.25909367
3	0xbe1be461	-0.15223838
4	0xbdb14f17	-0.08657663
5	0x3db8f8d3	0.090318345
6	0xbe45ed15	-0.19328721
7	0xbe87c07c	-0.2651404
8	0x3e2cb315	0.1686519
9	0x3e787f43	0.24267296
10	0xbe43ef5e	-0.1913428
11	0xbe8c7f4b	-0.27440867
12	0xbeaeee88	-0.3416636
13	0x3dc9d603	0.098552726
14	0xbe275be3	-0.16343646
15	0xbdc00a1f	-0.093769304
16	0x3e22f632	0.15914229
17	0xbde107af	-0.10987794
18	0x3e80eea7	0.25182077
19	0xbdf01276	-0.11722271
20	0xbeaeaf8e	-0.34118313
21	0xbc7a2291	-0.01526703
22	0x3ca98f3e	0.020698186
23	0x3e42cc1d	0.19023176
24	0x3eb9b441	0.36270335
25	0x3cbaf457	0.022821588
26	0xbe61bdf5	-0.22045119
27	0x3d97fb65	0.074209966
28	0xbce182b6	-0.027528148
29	0xbde2e881	-0.11079503
30	0xbe0cf40a	-0.13764969
31	0xbde7e88c	-0.11323652
32	0x3d31b8c2	0.04338909
33	0x3d0f153a	0.034932353
34	0xbe500912	-0.2031596
35	0xbd6ff07b	-0.05857895
36	0xbe4587e7	-0.19290124
37	0xbe4d9d4f	-0.2007954
38	0xbe6ee5a2	-0.23329785
39	0x3ce7a2d1	0.02827588
40	0xbeb2d069	-0.3492463
41	0x3d6310d4	0.05543597
42	0xbe7eae25	-0.24871118
43	0xbc291fee	-0.010322554
44	0x3db15499	0.08658714
45	0xbe6f50bf	-0.23370646
46	0x3e52eda8	0.20598471
47	0x3e882af6	0.26595277
48	0xbe52f6ef	-0.2060201
49	0x3d9ff8fb	0.07811161
50	0xbe92ed23	-0.28696546
51	0xbe899c32	-0.2687698
52	0xbed4b9e8	-0.41548085
53	0x3dc29a68	0.09502107
54	0xbe8c1a5c	-0.2736386
55	0xbd44ec74	-0.04807706
56	0xbec37205	-0.38172927
57	0xbd47c3a2	-0.048770554
58	0xbce9de95	-0.028548518
59	0x3e610526	0.2197462
60	0x3e20125c	0.15632004
61	0xbcd1528b	-0.025552055
62	0xbe28e2b1	-0.16492726
63	0x3c2c49dd	0.010515657
64	0x3d644d28	0.055737644
65	0xbe6cdc87	-0.23131
66	0xbde2121e	-0.11038612
67	0xbeb2e95a	-0.34943658
68	0xbe2dad1e	-0.1696057
69	0xbe676cab	-0.22600047
70	0x3d399681	0.045309547
71	0x3e9a0805	0.30084243
72	0xbd445d7c	-0.047940716
73	0xbe873856	-0.26410168
74	0xbe803c99	-0.25046232
75	0x3e8cf77b	0.27532563
76	0xbe28265d	-0.16420884
77	0xbecd9c01	-0.40158084
78	0xbe9893f7	-0.29800388
79	0xbe11f897	-0.14254986
80	0xbe7f1aa3	-0.24912505
81	0x3d46aad3	0.048502754
82	0xbeccb2fb	-0.399803
83	0x3aaeb8a4	0.0013330174
84	0x3dab93c4	0.083777934
85	0xbe977b08	-0.29586053
86	0xbead1b3b	-0.33809838
87	0xbeb272c7	-0.34853193
88	0xbe33d840	-0.17562962
89	0xbe8c4e47	-0.2740347
90	0x3e3fe11e	0.18738219
91	0x3e07c29d	0.13257833
92	0xbded973b	-0.116011105
93	0xbea9b882	-0.3314858
94	0x3e119bf3	0.14219646
95	0xbe9794d5	-0.29605737
96	0x3c91a94a	0.017780919
97	0xbd8b69cb	-0.06807288
98	0xbeb9678a	-0.36211807
99	0x3e1404f3	0.14455013
100	0xbc83187a	-0.016002882
101	0xbdf5e175	-0.12005893
102	0xbe96abba	-0.29427892
103	0xbcb494c5	-0.022043595
104	0x3d0ba091	0.034088675
105	0x3e680c67	0.22660981
106	0xbc76922b	-0.015049498
107	0xbea21ab7	-0.31661007
108	0xbd9cbfbe	-0.076537594
109	0x3c9f7f9c	0.019470029
110	0xbe5e6d02	-0.2172127
111	0xbe972005	-0.29516616
112	0x3e0e0b77	0.13871561
113	0xbe7d3b31	-0.24729611
114	0xbec7aafc	-0.38997638
115	0x3db0c95d	0.08632157
116	0x3bf38d64	0.0074326266
117	0xbeb29f43	-0.34887132
118	0xbea81941	-0.32831767
119	0xbe14c5f7	-0.14528643
120	0xbeac4842	-0.33648878
121	0xbe74ce6d	-0.2390687
122	0xbe9bab43	-0.304041
123	0xbec206be	-0.3789577
124	0xbe8e0914	-0.277413
125	0x3c5b58f3	0.013387906
126	0xbafa7fae	-0.0019111538
127	0xbcca99cc	-0.02473154

model.6.weight f4 [64, 128]
0	0xbd1418de	-0.036156528
1	0xbd5df233	-0.054186057
2	0x3da00e73	0.07815256
3	0x3c90744d	0.017633582
4	0xbdfa9ccb	-0.12236937
5	0x3cae972e	0.021312322
6	0xbcddf0e3	-0.027092403
7	0xbd8c8234	-0.06860772
8	0x3d97a737	0.074049406
9	0xbe340447	-0.17579757
10	0x3d1cefad	0.03831451
11	0xbc9bec77	-0.019033654
12	0xbdf98540	-0.121836185
13	0xbe0515d6	-0.12996611
14	0x3da11558	0.07865399
15	0x3d62d42c	0.055378124
16	0xbd89c139	-0.067263074
17	0x3d6cb2ec	0.05778782
18	0xbd16e005	-0.036834735
19	0x3d7f2b85	0.062297363
20	0x3d520fc5	0.05128457
21	0xbd410e07	-0.04713252
22	0x3da5ee56	0.081020996
23	0xbd98ca2b	-0.074604355
24	0xbce23eef	-0.0276179
25	0x3c990c21	0.018682541
26	0xbac20062	-0.001480114
27	0x3ca6b7b5	0.02035127
28	0x3e089ed2	0.13341835
29	0x3dc51ae4	0.096242696
30	0x3cedbfcf	0.029022126
31	0xbd1119fb	-0.035425168
32	0xbd223d0d	-0.039609004
33	0xbcbdae3d	-0.023154372
34	0xbd435155	-0.047684986
35	0xbcb4a383	-0.022050625
36	0xbc6d2f56	-0.014476618
37	0xba82a3ae	-0.0009966993
38	0xbd563006	-0.052291892
39	0xbc9b68b9	-0.018970834
40	0xbcf6f557	-0.030146284
41	0x3d2f493f	0.042794462
42	0xbd5daf2e	-0.054122142
43	0xbcfaf5f7	-0.030634863
44	0x3ddbf6d7	0.1074044
45	0x3ce0925d	0.027413541
46	0xbdaadb2c	-0.08342585
47	0x3b842251	0.004032411
48	0xbd6d3b0a	-0.057917632
49	0xbdb58383	-0.088629745
50	0x3d5a157e	0.053243153
51	0xbb1b9c29	-0.0023744202
52	0xbda26819	-0.07930011
53	0xbd57b0aa	-0.052658714
54	0x3c613032	0.013744401
55	0xbce5191f	-0.02796608
56	0x3d6ad2ec	0.057330057
57	0xbdccdfce	-0.10003625
58	0x3d6912ac	0.056902573
59	0xbd5bcd90	-0.053662837
60	0xbdfeade4	-0.12435511
61	0xbd9d036d	-0.07666669
62	0xbd955459	-0.07291479
63	0x3d3d81bf	0.046266314
64	0xbbb19d56	-0.0054203672
65	0x3d927516	0.071512386
66	0xbcea858a	-0.02862813
67	0xbd6c53cb	-0.0576971
68	0xbd128d42	-0.035779245
69	0x3d27172f	0.040793594
70	0x3d9c9a38	0.076466024
71	0x3c73fe55	0.01489218
72	0x3d862cd0	0.06551516
73	0x3d77ad69	0.06046811
74	0x3bb4bff5	0.005516047
75	0xbca8edae	-0.020621147
76	0xbd8a89d8	-0.06764573
77	0xbcf73c1a	-0.030180026
78	0x3cf743b8	0.030183658
79	0xbd23629f	-0.039888974
80	0xbad3c105	-0.0016155547
81	0xbdb8df7b	-0.090270005
82	0xbda787a8	-0.08180171
83	0xbd8cefd1	-0.06881679
84	0xbc8b20ad	-0.016983354
85	0xbda59782	-0.080855384
86	0x3d0a0f60	0.03370607
87	0x3d2fd693	0.042929243
88	0xbc60b9eb	-0.013716201
89	0xbb8fe630	-0.004391454
90	0xbd929dcd	-0.07159004
91	0xbd567be1	-0.052364234
92	0xbcfa0132	-0.030518148
93	0x3d38c472	0.04510922
94	0x3d6e8d03	0.058239948
95	0x3d0e9287	0.034807708
96	0x3d16fcc0	0.036862135
97	0xbca7ee6c	-0.02049943
98	0xbd46a631	-0.048498336
99	0xbd4fc21b	-0.050722223
100	0x3d972ed6	0.0738198
101	0xbdbb677e	-0.09150599
102	0x3d2766af	0.04086941
103	0x3c44bd0e	0.012007965
104	0x3e05d37c	0.13068956
105	0x3c9dab3b	0.019246688
106	0xbe127f14	-0.14306289
107	0x3c643eff	0.013931035
108	0x3d3d2a1b	0.046182733
109	0xbcdbc670	-0.02682802
110	0x3d32d864	0.043663397
111	0x3d88cde8	0.066798985
112	0x3d22955e	0.03969323
113	0xbdd9d94e	-0.10637151
114	0x3d82fedb	0.06396266
115	0xbdc1a25f	-0.09454798
116	0xbb886b64	-0.0041631926
117	0xbc90a913	-0.017658746
118	0xbd58b1a5	-0.05290379
119	0x3df36e23	0.11886241
120	0xbd149377	-0.036273446
121	0xbda78fa8	-0.08181697
122	0x3caa199f	0.02076417
123	0x3c5c9a5c	0.0134645365
124	0xbde6f096	-0.11276357
125	0x3db5ebb7	0.0888285
126	0xbd39d058	-0.045364708
127	0x3dc10909	0.094255514
128	0x3c387b85	0.011259918
129	0xbdf81f94	-0.12115398
130	0xbd2e2542	-0.042516
131	0xbdfc511c	-0.12320158
132	0xbcd036c7	-0.025416745
133	0xbbee302f	-0.0072689275
134	0xbd78dd07	-0.060757663
135	0x3ce5ecea	0.028067071
136	0xbca4ec36	-0.020132165
137	0xbc810650	-0.01575008
138	0xbccb58e5	-0.024822662
139	0xbdfd8739	-0.12379307
140	0xbd877e84	-0.06615928
141	0xbdb40e7c	-0.08791825
142	0x3d27bbba	0.040950514
143	0x3c345eae	0.0110089015
144	0x3d08580c	0.033287093
145	0xbd5b0e44	-0.0534804
146	0x3e03f79b	0.12887423
147	0x3d8827e0	0.066482306
148	0xbdd8c5ff	-0.1058464
149	0x3dadb75e	0.0848224
150	0x3d04a9c7	0.032388475
151	0x3dee9ced	0.11651025
152	0xbd41dc16	-0.04732903
153	0x3d5ee3a0	0.0544163
154	0xbaa1c663	-0.0012342449
155	0xbce5cb17	-0.028050942
156	0x3d87f585	0.06638626
157	0x3c2e3dac	0.010634821
158	0x3d202298	0.03909549
159	0xbdabdc4a	-0.08391626
160	0x3da0e45d	0.07856057
161	0xbd0a637f	-0.033786293
162	0xbdaa153a	-0.0830483
163	0x3e3393f9	0.17536916
164	0xbd116d5f	-0.035504695
165	0x3dad4248	0.08459908
166	0xbc7ac77a	-0.015306348
167	0xbdbd522f	-0.09244191
168	0x3d9e7728	0.07737571
169	0xbb985ce0	-0.0046497434
170	0xbcf17624	-0.02947528
171	0x3d1733bf	0.036914583
172	0x3cada23b	0.021195522
173	0xbd29e431	-0.041477386
174	0xbc381e19	-0.011237645
175	0x3d56137c	0.052264675
176	0x3d81d47d	0.06339357
177	0x3db92aa9	0.0904134
178	0xbbcafec3	-0.0061949207
179	0xbd484079	-0.04888961
180	0x3dafe9d4	0.08589521
181	0x3d19249b	0.037388425
182	0x3d1198c3	0.035546076
183	0x3ce75425	0.028238365
184	0xbd058728	-0.0325996
185	0xbd78ad7c	-0.060712323
186	0x3d18d76c	0.037314817
187	0x3d9955f3	0.07487097
188	0x3dcdaea6	0.10043077
189	0xbbe601ee	-0.007019273
190	0xbdf2a093	-0.11847033
191	0x3ccb67b0	0.024829715
192	0x3da29d42	0.07940151
193	0x3cbc476b	0.022983273
194	0x3d457ef6	0.048216783
195	0xbd8006f1	-0.06251324
196	0xbdc590ea	-0.09646781
197	0xbd7d919d	-0.061906446
198	0x3dc6245a	0.09674902
199	0x3ce636b4	0.028102256
200	0xbdc04276	-0.093876764
201	0xbcde38ae	-0.027126636
202	0xbde179ba	-0.110095456
203	0x3d6bf436	0.057605945
204	0xbd2444eb	-0.040104788
205	0xbd828e22	-0.06374766
206	0xbdaf48d5	-0.085588135
207	0xbd0b3388	-0.03398469
208	0xbd8c6272	-0.068547145
209	0x3cd5ca5a	0.026097465
210	0xbbb528ef	-0.0055285613
211	0x3d388601	0.04504967
212	0x3dffa6c4	0.1248298
213	0xbcc73335	-0.02431641
214	0xbdb3b52b	-0.087747894
215	0xbccbd9cb	-0.024884125
216	0xbdfa89e8	-0.12233335
217	0x3d42d8f3	0.04757018
218	0x3d142818	0.03617105
219	0x3d996a86	0.07491021
220	0x3d16d031	0.03681964
221	0x3d033d49	0.032040868
222	0x3ca4bfe0	0.020111024
223	0xbd4175ce	-0.047231488
224	0x3cb9d409	0.022684114
225	0xbbdb0628	-0.0066840835
226	0xbcaf1410	-0.021371871
227	0xbc126ac1	-0.008936585
228	0x3bf3b4b1	0.0074373116
229	0xbcc980bc	-0.024597518
230	0x3d26e07f	0.04074144
231	0x3c0c9709	0.008580931
232	0xbdb943d0	-0.09046137
233	0xbbf5773e	-0.0074910214
234	0x3d53dc6f	0.051723894
235	0x3dbdc547	0.09266143
236	0xbc9eb158	-0.019371673
237	0x3c9e12bf	0.019296048
238	0xbdcc59fa	-0.09978099
239	0xbc623ada	-0.013807977
240	0x3dbe946c	0.09305653
241	0x3d77ab41	0.060466055
242	0x3b574b2e	0.0032851207
243	0x3cb58e1b	0.022162488
244	0xbdc406ca	-0.095716074
245	0xbc3cfcaa	-0.011534849
246	0xbd5b45a0	-0.053533196
247	0xbd5b4b2f	-0.053538498
248	0xbbd6c7c5	-0.006554576
249	0x3bde969c	0.0067928564
250	0xbd928172	-0.07153596
251	0xbd033dc4	-0.032041326
252	0xbded7dc9	-0.11596257
253	0xbdb27070	-0.08712852
254	0x3cf900f1	0.030395957
255	0xbcb68520	-0.022280276

model.6.bias f4 [64]
0	0xbdabdc6d	-0.08391652
1	0x3e14250b	0.14467256
2	0x3c777c2a	0.015105287
3	0xbde7c6da	-0.11317225
4	0xbec528e5	-0.38507763
5	0x3ec8be70	0.39207792
6	0xbe49afea	-0.19696012
7	0xbaf98350	-0.0019036327
8	0xbdab388a	-0.08360393
9	0xbeb18657	-0.34672806
10	0xbea6f60b	-0.3260959
11	0xbe6c2eb5	-0.23064692
12	0x3d37004c	0.044678017
13	0xbe051215	-0.12995179
14	0xbe9af656	-0.30266064
15	0xbcf067d8	-0.029346392
16	0x3e583bad	0.21116515
17	0xbe7d8597	-0.24757992
18	0x3c93ff2d	0.018066013
19	0xbe6b20d2	-0.22961739
20	0xbec06bb6	-0.37582177
21	0xbe8a11e1	-0.26966766
22	0xbd47eea4	-0.04881157
23	0xbe3039b1	-0.17209508
24	0xbe1d3279	-0.15351285
25	0xbe930e67	-0.28721926
26	0xbcbec6db	-0.023288181
27	0x3d4e2bfe	0.050334923
28	0x3e8accca	0.27109367
29	0x3e0c1c7c	0.13682741
30	0xbcb57837	-0.02215205
31	0xbeab11fb	-0.33412156
32	0xbe91b02b	-0.28454718
33	0xbc8635fb	-0.016383162
34	0x3ce872ac	0.028374992
35	0x3d430988	0.04761651
36	0xbd325be0	-0.04354465
37	0xbd3de1a8	-0.04635778
38	0xbcaf89f8	-0.021428093
39	0xbd927bac	-0.07152495
40	0xbeb470a6	-0.35242194
41	0xbe8be3cf	-0.27322242
42	0x3e28841a	0.16456643
43	0x3e8d085e	0.27545446
44	0xbeb241c6	-0.34815806
45	0xbe02a970	-0.12759948
46	0x3dfd5054	0.12368837
47	0x3e91d2b1	0.28481057
48	0x3bd69f21	0.0065497314
49	0x3e2ec23e	0.17066285
50	0xbe876d6f	-0.2645068
51	0xbe153906	-0.14572534
52	0xbcf34d64	-0.029699989
53	0xbe9697d9	-0.29412726
54	0xbe951cce	-0.2912354
55	0xbe9f892e	-0.31159347
56	0xbe628dc8	-0.22124398
57	0xbe5d8d97	-0.21636043
58	0x3e06f161	0.13178016
59	0xbe229aa7	-0.15879308
60	0x3e0dcee8	0.1384846
61	0x3c5a953e	0.013341246
62	0xbdca13af	-0.098670356
63	0x3ea7c9ae	0.32771057

model.8.weight f4 [64, 64]
0	0x3e0dccac	0.13847607
1	0xbe3bde24	-0.18346459
2	0xbcd61050	-0.026130825
3	0x3d5a5ac2	0.05330921
4	0xbd87f269	-0.06638033
5	0xbdcdb041	-0.100433834
6	0xbd342dd0	-0.043989003
7	0x3e4c3e2d	0.19945593
8	0xbd4257d0	-0.047447026
9	0xbb3b97f9	-0.0028624518
10	0x3d7201e0	0.05908382
11	0xbcf003c7	-0.029298676
12	0xbc81fa59	-0.015866445
13	0x3e3f380c	0.18673724
14	0x3ca6c8f6	0.020359498
15	0x3bf8719b	0.007581902
16	0xbe50d463	-0.20393519
17	0x3e0488aa	0.12942758
18	0xbbd2daa1	-0.006434754
19	0xbca0d8c0	-0.019634604
20	0xbcb87937	-0.022518737
21	0xbd92ac0c	-0.071617216
22	0x3cede622	0.0290404
23	0xbd380f7a	-0.044936635
24	0x3d2375b8	0.039907187
25	0x3d3319cd	0.043725777
26	0x3d9f2674	0.07771006
27	0x3d87f902	0.06639291
28	0xbb42dc64	-0.0029733414
29	0xbd3fea7c	-0.04685448
30	0xbdf020ae	-0.11724983
31	0x3e017b12	0.12644604
32	0xbcb19e5f	-0.021681963
33	0xbdcf4c8a	-0.101220205
34	0xbd23b6b1	-0.03996915
35	0xbdfc4dc7	-0.12319522
36	0xbcb11a3a	-0.021618951
37	0xbd8c59e5	-0.068530835
38	0x3d4bcfc0	0.049758673
39	0x3e01e8ce	0.12686464
40	0xbd2347ef	-0.039863523
41	0x3d451d35	0.048123557
42	0x3caa16a6	0.020762753
43	0xbda91000	-0.08255005
44	0x3d0c3700	0.03423214
45	0x3d35cc7c	0.044384465
46	0xbc3946fb	-0.011308427
47	0xbc64183c	-0.013921794
48	0xbddc6fb2	-0.10763492
49	0xbcd2dc74	-0.025739886
50	0x3d8da61e	0.0691645
51	0x3d80b51c	0.06284544
52	0xbe202f4d	-0.15643044
53	0xbd036530	-0.03207892
54	0x3d65266b	0.05594484
55	0x3d97c8f1	0.074113734
56	0xbe1215da	-0.14266148
57	0x3da8332a	0.08212884
58	0x3dd22c7c	0.10262391
59	0x3d6579ce	0.056024365
60	0x3d48c302	0.0490141
61	0xbbb35def	-0.0054738442
62	0xbddfbb13	-0.109243535
63	0xbd41a182	-0.047273166
64	0x3e191827	0.1495062
65	0x3d1335b7	0.0359399
66	0x3bcf1a17	0.006320249
67	0xbd05d0a4	-0.03266968
68	0xbcd06555	-0.025438944
69	0xbe10312d	-0.14081259
70	0x3ceaf1dd	0.028679783
71	0xbd9fb7eb	-0.077987514
72	0x3dd83a47	0.105579905
73	0x3c85c917	0.016331239
74	0xbcfef42b	-0.031122288
75	0x3d5d84fe	0.05408191
76	0x3c5ec622	0.013597043
77	0x3df88c77	0.121361665
78	0x3dae60dd	0.08514569
79	0xbd28a355	-0.04117139
80	0xbda2787c	-0.07933137
81	0x3d23ff12	0.040038176
82	0xbcdd9f29	-0.027053433
83	0x3d4f08ee	0.050545625
84	0x3e04f391	0.12983538
85	0x3d98eaab	0.07466634
86	0x3d98ef42	0.0746751
87	0x3d441924	0.04787554
88	0x3d43f6fa	0.047842957
89	0x3dc6930b	0.09696015
90	0xbe12f1e9	-0.14350094
91	0xbc6e9231	-0.014561222
92	0xbd0a269b	-0.033728223
93	0xbe313738	-0.1730622
94	0x3bfa2b73	0.007634574
95	0xbdb45918	-0.08806056
96	0xbd9e67e4	-0.07734659
97	0x3e05324b	0.13007466
98	0x3b86dc05	0.004115584
99	0xbe0deb51	-0.13859297
100	0xbd660202	-0.05615426
101	0x3d8bd3fb	0.068275414
102	0x3c099f43	0.008399787
103	0x3ddca3e9	0.10773451
104	0xbd6a0672	-0.057135053
105	0x3d991192	0.074740544
106	0x3c172821	0.009225876
107	0xbdb2de32	-0.08733787
108	0x3d7389ca	0.059457578
109	0x3c9f5ac7	0.019452466
110	0xbd17e605	-0.037084598
111	0xbd01ce8e	-0.031691127
112	0xbdc680a2	-0.096925035
113	0xbd087f0f	-0.033324298
114	0x3db56264	0.08856657
115	0x3cd1e6a1	0.025622668
116	0xbd711ae6	-0.058863543
117	0x3d95e2c1	0.073186405
118	0x3dbc7880	0.09202671
119	0x3dfcf3e3	0.12351205
120	0xbd17904f	-0.037002858
121	0xbd885940	-0.06657648
122	0x3e16fb24	0.1474424
123	0x3d541e6c	0.051786825
124	0x3d51207a	0.051056363
125	0xbdcc52b0	-0.09976709
126	0xbd8613fd	-0.06546781
127	0x3d1032b0	0.03520459
128	0x3e1ddf7d	0.15417285
129	0xbe13b201	-0.14423372
130	0x3d08a853	0.03336365
131	0x3d900b35	0.070333876
132	0x3d41a812	0.047279425
133	0xbe2cfab3	-0.16892509
134	0xbde4cf5f	-0.111723654
135	0x3e038d49	0.12846865
136	0xbbaa380f	-0.005194671
137	0xbcb8d121	-0.022560658
138	0xbdbadf75	-0.09124652
139	0x3de66b45	0.11250929
140	0xbd6fdcdf	-0.05856025
141	0x3da9a64c	0.08283672
142	0x3c435d55	0.011924108
143	0x3d0aecc5	0.033917207
144	0xbe3dd9a8	-0.1854006
145	0xbc3aa6c3	-0.011392298
146	0xbd01fea5	-0.03173699
147	0xbd0a43ec	-0.03375618
148	0xbd638a32	-0.055551715
149	0x3e09547b	0.13411133
150	0xbe2601c0	-0.16211605
151	0x3e14325b	0.14472334
152	0x3d4fbc74	0.050716832
153	0xbd235157	-0.039872494
154	0xbe2f945d	-0.1714644
155	0xbcf23cf4	-0.02957008
156	0x3cb67b18	0.022275493
157	0xbdee8e35	-0.116482176
158	0xbd9308b8	-0.07179397
159	0xbc16fe62	-0.009215923
160	0x3da107e5	0.07862834
161	0x3db0a918	0.08626002
162	0x3d5616ac	0.052267715
163	0x3cb51e4f	0.022109179
164	0x3d9fb929	0.07798988
165	0xbd98fc1b	-0.0746996
166	0x3d8c219c	0.06842348
167	0x3d54a1b7	0.051912036
168	0x3d105c2a	0.035244144
169	0x3ccc4624	0.02493579
170	0x3deb29ac	0.11482558
171	0xbd06fd01	-0.032956127
172	0x3d31f7d2	0.04344923
173	0xbad31559	-0.0016104385
174	0xbbf29185	-0.007402601
175	0x3d2a306e	0.041550092
176	0xbca0171b	-0.019542268
177	0x3d95641a	0.072944835
178	0xbdd0bb20	-0.10191941
179	0x3d3353c5	0.04378106
180	0xbd8b4e74	-0.06802073
181	0x3de6b33a	0.112646535
182	0xbca6db5b	-0.020368269
183	0x3d193395	0.037402708
184	0x3dd7efc0	0.105437756
185	0x3e0be760	0.13662481
186	0x3d308f5e	0.043105476
187	0xbbfe2e1e	-0.0077569624
188	0x3d4c3b8b	0.049861472
189	0x3d80b96e	0.06285368
190	0xbda22c6b	-0.07918628
191	0xbccd9454	-0.025095142
192	0x3e0f6e56	0.14006934
193	0xbe015959	-0.1263174
194	0x3d2944d5	0.04132541
195	0x3d435a4a	0.04769353
196	0x3d3ce9d8	0.04612145
197	0xbe1cb611	-0.15303828
198	0xbbfc94b0	-0.0077081546
199	0x3b03b149	0.0020094684
200	0x3dd9cbda	0.10634585
201	0x3e04503c	0.12921232
202	0x3df50a46	0.1196485
203	0x3e1765fd	0.14784999
204	0xbcfca70c	-0.030841373
205	0x3bdea394	0.0067944024
206	0xbd104611	-0.03522307
207	0xbd972e13	-0.07381835
208	0xbddf86e0	-0.10914397
209	0xbc3eb3c4	-0.011639539
210	0xbd88ae26	-0.06673841
211	0x3bad7ba4	0.00529428
212	0x3c041982	0.008062722
213	0xbabf7839	-0.0014607973
214	0xbe12a447	-0.1432048
215	0xbd5c9b51	-0.05385906
216	0xbceb727d	-0.028741116
217	0x3d9c3a74	0.076283365
218	0x3c8e9205	0.017403612
219	0xbd790d31	-0.060803596
220	0xbdb2043b	-0.08692213
221	0xbd0f3482	-0.034962185
222	0x3e0a77c2	0.13522246
223	0x3ddf2d82	0.10897352
224	0xbd09809d	-0.03356992
225	0xbdd16fde	-0.10226415
226	0xbcd6ecfc	-0.02623605
227	0xbd88d045	-0.06680349
228	0xbd888976	-0.066668436
229	0x3e01ff5e	0.12695071
230	0xbd2be62a	-0.04196755
231	0x3db6a28f	0.08917724
232	0x3c95b873	0.018276429
233	0x3be38ba7	0.006944138
234	0x3dc357b4	0.095382124
235	0xbd4f00cb	-0.050537866
236	0xbcbd6d27	-0.023123337
237	0x3d40d78a	0.047080554
238	0xbbfd40ed	-0.007728687
239	0x3d3859f1	0.04500765
240	0xbbb5e09f	-0.0055504586
241	0x3dee3a40	0.11632204
242	0xbccdaa25	-0.025105545
243	0x3dc748db	0.09730693
244	0xbd7223f3	-0.059116315
245	0xbc88dbf5	-0.016706446
246	0xbd7610a3	-0.06007446
247	0x3d95e678	0.07319349
248	0xbb0c85b8	-0.0021442007
249	0xbce670f6	-0.028130036
250	0xbd538117	-0.05163678
251	0x3c9c0f02	0.019050125
252	0xbdafc023	-0.08581569
253	0x3c958c8d	0.018255496
254	0xbd7dcdf4	-0.06196399
255	0xbddb54b0	-0.10709512

model.8.bias f4 [64]
0	0x3c8481ea	0.01617523
1	0xbeb53ea1	-0.35399345
2	0xbde8a78e	-0.113600835
3	0xbeab70de	-0.33484548
4	0xbe92647c	-0.28592288
5	0x3e63e3a7	0.22254811
6	0x3db8f1f2	0.090305224
7	0xbe9908d5	-0.2988955
8	0xbe69f718	-0.22848165
9	0xbdc3dfe0	-0.09564185
10	0xbe119337	-0.14216314
11	0xbeabfe76	-0.33592576
12	0x3e27d297	0.16388927
13	0x3e1a8a32	0.1509178
14	0x3d49e7da	0.049293377
15	0x3cf6274f	0.03004804
16	0xbe7afbe8	-0.24510157
17	0xbd3c9378	-0.046039075
18	0xbc9958e2	-0.01871914
19	0x3ed31189	0.41224316
20	0xbe5ddc8e	-0.21666166
21	0xbead7dea	-0.33885127
22	0xbecdf2ae	-0.40224212
23	0xbec81bb3	-0.39083633
24	0xbe270b9b	-0.16313021
25	0xbe59219b	-0.21204226
26	0x3d29f5ca	0.04149417
27	0x3e3c4886	0.1838704
28	0xbe49e82d	-0.19717474
29	0xbedf1e15	-0.43577638
30	0xbec94ea5	-0.39317814
31	0xbe371f8b	-0.17883126
32	0xbd7cb571	-0.061696474
33	0xbeb93c4f	-0.36178824
34	0x3e062d9b	0.13103335
35	0xbe79b214	-0.24384338
36	0xbcf83bcb	-0.030301949
37	0xbd69c584	-0.05707313
38	0xbd06e1dc	-0.03293024
39	0x3d8d0ba2	0.068869844
40	0x3e2a45be	0.16628167
41	0x3c46eaf1	0.012140975
42	0x3e70fc33	0.23533706
43	0x3d4ea0d4	0.050446346
44	0xbe40a94c	-0.18814582
45	0x3e073a0e	0.1320574
46	0x3e22f196	0.1591247
47	0x3e3b7533	0.18306427
48	0x3b495fb6	0.0030727214
49	0x3db43e7f	0.08800983
50	0xbebc7a8b	-0.36812243
51	0x3ca4c647	0.020114077
52	0xbe53f77f	-0.20699881
53	0xbec09eaa	-0.3762105
54	0xbe635d7f	-0.22203635
55	0xbe94c512	-0.29056603
56	0x3d02fa68	0.031977087
57	0xbdd52d3f	-0.10409021
58	0xbeaeedf1	-0.3416591
59	0xbe114619	-0.14186896
60	0xbe7e629e	-0.24842307
61	0xbe5cfe5e	-0.21581408
62	0xbeb439bc	-0.35200298
63	0x3dcc3aa9	0.09972126

model.11.weight f4 [32, 64]
0	0x3c28246f	0.010262593
1	0x3d222e23	0.03959478
2	0x3c8320f9	0.016006934
3	0x3da3c8c6	0.07997279
4	0x3ddbd71a	0.10734387
5	0xbd7ff677	-0.062490907
6	0x3d11d2b2	0.035601325
7	0x3d1a1922	0.037621625
8	0xbd31b204	-0.04338266
9	0xbe710003	-0.2353516
10	0x3c81e2a9	0.01585515
11	0xbd9088e3	-0.07057359
12	0xbd6c1265	-0.05763473
13	0xbd923b80	-0.07140255
14	0xbcf7ffa0	-0.030273259
15	0x3d23efa4	0.04002346
16	0x3de0330f	0.10947239
17	0x3d39f7da	0.045402385
18	0xbd971c90	-0.07378495
19	0x3d1ac8c7	0.037789132
20	0xbc186b27	-0.009302891
21	0xbd25231c	-0.040316686
22	0xbe0667f3	-0.13125591
23	0x3d1d560d	0.038412143
24	0x3cd158b9	0.025555002
25	0x3d208c8a	0.03919653
26	0x3cea8375	0.028627137
27	0xbdad1304	-0.084508926
28	0xbe3226e3	-0.17397647
29	0x3c3e982b	0.011632959
30	0x3d131911	0.035912577
31	0xbb6cb945	-0.0036121171
32	0xbd5ca652	-0.053869553
33	0x3ca7ef65	0.020499894
34	0x3c296215	0.010338326
35	0xbd8fc900	-0.070207596
36	0x3e29e553	0.16591386
37	0x3c0be601	0.008538724
38	0xbe4f651c	-0.20253414
39	0xbbec94bc	-0.007219879
40	0xbcb07e19	-0.021544503
41	0x3cc0646b	0.023485383
42	0xba114426	-0.0005541466
43	0x3ccccf90	0.025001317
44	0xbd5cc3e7	-0.053897765
45	0xbdb3e658	-0.08784169
46	0xbe402354	-0.18763477
47	0xbcd2eff2	-0.02574918
48	0xbdc42591	-0.09577478
49	0x3e32693e	0.17422959
50	0x3e0a96f3	0.13534145
51	0xbe40ac86	-0.18815812
52	0xbdd0ca37	-0.101948194
53	0xbd7011b4	-0.058610633
54	0xbdaca580	-0.08430004
55	0x3c1c2660	0.009530634
56	0x3cfd0540	0.030886292
57	0xbd745ea1	-0.059660558
58	0x3dcabdbd	0.09899471
59	0xbce5dddb	-0.02805989
60	0xbd5e5464	-0.0542797
61	0xbdf1a815	-0.11799637
62	0xbdba34c1	-0.09092093
63	0x3dd7e2ff	0.10541343
64	0xbce2e137	-0.027695281
65	0x3e08fc9e	0.13377616
66	0xbdb212b8	-0.086949766
67	0xbbd1ff8b	-0.006408637
68	0x3d8e5f58	0.06951779
69	0xbe26431c	-0.16236538
70	0x3dc7c05f	0.09753489
71	0xbc8d56a5	-0.01725323
72	0x3d4f3b7a	0.05059383
73	0xbdae9de8	-0.08526212
74	0x3d974fc7	0.07388263
75	0x3c42740c	0.011868488
76	0x3d58370f	0.052786883
77	0x3d7e58cd	0.062096406
78	0xbcf82eb7	-0.030295713
79	0x3c1e8e21	0.009677441
80	0xbdd95df6	-0.10613625
81	0x3daf1709	0.085493155
82	0x3de355d7	0.11100357
83	0xbd3151c5	-0.043290872
84	0xbdd8391c	-0.10557768
85	0x3ce10e61	0.027472677
86	0x3d86fe5f	0.06591486
87	0x3dd9ed53	0.10640969
88	0x3df40c98	0.119164646
89	0xbd0927cc	-0.03348522
90	0x3d60c4c0	0.054875135
91	0xbdc1dde2	-0.09466149
92	0x3d9e0a9d	0.07716868
93	0xbdd483f0	-0.103767276
94	0x3d99047e	0.0747156
95	0x3d7b3e8d	0.06133895
96	0x3d1f7f5a	0.03893981
97	0x3de19ad8	0.11015862
98	0xbcaf7b9c	-0.021421246
99	0xbd93762d	-0.072002746
100	0xbbcfd605	-0.006342652
101	0xbd7ec064	-0.062195197
102	0x3dca9f69	0.09893686
103	0x3dc67ab1	0.0969137
104	0xbdfb5805	-0.12272648
105	0x3d1da9d7	0.03849205
106	0x3bd0fc54	0.006377736
107	0x3ccf281c	0.02528768
108	0xbd17e877	-0.03708693
109	0xbcf7b76f	-0.030238835
110	0x3c897d64	0.016783424
111	0xbde8dcea	-0.11370261
112	0xbd97fa58	-0.07420796
113	0x3c9ea8f5	0.019367674
114	0x3e0c46f0	0.13698936
115	0xbe00a53c	-0.12563032
116	0xbd66e633	-0.05637188
117	0xbd13b4bd	-0.036061037
118	0x3e07b4a8	0.13252509
119	0x3ddf7d7e	0.109126076
120	0x3da6ad49	0.0813852
121	0xbdc69b3e	-0.09697579
122	0x3c95e874	0.018299319
123	0x3c5b3abd	0.0133807035
124	0x3b8fd28e	0.0043891137
125	0x3df69a90	0.12041199
126	0xbd848728	-0.064710915
127	0xbe42a2b0	-0.19007373
128	0xbd069aa8	-0.032862335
129	0xbc3db2cd	-0.011578274
130	0x3daf2b51	0.08553184
131	0x3dc4a2f6	0.09601395
132	0xbddde540	-0.108347416
133	0x3ddbc34c	0.10730609
134	0xbdcd0864	-0.10011366
135	0x3daf01ea	0.08545287
136	0x398078bf	0.00024504025
137	0xbd7fbb7c	-0.06243466
138	0x3d8ebb76	0.06969349
139	0x3dab2e2a	0.083584145
140	0x3d8f38ac	0.06993231
141	0xbd31434b	-0.043277066
142	0x3d235cad	0.039883304
143	0x3da07c5b	0.07836219
144	0xbcbaec9d	-0.022817904
145	0xbd9dc311	-0.077032216
146	0xbcdb39a8	-0.026760891
147	0x3df6d8ac	0.12053046
148	0xbe25602a	-0.16149965
149	0xbd9fe389	-0.07807071
150	0x3b03a167	0.0020085217
151	0xbe0010ab	-0.12506358
152	0xbd226363	-0.039645564
153	0x3d816831	0.06318701
154	0xbd7d6f93	-0.061873984
155	0x3df3b6ee	0.119001254
156	0x3d8b723b	0.06808897
157	0xbd477c09	-0.048702274
158	0xbc68ad49	-0.014201471
159	0xbcee47e7	-0.02908702
160	0x3d075d0e	0.03304773
161	0xbdda2847	-0.106522135
162	0xbda0cd22	-0.07851626
163	0x3cbffaec	0.023435079
164	0xbca30d14	-0.019903697
165	0x3d755dc0	0.05990386
166	0xbdd9c263	-0.106327794
167	0xbd03a105	-0.032135982
168	0x3d11d5c3	0.03560425
169	0xbd57bcdf	-0.052670356
170	0xbde0a09e	-0.10968135
171	0xbd255675	-0.040365655
172	0x3b396fa1	0.0028295296
173	0x3d88b8ad	0.06675849
174	0x3de7a89e	0.11311458
175	0xbd79b161	-0.060960177
176	0x3d99b65b	0.07505485
177	0xbdda13fc	-0.10648343
178	0xbccc5a4a	-0.024945397
179	0xbdc431f3	-0.095798396
180	0x3c49e345	0.012322252
181	0xbde0a5c5	-0.10969118
182	0x3d05b2d7	0.032641258
183	0x3d411192	0.047135897
184	0xbde64360	-0.112433195
185	0xbe0196f6	-0.12655243
186	0xbdc0091c	-0.093767375
187	0xbe1dc10e	-0.15405676
188	0xbe06c249	-0.13160051
189	0xbe3c5ccc	-0.18394774
190	0x3dc40b2f	0.095724456
191	0x3d5bc83a	0.053657748
192	0x3dd318f7	0.10307496
193	0x3dcb4594	0.0992538
194	0xbd626e34	-0.05528088
195	0xbd7f1341	-0.06227422
196	0x3d8c9726	0.06864767
197	0x3e09df45	0.13464077
198	0x3bcef8c2	0.0063162753
199	0x3b312967	0.0027032734
200	0x3b215e75	0.0024622951
201	0x3c86e4b1	0.01646647
202	0xbcbe1616	-0.02320389
203	0x3d49db4e	0.04928141
204	0xbc959781	-0.01826072
205	0xbdc8b872	-0.09800805
206	0x3dc16a81	0.09444142
207	0xbdbb2db0	-0.091395736
208	0x3d3da3ab	0.046298664
209	0x3df3da07	0.1190682
210	0x3d8298f5	0.063768305
211	0x3c82d827	0.01597221
212	0xbc979458	-0.018503353
213	0xbdc496a6	-0.095990464
214	0x3c4d831b	0.012543465
215	0xbd8a2060	-0.06744456
216	0x3c346921	0.011011393
217	0x3dc0e85d	0.0941932
218	0xbdcb006e	-0.09912191
219	0xbd246b39	-0.040141318
220	0x3dc0d661	0.094158895
221	0xbdbb84fa	-0.09156223
222	0xbda878ca	-0.08226164
223	0x3dc438e9	0.09581167
224	0xbe1730bf	-0.14764689
225	0x3deadc1c	0.11467764
226	0xbde51296	-0.111851856
227	0xbca1471d	-0.01968723
228	0x3d67fca6	0.05663743
229	0x3cd5ad2c	0.026083551
230	0x3d5b93aa	0.05360762
231	0x3d46dc3e	0.048549883
232	0x3d010ffd	0.03150939
233	0xbc0515b0	-0.0081228465
234	0x3d475b8b	0.048671287
235	0xbda91f9f	-0.08257984
236	0xbdbd9f28	-0.09258872
237	0x3ddcf482	0.10788824
238	0x3bb078f8	0.0053855143
239	0xbdecfd4d	-0.11571751
240	0x3d5ae18c	0.053437755
241	0x3d8486b5	0.06471006
242	0x3d8ef2d1	0.06979907
243	0xbbf6a974	-0.0075275246
244	0xbd99ec30	-0.07515752
245	0x3debefa1	0.11520315
246	0x3c467a1f	0.012114077
247	0x3dfcb468	0.12339097
248	0xbca066fc	-0.019580357
249	0x3df8b2f9	0.12143511
250	0xbd7dba58	-0.06194529
251	0x3d936bcb	0.07198294
252	0xbd83c7cc	-0.064345926
253	0xbd8914bb	-0.06693407
254	0xbdb40585	-0.08790115
255	0xbe155220	-0.1458211

model.11.bias f4 [32]
0	0x3e0fbd87	0.14037143
1	0xbe50eaf0	-0.20402122
2	0xbbb02c52	-0.005376377
3	0xbe85e9f3	-0.26155052
4	0xbe6d1ffc	-0.23156732
5	0xbdd49ccf	-0.10381471
6	0xbe8da5af	-0.2766547
7	0xbe01d06c	-0.12677163
8	0xbeae6a8c	-0.34065664
9	0xbdaf6bbb	-0.0856547
10	0xbdea2606	-0.11433034
11	0x3df6bb01	0.12047387
12	0xbdf1ab06	-0.11800198
13	0x3da29744	0.07939008
14	0x3e88543a	0.2662676
15	0x3c9cd538	0.01914464
16	0x3e7ca610	0.24672723
17	0x3cd5e9af	0.026112406
18	0xbc8e7e4c	-0.017394207
19	0xbeab4168	-0.33448339
20	0xbd93ce29	-0.07217056
21	0xbe09c914	-0.13455611
22	0x3c0e8094	0.008697648
23	0x3dbe7ecf	0.093015306
24	0x3e800c0a	0.25009185
25	0xbdbeac6f	-0.09310233
26	0x3d49eb6d	0.049296785
27	0xbe3335d7	-0.17501007
28	0xbe320cf1	-0.17387749
29	0xbdcf0539	-0.10108418
30	0xbe7f64a2	-0.24940732
31	0xbe4de0bf	-0.20105265
