results/Weights/model1_smotetraining.pth (torch, 149502 bytes, 17 tensors)

model.0.weight f4 [128, 21]
00000000: 3104 523e c6be 4abd 624d 383d fcde 4abc
00000010: 815c 723d ef3b adbd 3843 71bd 4205 d33c
00000020: b3f6 eabd 2311 bebd aab4 5ebe 5f85 483e
00000030: cc89 42bd 5cce 2cbe 3b6a 983c 8c2d 4abd
00000040: a795 493e dc55 d4bb f9c7 3ebd 8520 26be
00000050: 13bb 39be 6f37 913d 7de9 3d3d 30a4 193d
00000060: 1568 353c 2678 90bb b9b1 fdbe e7e0 94be
00000070: 634a 0a3e 59ab 353b 1a7b 313d 78f3 68be
00000080: 02fb 03be 40f9 99be 9e42 bb3d a460 10bf
00000090: 9e2a 6fbe 77a1 f5be 87ce 523d a4d2 e03c
000000a0: afa0 083e 7d81 df3d 79f6 5c3e 2661 ac3e
000000b0: b9de 80bd 7d52 5c3d e97d 3fbd b551 e03d
000000c0: 92f6 7d3e 139b 03bd 835d 773d 69bd 2ebe
000000d0: 8906 6fbe da98 923d 043e eabd e4f0 353e
000000e0: 86d7 29bc 02e8 7ebc eac3 ba3e 4751 d6bd
000000f0: 3b6b fcbd cfd2 b83d 471d d9bd a5dc 39bd
00000100: 9dbe 853d fbc9 8f3e 6e00 c9bc 009e f23c
00000110: efc6 683d 1ce9 413d 2b1a 893d ac3a 65bd
00000120: 2730 26be 1cee e53e cf5d eebd 2b2b 0b3e
00000130: dcc3 8fbe a220 393b 7a16 8e3b 0cdd b4bd
00000140: a05e d83c 996e 6e3d 1f94 4c3e 2bdf 0dbe
00000150: 6227 613e c8ca c83d f59a b0bd 8c30 833d
00000160: 6053 16bb 56d6 923d 89da ba3e 5fb1 273d
00000170: 1449 983d 2251 21bd d710 64be 1414 28be
00000180: c52d 0dbf 8d21 433d f6c1 00bf e2e0 ad3a
00000190: 50af 0d3e 3b07 3c3e ace9 f3bd d3fa 88bd
000001a0: 17fd a7bc 2046 c1bd 0836 61bd cb7f 18bf
000001b0: 460d 753c 02dd b2bd e086 e63e c19e 62be
000001c0: 1fca 10bc da54 1cbe 4e44 0c3d 2dde cb3e
000001d0: f5af 22be 69d4 553d 2cad 23be aa24 9e3b
000001e0: 5e9f b23b 69af 03be 9ac6 9fbd 129c 323d
000001f0: d59f 893c e21c 7dbc b7fa 7c3c 5e05 b3bd
00000200: 0568 d7be 4a30 0dbb 315d b1be bddc 94be
00000210: b559 2d3e 1087 003d 8972 b3bc c392 96be
00000220: f648 f83e cdc5 aa3e 50c3 6d3e 6643 3abe
00000230: 5576 1d3c 55f1 353c d006 0b3d 7386 42bd
00000240: 98ab 45bd 918d 4f3d 4f3b 183d d07a a8bd
00000250: a8bf 4a3e 18be e73b 4266 bdbc da07 96be
00000260: 7693 343d 4d78 9a3e d028 1f3e 00a0 b7bd
00000270: cd15 383e 1ec0 1c3e 2b46 69bd b1ce 443d
00000280: d586 bcbe f165 36ba e9a7 a13c 0a6b 073c
00000290: d078 35be 8aa2 1bbc 2c04 313d b911 eb3d
000002a0: f3fe b9bc 692c 4dbe da55 04bd 4720 3cbe
000002b0: e1ef 39bc 64bc eb3d a89c 35be eeaf 1b3e
000002c0: ebed b43d fa7c f3bd 9d36 133e 5b2e 50be
000002d0: dd02 71bd 8111 51be 073b 5dbc dd6b 123e
000002e0: d674 3dbd 2f17 043d ba85 253c 2a98 55be
000002f0: f043 2abe b845 71bd e093 58be d34d 8d3d
00000300: 09c0 3d3c e0f9 0e3e 0eba 09be 5081 5dbe
00000310: e1e0 51be b495 ddbd 8fd8 66be 8303 6d3d
00000320: 000c c13d ad08 96bd 2f1e 17be 2d56 c23c
00000330: 9964 b53d 1491 45be c6a8 9e3e cd7e 9cbe
00000340: f03f 393e 59fb 473d f19b 76be 73f9 1ebf
00000350: 99bd 613e ef96 46be 3b29 293e 8aac b13e
00000360: 7222 133e 61d9 943e 0b03 343d 06dd 333e
00000370: cbb8 dc3e 2fbe 9dbd 4193 efbe 5dd6 4abd
00000380: d492 143d 7d9b 1c3e 1620 d7bc 6a26 adbe
00000390: dc2a 313b 13a0 5bbb 23d5 35bd 6714 563b
000003a0: 0737 02bc 1427 d13e 4ea5 893b 25e9 2c3e
000003b0: c422 1b3f 564a acbe 3da9 57be 45d7 9c3e
000003c0: cd25 c33d e852 b53e 72dc e0bc fb87 873a
000003d0: cf60 033d bd27 243d fcea 2bbd 9a2c cdbe
000003e0: 7174 a53e 86b3 e9bd 8cd1 133d bb22 aabd
000003f0: 0c98 883e 0748 c13e 79dd 613d b20b dc3d
0.20509411 -0.049498342 0.044995673 -0.012382265 0.05917025 -0.08458697 -0.058901995 0.025759343
-0.114728354 -0.09280612 -0.21748605 0.19582127 -0.047494695 -0.16875595 0.018605342 -0.049359843
0.19685994 -0.006479962 -0.046577428 -0.16223343 -0.1813777 0.07090651 0.04636525 0.037510097
0.011072178 -0.004408854 -0.49549654 -0.29077837 0.13504939 0.002772054 0.04333029 -0.22749126
-0.1288872 -0.30072975 0.091435656 -0.5639746 -0.23356101 -0.4797475 0.05146649 0.027444191
0.13342546 0.1091337 0.21578397 0.33667868 -0.06292481 0.053789604 -0.046750937 0.109530844
0.2480109 -0.032130312 0.060391914 -0.17064442 -0.23342337 0.0715806 -0.1143761 0.17767674
-0.010366326 -0.015558245 0.36477596 -0.10464721 -0.1232514 0.090245835 -0.10601287 -0.04537644
0.06530497 0.28083786 -0.024536338 0.029616356 0.056830343 0.04734145 0.06694444 -0.055964157
-0.16229306 0.44908226 -0.11638986 0.13590686 -0.28079116 0.002824821 0.0043361755 -0.08831224
0.026412308 0.058210943 0.19978379 -0.13854663 0.2198768 0.098043025 -0.08623306 0.06405744
-0.002293788 0.071697876 0.36494854 0.04094064 0.074358135 -0.039384015 -0.22272049 -0.16413909
-0.55147964 0.04763942 -0.5029596 0.0013265873 0.13836408 0.18362133 -0.11909804 -0.06688466
-0.020506425 -0.094372034 -0.05498317 -0.59569997 0.014956778 -0.0873356 0.45024776 -0.22130872
-0.008837252 -0.15266743 0.034244828 0.39817944 -0.15887435 0.052204523 -0.15984029 0.004826148
0.005451127 -0.12859882 -0.07801552 0.04360587 0.016799847 -0.015448781 0.015440634 -0.08741258
-0.42071548 -0.0021543675 -0.34641412 -0.2907466 0.16928752 0.031378806 -0.0219052 -0.29408845
0.48493165 0.33354035 0.23219037 -0.18189773 0.009610732 0.011104901 0.033942044 -0.047491502
-0.048259348 0.050672118 0.037165936 -0.082265496 0.19799674 0.0070722215 -0.02312005 -0.29302865
0.044085942 0.30169907 0.15542912 -0.089660645 0.17977066 0.15307662 -0.056951683 0.04804868
-0.3682162 -0.00069579395 0.019733386 0.008265266 -0.17721868 -0.009499202 0.04321687 0.1147799
-0.022704577 -0.20036472 -0.032308437 -0.18371688 -0.0113486955 0.11510542 -0.17735541 0.1520383
0.08834442 -0.11889072 0.14376302 -0.20330183 -0.05884062 -0.20416833 -0.013502843 0.14298959
-0.046254 0.032248672 0.010102684 -0.20858827 -0.16627479 -0.05890438 -0.2115016 0.068996094
0.011581429 0.13962507 -0.1344988 -0.2163136 -0.2049594 -0.10819569 -0.22543548 0.057864677
0.09426117 -0.073258735 -0.14757608 0.023722732 0.08857078 -0.19293624 0.3098814 -0.3056549
0.18090796 0.04882369 -0.24082924 -0.6209938 0.22044982 -0.19393514 0.16519634 0.3470195
0.14368609 0.29072097 0.043948215 0.17564783 0.43109736 -0.0770229 -0.46792033 -0.04952084
0.03627284 0.15293689 -0.026260417 -0.3381837 0.0027033603 -0.003351216 -0.044392716 0.003266597
-0.00794769 0.40850127 0.004200614 0.16885813 0.60599923 -0.33650464 -0.21060653 0.30632988
0.09528694 0.35414815 -0.027448867 0.0010340208 0.032074746 0.04007696 -0.041972145 -0.4007309
0.323154 -0.114111945 0.03608851 -0.083074056 0.26678503 0.37750265 0.055142853 0.10744418

model.0.bias f4 [128]
00000000: bfc6 0abb eee3 c3be 0845 17bf d2a0 bb3e
00000010: 7cdb 1dbe be86 cd3e 01d3 fc3e a19f 9b3e
00000020: b649 523d bbf1 f9bd 81b1 edbc 8610 343e
00000030: cb69 bdbe 517d 04bf cb10 973d 9545 853e
00000040: f149 d8bd e14a 4abe a2cc 9b3d 723c 83be
00000050: 5557 043f 039a c93e 4a15 dfbe 9f52 5e3d
00000060: 88a8 573e 2069 943e c475 ea3d b1e3 b0bd
00000070: 083c 7abd dd24 d93e c923 6cbd bd52 013e
00000080: 1ccf e6be 2786 c6bd 0f9b f53d 4086 22be
00000090: 3ce8 48be b6c3 4d3e 1f01 dc3e 62dc 20bd
000000a0: cee9 91be c621 d1be a08b 7b3d 1060 1cbe
000000b0: 88c8 453d 40b4 823c 7f47 0abe c532 c23e
000000c0: e6da e2be 4938 3b3d 5317 2ebe f9ea 3ebe
000000d0: 276f eebe ecde a43e 6cec 1e3e 14fa e2ba
000000e0: 9ecc ef3d 833a 62be f1d8 10bf 364d 5fbd
000000f0: 7ac6 1b3e 6740 dc3e d8a5 753e 49cc 20bf
00000100: 2dc6 1b3f e46e a9bd 02ee 0cbe 48a2 01bf
00000110: d0d9 00bd 7b39 39be c267 7c3e ea51 293c
00000120: aa3a b9be e8b2 21be a672 b03d 5bb2 d93d
00000130: 0679 96be 750a a4be 87fa 613e 8b48 afbe
00000140: e1bf ab3e aea2 7ebe 0ec8 46be f422 21bf
00000150: 0bd2 04bf b5d9 c2be 80ec f2be 5b8c 0dbf
00000160: 87d6 62bd da82 973e 918c 09bf ad74 acbe
00000170: 545a 77bd 0a48 ec3e a74b d2bd 1b67 2d3e
00000180: 7bb0 64bd b74e d0bd e13a 84be fe65 9abe
00000190: b26a 0bbf cfa4 093e cba3 b4be 2857 51be
000001a0: c12f bd3e 58f4 37be 5dce 5ebe 8e1c d7be
000001b0: 23c8 0d3f 1dab 90bd 8e9e c43d e434 a33e
000001c0: 8ba0 d93d 549b d43e adac c7be 422a 9fbd
000001d0: aac6 a53e b3fb a83d 194f d53e e83c 383e
000001e0: 9c9e 783e 5815 ab3e 3e49 debe 83bf 683e
000001f0: 33d0 793e da72 9dbd e312 47be 7c7d 813d
-0.002117559 -0.38259834 -0.5908971 0.36646134 -0.15415758 0.40141863 0.49379733 0.30395225
0.051339827 -0.122043096 -0.029015305 0.17584428 -0.36994776 -0.5175372 0.0737625 0.2602965
-0.10560978 -0.19755127 0.0760739 -0.25632054 0.5169576 0.39375314 -0.4357093 0.054278012
0.21060383 0.28986454 0.11448243 -0.08637179 -0.061092407 0.42410937 -0.057651315 0.12629218
-0.45079887 -0.09693556 0.11992466 -0.15871525 -0.1961984 0.20094189 0.42969605 -0.039272673
-0.2849869 -0.4084608 0.061412454 -0.1527102 0.048286945 0.01595509 -0.13503836 0.3792936
-0.4430763 0.045707975 -0.17001085 -0.18644322 -0.46569178 0.32201326 0.15519875 -0.0017316961
0.117089495 -0.22092633 -0.56581026 -0.054516993 0.15212432 0.43017885 0.23989046 -0.62811714
0.6084927 -0.08273104 -0.13762668 -0.50638247 -0.031457722 -0.18088333 0.24648955 0.010334471
-0.3617757 -0.15790904 0.086156175 0.10629722 -0.2938921 -0.32039228 0.22068225 -0.34235033
0.3354483 -0.24866745 -0.19412252 -0.6294396 -0.51883 -0.38056722 -0.4744606 -0.5529229
-0.05538037 0.2959202 -0.5373011 -0.33682767 -0.060388878 0.4614871 -0.10268336 0.16933863
-0.055832367 -0.10171264 -0.2582617 -0.3015594 -0.5445968 0.13441776 -0.35281214 -0.20443404
0.36950496 -0.17964303 -0.21758409 -0.42013973 0.5538351 -0.07063887 0.096005544 0.3187629
0.10626324 0.41524756 -0.3899893 -0.07771732 0.3237813 0.08251133 0.4166191 0.17991984
0.24279255 0.3341472 -0.43415254 0.22729306 0.24395828 -0.07687922 -0.19440798 0.06322762

model.3.weight f4 [128, 128]
00000000: 78bc 523d 4083 1fbb 2b1f f23c 4d38 643d
00000010: f3ba 063d b7b5 a53c abf5 ef3d 2da3 f9bc
00000020: 5658 ab3d 99c1 21bc e5fb 393d f1ff ca3c
00000030: 6dd7 08bb 15a1 41bd 13f8 353e 4530 ab3a
00000040: c685 8abd 216d 053d a0d1 edbb 301f 32bc
00000050: 1794 bbbd 7646 e43d b0ca ebbb 5845 a3bd
00000060: a547 963e fb5b ccbd 5033 b63d 3b26 2abd
00000070: b487 e9bd d08e 173d 192f 5dbd 5774 2cbe
00000080: 5ae7 0dbd 09a5 043d cbd8 363d 7969 4fbb
00000090: 2bb6 a5bd 9cb4 d93d 17ef 25bd c4ea 1c3d
000000a0: b499 fabc 008f b7bc 372c 053e a9ac 173b
000000b0: 6776 bb3d 97c5 0d3d 3ff4 963c 2e36 a2bd
000000c0: 2bd9 163c c4ff f7bd 849a 2fbd 4b8c f7bd
000000d0: 0d47 f3bb 97d0 58bd 4b81 783c e5fc f9bc
000000e0: 5575 31bd 4218 4fbe b740 eabc 3fac c5bd
000000f0: 6fa5 0dbd 1cb6 58be d2c3 5e3e 8315 58bd
00000100: 210d 8fbd 4085 23bd 3e32 71bd 0e2e 8ebd
00000110: df6f fdbd 57f0 19be 38c5 093c 9bbc 013c
00000120: a3da 193c c001 9b3c 1a60 813d 62df 343c
00000130: 6e9c 713d 8a5e ddbb 7597 a0bb 3f76 1cbe
00000140: 2b7a 44bd 1c8d 09be 5e19 613c 60a0 a5bd
00000150: 9ab3 0e3c b605 20bc 9fcd c7bd 2c2a e2bd
00000160: 9f7a 3a3d 1b09 17bd 6303 86bc 040c edbd
00000170: aaf9 a83c ca91 493c bcd1 82bd ec0e 633d
00000180: 5a57 a83c 3a16 5ebd 720d 20bd 7ccc 02bb
00000190: 6126 04bd afe9 edbc 4ae8 00be 94f0 253d
000001a0: 3f9a b83d 19da 5dbc e3a3 04be 3fae 1ebe
000001b0: 88e6 7cbd 166d 823d 992e 193d 5b41 6f3c
000001c0: 641d d33d 88c5 b1bd 2e3b febd d8ee fdbd
000001d0: 8192 17bd f031 3fbc 7cc3 1f3e d9e0 a23c
000001e0: c139 533e 5eb3 efbc 594c 233d bbcb 6abc
000001f0: 2c7f db3d 1d77 a23c 5f41 a8bd e4af 503e
00000200: cb30 1bbc 4cfd 67bb e7c2 96b9 8b7a 23bc
00000210: 48e8 353c 86d9 a53d d5b3 473d 9b58 853c
00000220: eb7b 6dbd d3ac 3f3d 053f 863d abbb 85bd
00000230: 7ba3 2bbb 93dc 32be cd4c 61be 0e0d 06bd
00000240: 69d5 3a3a ca8a 16bd 3fd9 183d 90dd 083c
00000250: 0ee9 423e 04dd ab3d 206f 3b3c 522b 98bd
00000260: 2f04 e73b c35e 3abe 9f99 023e f49e 833d
00000270: fbb5 98bc 2c00 40bd a852 413d b504 9a3c
00000280: 3ab4 b93b 7c1d 9dbd 5b79 813d 1ce5 b5ba
00000290: 1206 963c b556 533d 00b3 0fbd fb54 20bd
000002a0: 68b9 4e3d f4c0 28bc 3b5f 5abe 304c 963b
000002b0: 512f 0a3d d567 eb3c e103 a4bd bb54 873d
000002c0: c3e1 acba 1b61 c4bc 4b98 363d 25fd f1bd
000002d0: 3ca0 78bb e906 9a3c c3a6 d3bb aa04 ae3d
000002e0: 4737 153e a353 17be 188c 88be ddc1 993d
000002f0: a612 bcbc 5be3 3d3d 95b9 833d 7d96 1abe
00000300: 159b bf3d bc28 12bc f1d8 af3c 434b efbd
00000310: b0fb a93b 6490 88be ed67 65be 45ba 2fbd
00000320: d6f4 9239 c877 b0bd 5167 063d 96cf a53d
00000330: 1cca df3c 277a 19be fd6a 503e 7c92 6ebd
00000340: 6598 083d 0dff 07be 2200 44be 838a af3c
00000350: 7e2e 86bd 6c2f 8ebe 06c5 4bbe e297 9abe
00000360: 0847 ac3e eb2e 09bc 6855 9bbd 9e06 6abd
00000370: 9dc5 8a3b c273 fd3c 0269 18bd d7b7 95bb
00000380: 51e9 73bd f1c1 a6bc 1231 f9bd b1d4 79ba
00000390: d095 15bc 502e 583d 7909 29bd 4236 033d
000003a0: a952 8c3d 3040 42bd c7f0 2ebe 8fae ccbd
000003b0: 4534 d1bd 222f 073e 3c9f 54bc f1cf 1ebc
000003c0: f53c 29bd c0d4 efba 6a61 6cbe 5cbd 81bd
000003d0: 0266 3e3b a8c6 153d 4bbf 4b3d 1bcf 1ebd
000003e0: 05fb 473c 7d53 70bc 2c11 17be f45c 2dbc
000003f0: b732 41bd 8526 b4bd 51a2 873d 3a48 9a3c
0.05144927 -0.0024339706 0.029555878 0.055717755 0.032893132 0.02022825 0.11716779 -0.030473316
0.08366458 -0.009872817 0.04540624 0.024780245 -0.0020880357 -0.04727276 0.17770414 0.001306065
-0.067637965 0.032574777 -0.0072576553 -0.0108716935 -0.09159105 0.11146252 -0.007195793 -0.07972211
0.29351535 -0.099784814 0.08896506 -0.041540366 -0.114028364 0.03700143 -0.053999994 -0.16841255
-0.034644462 0.032383952 0.044640344 -0.003164856 -0.080913864 0.10630152 -0.040511217 0.038309827
-0.03059087 -0.022407055 0.13005148 0.0023143685 0.09153443 0.034612264 0.018427012 -0.0792049
0.00920705 -0.1210933 -0.042871967 -0.12087306 -0.0074242414 -0.0529333 0.015167545 -0.030516097
-0.043324787 -0.20224097 -0.028595312 -0.09651994 -0.034581598 -0.21163219 0.21754387 -0.05275489
-0.06984926 -0.039922 -0.058885805 -0.06942378 -0.12374853 -0.15033089 0.008408837 0.007918502
0.009390506 0.018921733 0.06317158 0.011039587 0.058987074 -0.0067556547 -0.0049008676 -0.15279482
-0.04796807 -0.13432735 0.013738958 -0.0808723 0.008709813 -0.009766987 -0.09756016 -0.110432
0.045527097 -0.036873918 -0.016359037 -0.115745574 0.020626862 0.012302825 -0.0638766 0.055434152
0.020549465 -0.054220416 -0.039075322 -0.0019958308 -0.032263163 -0.029042093 -0.12588611 0.040512636
0.09013795 -0.013540768 -0.12953143 -0.15496157 -0.06174329 0.06368463 0.037397955 0.014602984
0.1030834 -0.08680254 -0.124136314 -0.123990715 -0.03700495 -0.011669621 0.15601915 0.019882606
0.206275 -0.029260334 0.039867733 -0.0143308 0.107176155 0.019832188 -0.082155935 0.20379597
-0.009472082 -0.003539878 -0.00028755443 -0.009977947 0.011102743 0.0809813 0.048755486 0.016277602
-0.057979506 0.046795677 0.06554989 -0.065299354 -0.0026189971 -0.17466955 -0.22001953 -0.032727294
0.00071271375 -0.036753453 0.037316557 0.008353606 0.19034216 0.08391765 0.0114400685 -0.07430138
0.0070500593 -0.18200211 0.12753914 0.06426802 -0.018641463 -0.046875164 0.047197968 0.018801073
0.0056672366 -0.07671639 0.06321975 -0.0013877484 0.018313441 0.051596362 -0.035082817 -0.039143544
0.050469786 -0.01029991 -0.2132539 0.004586719 0.03373653 0.028736034 -0.08008552 0.06607958
-0.0013189841 -0.023972085 0.04457883 -0.118158616 -0.0037937304 0.018802123 -0.0064590885 0.08496983
0.14571868 -0.14777999 -0.26669383 0.075076796 -0.022958111 0.0463594 0.06431881 -0.15096469
0.093557514 -0.008920845 0.02146575 -0.11684277 0.005187474 -0.2667266 -0.22402926 -0.04290225
0.00028029707 -0.086165965 0.032813374 0.080962345 0.027318053 -0.14988004 0.20353313 -0.058245167
0.03334846 -0.13280888 -0.19140676 0.021428352 -0.065518364 -0.27770555 -0.19899377 -0.30194002
0.33647943 -0.0083730025 -0.07584649 -0.057135217 0.004234983 0.030938987 -0.03720952 -0.0045690346
-0.05954868 -0.02035615 -0.121675625 -0.00095302897 -0.009129956 0.052778542 -0.0412688 0.032034166
0.06851704 -0.047424495 -0.17084037 -0.09994232 -0.10215048 0.13201573 -0.012977418 -0.009693132
-0.0413179 -0.0018297657 -0.23084036 -0.063349456 0.00290525 0.036566406 0.049742978 -0.03877173
0.012205844 -0.014668343 -0.14752644 -0.010581244 -0.047167506 -0.087964095 0.06622756 0.018833268

model.3.bias f4 [128]
00000000: d3b5 433e fb22 4b3d 2e96 4bbe e67f 3ebe
00000010: aed2 103e c36d bd3b ee20 fabd 3162 65be
00000020: ff39 01be 1d45 263e 5190 12bd 343c 87be
00000030: f785 fdbd a27b c83d 7698 383e 78ec b4be
00000040: aec3 2dbe 18b1 94bd 6770 abbe 34a9 903d
00000050: ba2a b6bc db46 94bd 78a4 113e d53e 43be
00000060: f3f5 e0bc fb19 933d b809 d6bd 7980 4d3e
00000070: f980 6dbe c6ed a0bd 9809 4d3d 521d acbe
00000080: e5b5 0c3e b496 aebb 3338 dd3c aad3 d43d
00000090: 6cae 9ebd 48c8 a0bc d4fa 7b3d bdbe b93d
000000a0: 3e9f 68be 153b 633d cb33 983d e224 823e
000000b0: aa8f 143e 626a cabd ba04 9bbe 5353 15be
000000c0: 920d 6dbe b274 d4bc 0d41 60be 2098 53be
000000d0: 2401 4abd b177 0b3e 5216 133c b19e 833e
000000e0: 6567 c43d 1763 78bd ee91 60be 72c5 26be
000000f0: ccf4 0f3e 3583 023d d47a 81be 9eb8 90be
00000100: 2390 173e a35e 30be 37c0 803d be12 31be
00000110: 6bb9 e63d 7f9b 613d 2cb0 8dbe e7f2 813d
00000120: deb4 15be 0ed2 90be 3312 4abe 914c 403e
00000130: 01eb 3bbd 74da d8bd d5a8 24be bcef d03d
00000140: 60a9 8f3e f162 debd 31b9 9bbd fc96 febd
00000150: 4c61 0d3e 366e e6bd 1fc2 9c3d 0f99 7ebe
00000160: bcbf d0bc 1dee 41be 5b67 c9bc 6c1e f33d
00000170: b58d 10bd 957c 223d 91d8 00be 744b d43d
00000180: 455a b63d e50f eabb 477a dc3d 97f6 b33d
00000190: 0eae 883d 4094 19be ade8 a53d fded 0ebe
000001a0: 38a1 4abe 81f2 73be 77d2 96bd 1356 193e
000001b0: 9bb3 143e 1824 cb3d 3659 4ebe a8f1 1d3d
000001c0: 9c7d 9abe 0a21 983d bcd8 3e3c 49b6 febd
000001d0: 68be 073c b1a7 fcbd b9b3 d5bd 5d21 8bbe
000001e0: 5477 a23c b32e e43d 67fb 71bc c3dd 25be
000001f0: 8c33 03bd bdf7 a3bc 2fba bdbd 8fa5 c9bd
0.19112329 0.049593907 -0.19881508 -0.18603477 0.14142868 0.005780907 -0.12213312 -0.22400738
-0.1261978 0.16237302 -0.035782162 -0.2641312 -0.123790674 0.09789206 0.18026909 -0.3533666
-0.16969177 -0.072603405 -0.33484194 0.07063523 -0.02223717 -0.07240077 0.14222896 -0.19066937
-0.027461028 0.0718269 -0.104510725 0.2006854 -0.2319373 -0.07857852 0.050057977 -0.3361612
0.13741262 -0.005328024 0.027004337 0.10391934 -0.07748112 -0.019626752 0.061518505 0.090695836
-0.22716996 0.055476267 0.07431754 0.25418764 0.14507928 -0.09883572 -0.30277044 -0.14582567
-0.23149708 -0.02593455 -0.21899815 -0.206635 -0.049317494 0.13619877 0.00897749 0.2570701
0.095900334 -0.060641374 -0.21930668 -0.16286257 0.14058226 0.03186341 -0.25289023 -0.28265852
0.14801078 -0.17223601 0.06286662 -0.17292306 0.112658344 0.055079933 -0.2767347 0.06345158
-0.14619777 -0.2828526 -0.19733505 0.18779208 -0.045878414 -0.105885416 -0.1608003 0.10201976
0.2805891 -0.10858715 -0.07603682 -0.12431142 0.13806647 -0.1125149 0.07654213 -0.24863075
-0.025482051 -0.1893849 -0.024585417 0.11871037 -0.035291392 0.039669592 -0.12582614 0.10365954
0.08903936 -0.007143008 0.1076551 0.08787268 0.06673823 -0.14997959 0.0810102 -0.13957973
-0.19788063 -0.23822977 -0.07364362 0.14974241 0.14521639 0.09918994 -0.20151219 0.03856054
-0.30173957 0.07428177 0.011648353 -0.12437112 0.0082851425 -0.12336672 -0.1043467 -0.27173892
0.01983229 0.1114172 -0.014769412 -0.16197877 -0.03203158 -0.020015592 -0.09264027 -0.09846031

model.6.weight f4 [64, 128]
00000000: fc66 a23b bfc5 f53c ede1 87bd 6565 913c
00000010: cbc8 c7bd add7 b63c e225 95bc 8ffc 03be
00000020: fd43 ad3c 6114 cdbc 020d fb3c 82ee cdbd
00000030: a546 083d 5abf 3a3d 8de3 b0bd da82 833d
00000040: 3f98 cabc 9ccd b03c 2d9f d4bd 1dee ae3d
00000050: a32f 973c c4a9 03be 2ef1 413d 47b2 c23c
00000060: cb2c 8dbd 5628 753b 2a07 90bb 4a61 c73d
00000070: 500c 2cbd ddaa 1fbd ff13 8fbd fb32 5cbd
00000080: 80bb 21bd 1dbb 853d 6271 053e 626e 9cbc
00000090: 8a75 a5bd 8bb5 0abe 16c6 66bd a3f8 04be
000000a0: a06f c8bc 6d89 a5bd 80f9 253d 6ecd 053d
000000b0: 9441 8e3d 7f8e 8f3c 9b9e 85bd cf6b 923d
000000c0: f8a1 3fbd ddc7 003c 5ea2 72bd 993e 42bd
000000d0: 631f 50bd 0e41 dfbd 2ff4 b83d 3dac d73d
000000e0: 56c8 84bd 9b01 bfbd 7329 603c 983a 4bbd
000000f0: fb20 8039 f4cd c43d 1031 0d3c 35ea 5abe
00000100: 5b93 4b3d 75e1 42bc 9dd3 cd3c df20 59bc
00000110: 4862 893d 6b41 00bc 6ab3 373d f731 a93d
00000120: bdf6 53bd bea0 02be 6817 e9bd 261d 88bd
00000130: ed33 933d b559 39bd 6377 cdbd 708a a13c
00000140: da31 0ebd db23 483c b849 61be c77b 53bd
00000150: d7d4 873c b7d4 14be 181d 13be f3a6 af3c
00000160: b2c9 f23d eec3 bbbd 2530 1bbd e0a5 11bd
00000170: 35a0 a4bc cecd da3d d22d 1cbd d8b7 8e3d
00000180: cb3e c43c ecd5 0bbd 898d 1e3d 431a 95bd
00000190: 065b 94bd 1449 7abd f245 60bd e409 8b3d
000001a0: 08ef bfbd e081 7e3d 6967 a73c d939 fbbc
000001b0: f8f3 913d 19df 9c3c 2935 533c b30d 983d
000001c0: 3444 dcbc 856b b23d 9ce8 3ebe 4c60 06be
000001d0: 239b 7b3d cd1f 14be a998 eebd ad10 8c3d
000001e0: 876b 143c 7430 35bd 36a3 44bb 9a26 0abe
000001f0: a1f6 28be 0df6 e23c 865d ad3a 86f4 10be
00000200: ad7a 643d 9fe2 883d 86d5 67bc 8001 91bd
00000210: 6780 1ebb 1b74 533d afb8 eabd 40ae a3bd
00000220: 1ee9 dcbc 1578 4a3d d765 ab3c 7c78 d4bd
00000230: 452a 87bd d5f3 443c 9dc3 10bd 0064 e4bd
00000240: e213 173d 6b32 b4bd 2d30 0f3d 9c1f c43d
00000250: e3d9 94bd 1789 18be 88f5 6e3c 3fd1 6dbd
00000260: 8e75 18bd e6c4 c13c 6090 d2bc 40d3 013d
00000270: 068c 8a3c ff75 d7bb 3b1e 47bd 4266 013d
00000280: 11f0 90bd 93bb f0bc e05b 5a3d 8d04 243d
00000290: bcd6 093d b207 3bbd fd4d a7bd da9a 6abe
000002a0: 149f b8bd 1407 7e3d 21b6 b73d 8f82 8b3d
000002b0: de62 563d 4cee 88bd a2c9 15bc 8fe9 043c
000002c0: 1921 0bbe a20d 82bb 2819 2bbe d70a bbbc
000002d0: fe65 5bbd c76a 2ebb 73f8 493c 6d19 e33c
000002e0: b23b e6bc 4cf7 9dbd d861 87bd ca00 35be
000002f0: 00af eeba 1983 7e3e 1579 46bd 25d1 55be
00000300: b923 8f3d 6a9d 1bbe 3e9e 1c3c cacd 8dbd
00000310: 9d82 10bd ac89 24bd 9d12 3a3d 3181 483c
00000320: 85fc 0bbe c4e4 5ebd c737 64bd dd72 72bc
00000330: fcff dc3c c8ef 01be de78 32bd 01d8 363d
00000340: 926c 173d bd43 51bb 52f1 07be 5ade e5bd
00000350: 4bc9 9c3d 6edf 7ebe 3db2 72bb d2c7 283d
00000360: 7041 c53d c668 bcbd fa08 71bd 3c46 2039
00000370: 0853 323e fe2e c2bb 4c05 a13d 5608 803d
00000380: a7f6 8e3d 6afc 6a3d c75e 973d 428d 24bd
00000390: e255 76bd 2668 ebbd 5feb cf3d d7c9 aa3d
000003a0: 2969 463d 4bfa 63bc 1986 05bd f076 aa3d
000003b0: 93ce 9c3d 7357 8e3d 4c2c 41bb fe91 373d
000003c0: 9eb4 94bb f41f 7cbd 692e a3bd b40a c8bd
000003d0: 0be7 64bc f065 3ebe e2de 6fbd a5f5 283d
000003e0: d7f1 843d 3634 b1ba 0244 983d 3d78 013d
000003f0: 352f 69be 6148 a4bd 957c 493d 9aaf 27be
0.0049561244 0.03000152 -0.06634889 0.017748544 -0.09755095 0.02231964 -0.01820654 -0.12889312
0.021150583 -0.025034131 0.030645851 -0.100552574 0.033270497 0.045592643 -0.08637152 0.06421442
-0.0247308 0.021582417 -0.10381923 0.0854151 0.018455332 -0.12857729 0.047349147 0.02376665
-0.06893309 0.0037408075 -0.0043953853 0.09735353 -0.04200393 -0.038981307 -0.06986236 -0.053759556
-0.039485455 0.0652983 0.13031533 -0.019095603 -0.080790594 -0.13545816 -0.056341253 -0.12985472
-0.02446729 -0.080828525 0.040521145 0.032666616 0.06946102 0.017524002 -0.06524392 0.07149469
-0.046785325 0.007860151 -0.059236877 -0.04742298 -0.050811183 -0.1090108 0.09030949 0.10530899
-0.064835235 -0.09326478 0.013681757 -0.049616426 0.00024438635 0.09609595 0.008617654 -0.21378405
0.049701076 -0.011894573 0.02512532 -0.013252466 0.06708199 -0.007828097 0.044848837 0.08261483
-0.05174898 -0.12756631 -0.113814175 -0.066461846 0.071876384 -0.045251567 -0.10032537 0.019719332
-0.03471551 0.01221558 -0.22000778 -0.051631715 0.016580982 -0.1453427 -0.14366567 0.021441912
0.118548766 -0.0916823 -0.03788771 -0.03555858 -0.020095924 0.106837854 -0.038129635 0.06968659
0.023955723 -0.03413956 0.038709197 -0.072804 -0.07243924 -0.06110485 -0.054754205 0.06788996
-0.093717635 0.062135577 0.020435052 -0.030667232 0.071266115 0.01914935 0.012891092 0.07424488
-0.02688799 0.08711914 -0.18643421 -0.13122672 0.061427247 -0.14465256 -0.11650211 0.06839118
0.00905884 -0.04423566 -0.0030004508 -0.13491288 -0.16500331 0.027705217 0.0013226725 -0.14155778
0.055781055 0.066838495 -0.014150029 -0.07080364 -0.002418542 0.0516244 -0.11461007 -0.0799222
-0.026966628 0.049430925 0.020922584 -0.10374543 -0.06599859 0.012021025 -0.0353428 -0.11151886
0.036884196 -0.08798679 0.034958053 0.095763415 -0.07268121 -0.14896046 0.014584906 -0.05806088
-0.037221484 0.023653459 -0.025703609 0.031695604 0.016912472 -0.0065753455 -0.048612814 0.03159166
-0.07077039 -0.029386317 0.053310275 0.040043402 0.033652052 -0.045661636 -0.08169172 -0.22910634
-0.09014717 0.06201847 0.08970285 0.068120115 0.05234038 -0.066860765 -0.009142311 0.008112325
-0.13586845 -0.0039689103 -0.16708815 -0.022832317 -0.053564064 -0.0026613937 0.012327301 0.027722085
-0.028104637 -0.07713184 -0.06610459 -0.17676082 -0.0018210113 0.24854697 -0.048455317 -0.20880564
0.069892354 -0.15196767 0.009559212 -0.06924017 -0.035280813 -0.040170357 0.045427907 0.012237833
-0.13670547 -0.054417387 -0.055717256 -0.014797893 0.026977532 -0.12689126 -0.0435723 0.04463959
0.036968775 -0.0031931244 -0.1327565 -0.11224051 0.07655581 -0.24889919 -0.0037032508 0.04120619
0.09631622 -0.091996714 -0.05884645 0.00015284953 0.17414486 -0.005926012 0.078623384 0.0625159
0.06980639 0.057369627 0.07391124 -0.040173776 -0.060140498 -0.11494474 0.10152315 0.08339279
0.048440132 -0.013914655 -0.03259859 0.08323467 0.076565884 0.06950273 -0.0029475866 0.044816963
-0.004538133 -0.06155391 -0.079678364 -0.097676665 -0.013971101 -0.18593574 -0.058562167 0.04124989
0.0649144 -0.0013519588 0.074348465 0.03160881 -0.22771914 -0.08021618 0.049191076 -0.1637558

model.6.bias f4 [64]
00000000: 847d 113e cb3c 013e 597c 7cbd e6ac d13b
00000010: 6e0d 443c 8298 bc3d f45a b6bc 0cd3 bf3d
00000020: 36a0 ac3d b958 db3d 2960 643e 08ca 5cbd
00000030: 3be0 803d e467 0a3e f67f b9bd 51d6 103e
00000040: 3cb5 96bd 95ea 92bb e86e 463e da64 9c3d
00000050: d54f 9fbb 7d20 e63d 513b 3a3b 1429 813d
00000060: c4ef 18be 2f52 d2bd 204b d33d 65d3 b9bc
00000070: 9c54 253d b887 353c 6221 b9bd e773 943d
00000080: a26e 403d cf95 0d3e bf15 bbbd 8908 27be
00000090: 5a1f 03bc 9a16 ad3d 5e7c 7abd cec7 bc3b
000000a0: af3b a73d 072c 49bd b5ac 773d 4421 f83d
000000b0: 9aef 45be 315e d6bd 93d4 713d 59f2 8d3c
000000c0: 9304 7c3d e942 61bd 0c0c 433e 5899 c1bd
000000d0: 4d95 ad3c ee7f 21be f367 863d 7ab6 3c3d
000000e0: 9f43 a8bd 8fb0 c2bc b88a 2abe c6d6 593e
000000f0: 8600 0a3e dfee 4d3d 5dbf 0f3d 23a3 033e
0.14208037 0.12620847 -0.061642025 0.006398785 0.0119660925 0.09208776 -0.022260167 0.09366426
0.08428995 0.10710282 0.22302307 -0.05390361 0.062927686 0.13516194 -0.0905761 0.14144255
-0.073587865 -0.0044835308 0.19378245 0.076364234 -0.0048618116 0.112366654 0.0028416703 0.06306663
-0.14935213 -0.102695815 0.10317063 -0.022683809 0.040363893 0.011079721 -0.090395704 0.07248669
0.046980508 0.13826679 -0.09135007 -0.1631185 -0.00800308 0.084515765 -0.061153762 0.0057611233
0.081656806 -0.049114253 0.06046744 0.1211572 -0.19329682 -0.10467184 0.059040617 0.017327474
0.0615278 -0.05499545 0.19047564 -0.09453076 0.021189356 -0.15771458 0.065627955 0.04607246
-0.08216023 -0.02376583 -0.1665448 0.21273336 0.13476762 0.050276633 0.035094608 0.128552

model.8.weight f4 [64, 64]
00000000: d65b 083b 99ed c5bd e793 123e 68de 9d3d
00000010: f43b e8bd f8fe ce3c 6d89 113e 012d 823d
00000020: 272a fabd 3edc b0bc 53f2 613e 99e6 03bd
00000030: 1187 9bbd 914e 98bd 8a8b 243d 5aa0 9c3d
00000040: feed 563d 452e c73d 9a13 0c3d 56c0 65bd
00000050: 5fe7 e73d e6e1 40bd c8f1 8a3d ff04 dabd
00000060: 42ab 2e3e f943 9b3d 615b a1bd a0b3 3dbe
00000070: fc10 15be 0a36 553c ba0e 133d bf67 843d
00000080: c646 d43d f52d 90bd f560 233e 57e3 9b3d
00000090: 74e2 1b3e 49a0 63bd d5c7 ec3c 3e72 73bd
000000a0: e1d5 3a3e 45a4 c138 8542 73bd e446 973d
000000b0: 7840 eabe caa3 2a3e a72f 8f3d 82ad 9b3d
000000c0: 1c68 c73e 416a fb3d 3bad f33d cf7c b2bc
000000d0: 5061 5a3e 30ee a83d 94b5 7d3b 77d1 92be
000000e0: 1a63 423e a657 a33b eb5b e33d 1124 f13d
000000f0: 1513 68be 63e8 683e 1137 1abe e727 d43d
00000100: 7b59 093d c667 cebd f6e1 9abd fed0 cb3c
00000110: 1ab8 e1bd 981b ad3d c632 bbbd 1edb ecbc
00000120: ffbf 803d d1b3 a7bc 7fcd 92bd e477 dabd
00000130: 18e8 6c3c e716 5c3d cd75 84bc a25e eebd
00000140: c693 babd 9804 243d 5cc9 053d 5294 74bd
00000150: f04d d53d 3b70 dabd bf0a c33d 597d 10bc
00000160: 8b41 e0bd 9553 42bd 2e5a 5abc e181 eabd
00000170: 356b e43c 411f 82bc 8f5b 023d f387 75bb
00000180: 5d5c cb3d ba96 32bd 2897 9fbd 5d3e 923d
00000190: baff 5dbd 3292 183d 7af7 d5bd f933 373d
000001a0: 28ef 783d 1b0a b3bd bbf7 5b3d 8ea0 2d3d
000001b0: 7b53 bbbd 5172 d83d bde5 b23c 069e 75bd
000001c0: 4cda 333d 2a4f 01bd 7c71 e5bd 9018 e73c
000001d0: 776c d2bd 4cfc 7b3d 25e7 ccbd 3fbd 61bd
000001e0: bd9f af3d 7827 f2bd fdb6 8ebd 72ce f9bd
000001f0: 2d00 9e3d 2a30 16bc e8e4 f03c 70e6 90bd
00000200: a175 a6bb 65cd 8e3b b178 2c3e bacb 223e
00000210: 6d99 aa3d 1796 6f3a d04e c7bd 52e9 bb3d
00000220: c026 d5bd 1733 04be 4b8a 293e 4269 33bd
00000230: f9c3 0b3d 4615 d03d a392 5fbd 4743 c0bd
00000240: 1860 063e 5982 773c c4e1 98bd e3e3 f7bd
00000250: 00c7 033c 8874 5abd 196e 74bd 9d08 b7bd
00000260: 08df 92bd 452d bf3d 5e6f d2bc 32e9 83bd
00000270: 0e1a 303d 514b 183e d839 073e f079 42bd
00000280: 74df 283e ce7e 083d 5065 cc3d 53da 573c
00000290: 83db bdbd 7250 83bc abfa b73d a53a d73d
000002a0: 9959 94bc 4e6d 6f3c 46aa 49be e5ca cc3c
000002b0: 87ac debd 230a a03d a75a 25be 8a21 6fbc
000002c0: 5f10 a73d 41a8 0a3e f2a7 9fbd 575b 173e
000002d0: d996 823e 1e4f d33d 6ad3 24be ed4f 91be
000002e0: 2b19 003e e39d 2d3d 86a5 133e ad24 553e
000002f0: cc3b 42bc 31c0 f83d 5c31 3cbd 2ff5 9d3d
00000300: 999f f13d 6f8f 683d e5d5 61be bd25 b7bd
00000310: 14e3 c4bd ceec ce3d 9d48 17be 711f 9a3d
00000320: 1979 893e c94d 493d 49aa d0be 7add a3bd
00000330: aaee 08bc de75 35bd c1a3 36be 06b2 443d
00000340: 8ed8 95bd 85ba 93bd 3906 adbd 3f12 5cbc
00000350: 2c17 4ebe 6435 6dbd 821f 76bd 19df 093e
00000360: 28db 17be ba10 e13c bd18 1ebb 7adc 683e
00000370: 10cb bc3d 7ab0 ebbd e6f9 dcbc 57c6 843d
00000380: 7d79 d3bd 146c b63d 7aa6 cebd 9304 04be
00000390: 1efc eabd 8d8f d83d bdb7 a7bd 8934 0cbc
000003a0: 087d 90be 00f2 44be c05e ec3c bcf0 aa3c
000003b0: 9744 5d3d 5af5 62bd 8a3a eb3d aa07 78bd
000003c0: a08d 35be bd81 5cbe 5623 9d3c 5e29 a8bb
000003d0: c419 c5bd 05da 11be c37c 433d d943 7a3e
000003e0: b2a0 833d 0562 b5bd 8f6a a9bd a987 00be
000003f0: a67b a93d 2acb 02be 95a9 2e3d 9d2c 973d
0.0020806692 -0.09664459 0.14314233 0.07708436 -0.1133956 0.025268063 0.1421258 0.0635624
-0.12215071 -0.021589395 0.22065096 -0.032202337 -0.07594121 -0.0743686 0.040172137 0.07647772
0.05247306 0.09725622 0.03419838 -0.05609163 0.113234274 -0.047090434 0.06784397 -0.10645484
0.17057517 0.07581324 -0.07878757 -0.18525553 -0.1455726 0.013013372 0.035902716 0.064651005
0.103650615 -0.070400156 0.15954955 0.07611721 0.15223104 -0.05557278 0.028903881 -0.05943512
0.18245651 9.233555e-05 -0.05938961 0.07386568 -0.4575231 0.16664043 0.06991511 0.07601453
0.38946617 0.12276126 0.118982755 -0.021788029 0.21326184 0.08248556 0.0038712965 -0.28675434
0.18983117 0.0049848137 0.11101516 0.11774457 -0.22663529 0.22744898 -0.15060069 0.10359173
0.0335326 -0.10078387 -0.0756263 0.024879929 -0.11021443 0.08452529 -0.09140544 -0.028913077
0.0628662 -0.020471485 -0.071681015 -0.106673986 0.014459632 0.05373278 -0.016169453 -0.116391435
-0.09110217 0.040043443 0.032662734 -0.05971176 0.10415256 -0.106659375 0.09523534 -0.008818948
-0.10950001 -0.04744299 -0.013327165 -0.11450554 0.027883152 -0.015884044 0.0318256 -0.0037465065
0.09929726 -0.043600775 -0.07792503 0.07140801 -0.054198958 0.037248798 -0.10447593 0.0447273
0.060774952 -0.08742162 0.05370305 0.042389445 -0.09146782 0.10568679 0.021838063 -0.059965156
0.043909356 -0.031569637 -0.11203286 0.028209955 -0.10274594 0.061519906 -0.10005025 -0.05511212
0.085753895 -0.11823934 -0.06968496 -0.121975794 0.07714877 -0.009166757 0.029406026 -0.070752025
-0.0050799404 0.004357981 0.16842915 0.15898028 0.08330045 0.00091394916 -0.09731829 0.09175362
-0.104077816 -0.12910114 0.16556661 -0.043801554 0.03412244 0.101603076 -0.054583203 -0.09387832
0.13122594 0.015106761 -0.074649364 -0.12104013 0.008043051 -0.05333379 -0.05967531 -0.0893719
-0.07171446 0.09334806 -0.02568787 -0.06440963 0.042993598 0.14872481 0.1320566 -0.04747957
0.1649149 0.033324055 0.09980261 0.013174611 -0.09270384 -0.01602957 0.08983358 0.105092324
-0.01810913 0.014613463 -0.1969386 0.024999091 -0.10872751 0.078144334 -0.16147862 -0.014595399
0.081574194 0.13540746 -0.07795705 0.14780937 0.25505713 0.10317825 -0.16096273 -0.2838129
0.12509601 0.0423869 0.14418611 0.20814772 -0.011855077 0.121460326 -0.04594551 0.07712781
0.11798019 0.056777414 -0.2205425 -0.08942745 -0.09613624 0.10103761 -0.14773794 0.07525528
0.26850203 0.049146447 -0.40754917 -0.08001228 -0.008357683 -0.04430186 -0.17835905 0.04802134
-0.07316695 -0.0721331 -0.084484525 -0.013432085 -0.20126027 -0.057912245 -0.060088642 0.13464011
-0.14829695 0.027473796 -0.0024123632 0.22740355 0.092184186 -0.115082696 -0.02697463 0.06483143
-0.103259064 0.08907333 -0.10090347 -0.1289237 -0.11473869 0.10574255 -0.08189342 -0.008557447
-0.2822039 -0.1923294 0.028853774 0.020866744 0.05402049 -0.055409767 0.11485775 -0.060554184
-0.17729807 -0.21533866 0.019181889 -0.0051318845 -0.09624055 -0.14243324 0.047726404 0.24439944
0.064271346 -0.08856586 -0.082722776 -0.1255175 0.08275537 -0.12772813 0.042642195 0.07381556

model.8.bias f4 [64]
00000000: 6bcb ecbd 0804 c43c fac3 04bd 736f c23d
00000010: 93ae c0bd dca7 30be 5f48 93bd 40db 863c
00000020: 1f55 88bc b188 073e b6f9 103e 7702 28bd
00000030: a942 24be 6e5d b9bc 4d37 ff3d deac 643d
00000040: 28c5 fe3d f4c9 403c 121a abbd 3797 ed3d
00000050: d901 143e 50bc c2bd 9457 d03d bc6c bdbd
00000060: 70e8 4abe 98f2 373d dc16 423c a828 88bd
00000070: 1daa 983d 3638 25bc 4f83 ddbc 799d 2abe
00000080: 64e7 293d 9d67 42be 1627 2cbd 6bd8 353e
00000090: 7c85 43be d816 253d a324 fc3a 09a8 663e
000000a0: 50e8 b6bd 8cf4 2f3b 8e5b 003e 864a e1bd
000000b0: 2c7a d73d 5d0f 6a3c 05ad 20be 8fcf b73d
000000c0: 93cd debc a63e 2ebc bb14 803c 64b1 a1bc
000000d0: 23f0 2a3d 2a68 413e d5e8 143b 832a fcbc
000000e0: 9c20 293e 237e ca3d 9f13 af3d 441b 07be
000000f0: 4cf4 28bc 523b a0bd f819 f8bd 238b 973d
-0.115622364 0.023927703 -0.03241346 0.094939135 -0.094082974 -0.17251533 -0.07191538 0.016461968
-0.016642151 0.13235737 0.14157757 -0.041017976 -0.16041054 -0.022627559 0.1246172 0.05582892
0.12439948 0.011766899 -0.08354582 0.116011076 0.1445383 -0.09508574 0.10172954 -0.09249255
-0.1981523 0.04490909 0.01184627 -0.066483796 0.074543215 -0.0100842025 -0.027040152 -0.16661634
0.041480437 -0.18984838 -0.042029463 0.17758338 -0.19093889 0.04030499 0.0019236993 0.22525038
-0.08931029 0.0026848642 0.12534925 -0.11000542 0.10521349 0.014285889 -0.15691002 0.089751355
-0.027197635 -0.010635054 0.015634885 -0.019737907 0.04173292 0.18887392 0.0022721787 -0.03078199
0.16516346 0.0988734 0.08548664 -0.13193995 -0.010312151 -0.078238145 -0.12114328 0.07399585

model.11.weight f4 [32, 64]
00000000: 0a51 92bc 15a6 ff3d 9f8c df3d 6c07 5d3d
00000010: a4cd 343e 2460 1a3d eeb9 803c 343e 313d
00000020: 773e 203e c54a dd3d ecef aa3d 799c 573d
00000030: 01d0 183e f0a5 02be cf24 493d 54df 733e
00000040: f63c 523e 9e90 683c 006a 2b3c 1802 dcbd
00000050: dc39 033d 1419 4fbd 35ee ec3d 8c92 0e3c
00000060: c90b e03c 341c cc3c 1133 7f3d a8d8 7c3d
00000070: 32a3 443e 14d0 133e a465 2dbd a3de 0a3e
00000080: d66c f93d 4485 303e 0019 1fbc c772 0f3e
00000090: 87c5 ca3d b5a3 d23d ca2d abbd ec12 d03d
000000a0: f09d 563d 42b7 273e 69ef 37bd 2778 3e3e
000000b0: 3fca 9f3d 867f 5fbd d7b9 123e 0fd9 403e
000000c0: e2a8 cf3c 62b6 5b3d 05f5 233e 42a1 20bd
000000d0: 8422 fe3c a120 c1bb 67a4 0d3e c8be ba3d
000000e0: d176 3bbb e8f7 a03c 91f4 ddbd 00c9 4b3d
000000f0: 4501 e13d 990d 2c3e 77fe 333d eb95 563d
00000100: b2e0 0bbd 3f7d 913c 6b0e 8a3c d312 b63d
00000110: 06c2 a0bd 5d29 10be d2a8 9cbd a398 b23d
00000120: ee78 11be 39b0 cabd 6ad2 7f3d 589f 58bd
00000130: c717 fcbd 950e 5d3e a692 b5bd 6ed5 54be
00000140: cd4e d2bd 8cb9 de3c 5244 34be 688c 8e3d
00000150: 96f7 a23c 75ce f53d 7d7c 2cbd f1ab b63d
00000160: 755a 423d 2535 96bd 4a12 76bd 270d 313d
00000170: 1dd8 04be 202f 3dbd a439 323e fb7d 3fbd
00000180: a2a8 e4bd 6df6 4abd ac58 33bc c640 093e
00000190: 0e7f 1dbe d12f 503c 7ff5 423e 7110 233e
000001a0: aa45 30be 7581 4e3d 0363 b1bc e5cf 933c
000001b0: 1573 943d b70d fa3d 718c 8abd 88b2 20be
000001c0: 0d0f 7c3e 264d 02bd 2871 bcbd 055c 543d
000001d0: 5ef9 3e3e 1d57 17bd 7df2 a63c d4fb 213d
000001e0: ab96 cbbc 924f e4bd 807a 083e 7d06 92bd
000001f0: e317 1a3e 9ac2 6ebe 6e2b 2f3c 0ed3 5d3e
00000200: 95f0 28be ec1c a63d 37f7 a6bd f0c1 d2bb
00000210: 38fc 5cbe f96c 2abe d418 f2bd 9a71 633d
00000220: ec08 4fbe 7609 a8be 6315 313d 7e46 db3c
00000230: e08e 41be 44bb cd3e 7ec0 86be d0ec bdbe
00000240: 457b 8ebe 0a42 163d 55e0 a4bd 1421 043e
00000250: 4ee0 af3a 92e5 983d 6625 92bd cd82 27bd
00000260: 4de5 0fbe e14b 89bd b0dd 48be b448 8bbb
00000270: e331 b3be 69b1 fbbd cd0d 503e 464b 0dbe
00000280: 3da1 c2bd be5a e3bd 2f5e e13a b174 03bd
00000290: ded2 edbd ae7f abbd c7d0 f03d 8744 d639
000002a0: c117 8ebe 7765 fbbc fa7d 633e 6fe9 73bd
000002b0: 3656 cebc aeab 57bc fe64 1ebe c363 8cbe
000002c0: 7278 123e ad54 d53d 8034 46be 7b78 283e
000002d0: 9e82 413d 8df1 b93d 226e 73bd b88e 83bd
000002e0: c10d e9bc 60dc 9bbe 2964 843e 3eb4 09be
000002f0: 2b09 fe3d 5025 51be 9793 f6bd e19f 773e
00000300: 61b1 343e 4c50 bd3d 6f14 6d3e ec58 13be
00000310: 0d83 0d3e 4ede 873d 6ec4 1c3e b48b e73d
00000320: 0de2 8b3d 02fb 193e 26c6 333e 4ced 073d
00000330: 6eca f03d a559 fabd d12a 883c af43 0d3e
00000340: 53ef 9e3d 00c9 0e3e 3bac 4c3e bd1d 74bd
00000350: 6fe7 d8bd 001a 923d 8635 8dbc a3e1 88bc
00000360: cc57 213e 3dd0 5d3e 7d28 c63d b66c 683e
00000370: 0c69 ea3d 993a 4a3e 3a17 0ebe 1734 313e
00000380: 4aa0 283e 9b90 413e b1f3 213e 4de1 bc3c
00000390: 07de 003e 2c2c 313d 4b40 00be 917b 763d
000003a0: 6000 a33d ba14 0e3e f0f8 ae3b b1e6 cc3c
000003b0: c254 4abd 17b8 8bbd cd79 483d 408e 263e
000003c0: fc1a 49be 047e 20bc 78af 8f3d 7a98 163d
000003d0: 9df2 67bd 3c9a 133e 59b2 c83d 2c93 173e
000003e0: 5e77 853d 5089 a23d 27b3 ccbd 9b00 df3c
000003f0: 66e7 c93d 0bf9 203e 9fe9 2a3e 5fde 22be
-0.017860908 0.124828495 0.10915493 0.053962156 0.1765657 0.037689343 0.015713658 0.043272212
0.15648828 0.10805277 0.08346543 0.05263946 0.14923097 -0.12758613 0.04910737 0.23815662
0.20531067 0.014194636 0.010462284 -0.10742587 0.0320376 -0.050561026 0.11568872 0.008701932
0.02734937 0.024915792 0.06230456 0.061730057 0.19202879 0.14434844 -0.04233326 0.13561492
0.12178962 0.17238337 -0.00971055 0.14008628 0.099009566 0.10285131 -0.08358343 0.10159859
0.052396715 0.16378501 -0.044906054 0.18600522 0.07802247 -0.054564975 0.14328705 0.18832801
0.025349084 0.05364073 0.16011436 -0.039216287 0.031022318 -0.0058937822 0.13832246 0.0911842
-0.0028604756 0.01964946 -0.10837663 0.049752235 0.1098657 0.16802062 0.04394385 0.052389067
-0.034149833 0.017759917 0.016852578 0.08890309 -0.07849507 -0.14078279 -0.076493874 0.087205194
-0.14206287 -0.09896893 0.062456526 -0.052886337 -0.12309223 0.21587594 -0.088658616 -0.20784542
-0.10268936 0.027188085 -0.17604187 0.06960374 0.019893449 0.12002269 -0.04211091 0.08919514
0.047449548 -0.07334355 -0.060076036 0.043225434 -0.12973066 -0.04618752 0.174048 -0.046751004
-0.11164977 -0.049551416 -0.010946434 0.13403615 -0.15380499 0.012706713 0.19038962 0.1592424
-0.17214075 0.05041643 -0.021653658 0.018043468 0.07248513 0.12209647 -0.06765068 -0.15693104
0.24615116 -0.031811856 -0.0920127 0.05184557 0.18649814 -0.036948312 0.0203793 0.039546803
-0.024852118 -0.11147989 0.1332798 -0.07130144 0.15048175 -0.23316422 0.010691507 0.21662542
-0.16498025 0.08110985 -0.08152621 -0.0064318106 -0.21580589 -0.16643132 -0.11821142 0.05552826
-0.20218247 -0.32819718 0.043233287 0.026767012 -0.18902159 0.40181935 -0.26318735 -0.37094736
-0.27828422 0.036684074 -0.080506004 0.12903243 0.0013418288 0.07465662 -0.071360394 -0.040896226
-0.14052315 -0.06703926 -0.19615817 -0.0042506102 -0.34998998 -0.12289698 0.20317765 -0.13798246
-0.0950341 -0.11101292 0.0017194207 -0.032093707 -0.11612485 -0.08373962 0.11758571 0.00040868318
-0.27752498 -0.03068803 0.22216025 -0.05954879 -0.025187593 -0.01316349 -0.15468213 -0.27419862
0.14303759 0.10416541 -0.19355965 0.1645221 0.047243707 0.09079275 -0.059431203 -0.06423706
-0.028448941 -0.3044157 0.25857666 -0.13447663 0.124040924 -0.2042439 -0.12039869 0.24182083
0.1764579 0.09243831 0.23152326 -0.1438939 0.13819523 0.06634198 0.15309307 0.11305943
0.06830225 0.15037158 0.17556056 0.03318529 0.117573604 -0.122241296 0.016621979 0.1379535
0.07760491 0.13943863 0.19987576 -0.059598673 -0.105910175 0.07133865 -0.017237436 -0.016709154
0.15756148 0.21661468 0.09675691 0.2269772 0.11445817 0.19748916 -0.13876048 0.17305027
0.16467395 0.18902819 0.15815617 0.02305665 0.12584697 0.043255016 -0.12524526 0.060176436
0.07959056 0.13875094 0.0053397343 0.025012346 -0.049397238 -0.06822222 0.048944283 0.16265202
-0.196392 -0.0097956695 0.0701589 0.036766507 -0.05662786 0.14414304 0.09799642 0.14802235
0.06516908 0.079363465 -0.09995108 0.027221968 0.09858589 0.15720002 0.16690682 -0.1590514

model.11.bias f4 [32]
00000000: 47d3 a3bd 39e3 76bc b3d0 a33d 2859 a5bd
00000010: 4846 e83b 50b4 d83d 456f ee3d 691a d43d
00000020: d893 b3bd 6de3 2b3e 3ee6 323e 67a8 eb3d
00000030: d70f 313e 8dd4 2f3e a87e 193e 264d 8b3d
00000040: e922 10bc 01b9 483e 9dc5 113c bbfd 7e3a
00000050: ea33 e0bd b1f1 733c dcca 073d 9a4d 213e
00000060: a3e5 b3bd 8be2 36bd 4d49 0abe a8f4 c03d
00000070: 0209 be3d c0aa d6bc e8cb 533e 1164 84bd
-0.07999282 -0.015068823 0.079987906 -0.08073646 0.0070884563 0.10581267 0.11642317 0.103566
-0.08768433 0.16785975 0.17470643 0.115067296 0.17291199 0.17170925 0.14989722 0.06801824
-0.008797386 0.19601823 0.008897212 0.000972714 -0.10947402 0.014889167 0.033152446 0.15752259
-0.08784034 -0.044649642 -0.13504525 0.094216645 0.09279062 -0.026204467 0.20683253 -0.06464399

model.13.weight f4 [32, 32]
00000000: 86e9 813d 062f 2cbd ce73 21bd 01a6 453e
00000010: e619 67be 6787 a93c cbf7 e9bd 0b25 5dbc
00000020: a2b9 033e 3ec7 7f3d 6620 8e3e 3743 1abe
00000030: 4b21 08be e17d ae3c 2092 823c ad99 213c
00000040: a9f2 75bd 71b7 343d 1f0d 6abe 0ac1 b63d
00000050: d03a ddbd 5e1f dfbd 8ff9 18bc 94e3 593d
00000060: d5cd 51bc b938 70bd cc6e a03d 4101 293e
00000070: 2149 2cbd a63e 4e3e 3006 39bd 1c4b a2bd
00000080: a2eb 93bd d5e2 223e ae12 c63e f4ca 873c
00000090: f12e 0e3e 064b d2bd 8e33 423e 3a0b 193e
000000a0: 2b55 31be 85f6 d93d 414c 403e 56f7 3c3e
000000b0: 85fc f53e 741b a73d 18ec 9abc 34af 96bd
000000c0: f798 8a3d 2cb4 183e f224 ea3d 5c5a 8b3c
000000d0: 0fd3 81bd bfa8 83bd c5bc ab3c 3034 b43e
000000e0: b64e 59be 1880 c5bd 8e35 8dbd a2cd e0bd
000000f0: c763 5a3e 986a 13be a7ca 0dbe e033 a13c
00000100: dd09 15bd a20f 493e f538 843e d5a5 5dbe
00000110: b4b8 863c 7d8a 773c 482d 60bd 0568 1f3e
00000120: 4749 65be ad12 213e a46e ba3e 4acf d53e
00000130: 1af9 e83e cc6f 5abd bd6e 943d 4be3 363d
00000140: 0f8e 183e ab30 743d b219 3f3e d2f1 053e
00000150: 591b 21bd fbf3 e13d a1dc fdbc d91a d53e
00000160: 3052 ffbd 89ad 93bd e34c eebb 451e e5bc
00000170: 3038 893e c2c0 c63c 6665 793d 7fad 9d3b
00000180: 82b4 963c b537 a8bd 9721 13be ca8a 2cbe
00000190: 9e1e ce3d d686 713d 8e97 f3bd ff49 863c
000001a0: 67ec 613d 4f3f 12bd 8cb1 db3d 29e4 16be
000001b0: 243e 39be df4c 0e3e 76ba 243d 8a1c a63d
000001c0: d371 af3d 026f 5e3c 1534 89bd 83d2 3abe
000001d0: a15e 22bc 04fc 293d 78a7 c6bc 8a6a 203e
000001e0: 7860 36be 8779 273e c44a d5bd e4ac 45bd
000001f0: f0b3 19bd 0e5c 7cbd 3cac 02be fdae 143e
00000200: c1f6 c93c eb6e bb3d c77f debd 324e e23d
00000210: 4510 ddbc ec60 cbbc 5783 18bc a76e b0bc
00000220: 55fd c03d f19d 823e cf3a 843e 10ea 96be
00000230: a7fc 55be 526c 44be 5ab6 dcbd f09a bd3d
00000240: 4fcc 7b3d 65be 573d 9e53 bbbd 732a 983d
00000250: 05f1 eb3d 0cb0 b8bd 499d dbbd 76c9 4cbe
00000260: 0232 2f3e 0fa8 4f3e ca90 2c3e adbe 4db9
00000270: 2fc6 29be f8c4 303e c2a9 58be cbbe 23be
00000280: a9ab 5e3e be60 b0bc 45ab 66be a758 7e3e
00000290: 67e0 1ebe 810e 84bd 5022 e9bb 4f70 8bbd
000002a0: 9dd9 30bd 027a 283e 58ca ad3e 5f4e 30be
000002b0: 6aed fe3b 18bd 9bbd 55e6 ae3d 32e0 b83d
000002c0: ee0f eebd 2644 4abe beac d4bd d3cb 4c3e
000002d0: 7dc6 aebd 9a14 d8bc 1f97 afbd 2252 3abe
000002e0: 3db8 96bc 4502 6b3c 4ab8 463e c285 0d3e
000002f0: f9fe afbd 527e 713e 8f7b 12be b0f0 76bd
00000300: ce2f 6bbb 7271 043e 87ca 5cbe 5257 d2bb
00000310: ee27 1ebd e0c9 f43d ef28 acbd f1a6 7c3d
00000320: 7594 17bd 2e19 3e3e e4da 943d 9cee 1fbe
00000330: aeff acbd dc8d f8bd baee 023e 7fbe 8ebd
00000340: 555e 16be 64cb f1bc f85e 8fbd 0cf0 ee3d
00000350: 0e8e 91bb a157 0abe 76fe 68bd 60a7 34be
00000360: b21b 11bd 54f8 663d 0859 91bd 0f00 343e
00000370: 551d b43d 2abe 3b3e 96dc e93c ad1b 99bd
00000380: 8d4a 12be 8442 f83d c691 073f 8279 63be
00000390: eb34 8abd d6dc 38be e8ac 823d d7c8 253d
000003a0: a030 3dbe 296a 983d 94fa 663e a74b d33e
000003b0: 60b3 043f 3a0c a2bb 4a95 f23d 19a3 8d3e
000003c0: e488 673e dfcb 663e 7077 2e3e 647f 2dbd
000003d0: 8312 93bd 9a70 11be 2586 a93d 361a e53e
000003e0: 9a93 4abe 248a 06be 30f0 22bd 4f52 043e
000003f0: 25ca ec3e e770 d0bd 0017 4d3e 7d62 1abe
0.06343369 -0.042037033 -0.03941708 0.19301607 -0.22568473 0.020694448 -0.11424216 -0.013497601
0.12863782 0.06244587 0.27759093 -0.15064703 -0.1329395 0.021300258 0.015938818 0.009863299
-0.060045872 0.044120256 -0.22856568 0.08923538 -0.10802233 -0.10894655 -0.009336843 0.05319555
-0.012805422 -0.058647845 0.07833633 0.16504385 -0.04206193 0.20141086 -0.045171916 -0.07924482
-0.07222678 0.15906842 0.38686126 0.016576268 0.13885094 -0.10268216 0.18964979 0.14945689
-0.17317645 0.10642723 0.18779089 0.18453726 0.4804422 0.08159533 -0.018911406 -0.07357636
0.06767457 0.1491248 0.11432828 0.01701086 -0.06339084 -0.0642867 0.020964036 0.35196066
-0.21221432 -0.096435726 -0.0689498 -0.10976721 0.21327125 -0.14396131 -0.13846837 0.019678056
-0.03638636 0.1963487 0.25824705 -0.21645291 0.016445495 0.015108702 -0.054730684 0.15567024
-0.22391234 0.1572978 0.36412537 0.41759712 0.4550255 -0.053329274 0.07247684 0.044650357
0.14897941 0.059616726 0.18662146 0.13080528 -0.03933272 0.11032864 -0.030988993 0.41622046
-0.12466848 -0.072108336 -0.007272349 -0.027968535 0.2680068 0.024261836 0.060887717 0.004811942
0.01839662 -0.0821375 -0.14368282 -0.16849819 0.100644335 0.05896648 -0.11894141 0.016392706
0.05515709 -0.035704907 0.10727224 -0.14735474 -0.18090111 0.13896511 0.040216886 0.08110912
0.08566632 0.013576271 -0.06699387 -0.18244366 -0.009910257 0.041500106 -0.024249777 0.15665641
-0.17810237 0.16354953 -0.10414651 -0.048260584 -0.037525117 -0.061611228 -0.12761015 0.14519878
0.024653794 0.09152015 -0.10864215 0.11050071 -0.026985297 -0.02482649 -0.009308658 -0.021537138
0.09423319 0.25511125 0.25826117 -0.2947545 -0.2089716 -0.19181946 -0.10776968 0.092580676
0.06147414 0.05267181 -0.09146808 0.074299715 0.1152058 -0.09017953 -0.10723359 -0.19998726
0.1710892 0.20278953 0.16852108 -0.00019621356 -0.16579507 0.17262638 -0.21158507 -0.1599075
0.2174517 -0.021530505 -0.22526272 0.24838506 -0.1551529 -0.06448079 -0.007114686 -0.068085305
-0.043176282 0.16452792 0.3394344 -0.17217396 0.007779767 -0.07604426 0.08540026 0.09027137
-0.11624132 -0.19752559 -0.103845105 0.19999628 -0.085339524 -0.026377011 -0.08573746 -0.18195394
-0.018398399 0.014343803 0.19406238 0.13820556 -0.08593554 0.23583344 -0.14304946 -0.06028813
-0.0035886648 0.12933901 -0.21561633 -0.006419101 -0.0386123 0.11952567 -0.08406245 0.061682645
-0.037006814 0.18564293 0.072683126 -0.15618366 -0.084472045 -0.121364325 0.1278638 -0.06969928
-0.14684422 -0.02951593 -0.07000536 0.11666879 -0.004441983 -0.1350999 -0.056883298 -0.17641973
-0.035426803 0.056389168 -0.070970595 0.17578147 0.08794657 0.1833426 0.028547566 -0.07475982
-0.14286251 0.12122062 0.5295681 -0.2221432 -0.067483746 -0.18052992 0.063806355 0.04047474
-0.1847558 0.074421234 0.22556525 0.41268656 0.51836205 -0.004945305 0.11844881 0.27663496
0.22610813 0.22538708 0.1703775 -0.042357817 -0.07181265 -0.1420311 0.08277539 0.4474656
-0.19782868 -0.13138634 -0.039779842 0.12922023 0.46247974 -0.101777844 0.20028305 -0.15076633

model.13.bias f4 [32]
00000000: 9955 27bd df59 143e 0f82 193e 48ac cabd
00000010: 01d4 58bb a76e c6bc 41e3 f2bd abaf de3c
00000020: 434f 82bd 5e0a 1ebd 6b1c 15bd eb5d 5c3d
00000030: 1820 23bd d729 b2bc 3be2 c4bd 3400 b73e
00000040: 5dd8 dabc 7983 1ebc f0b0 133e f1d7 a3bb
00000050: 1192 c93d dd68 a4bd bfc1 e63b bb90 0dbd
00000060: 8603 3cbc 5a4c 6cbd 12eb df3c c100 bc3d
00000070: 2e0c f43d f8c4 60bd 3a85 f8bd 74a4 1b3d
-0.040853117 0.14487408 0.1499102 -0.09896141 -0.0033085349 -0.024222685 -0.118597515 0.027183374
-0.06362774 -0.038584106 -0.036404055 0.053800505 -0.03982553 -0.021748466 -0.096134625 0.35742342
-0.026714498 -0.0096749 0.14422965 -0.0050001075 0.09842313 -0.080278136 0.0070421393 -0.034561854
-0.011475449 -0.057690002 0.02733377 0.09179831 0.119163856 -0.054875344 -0.12134786 0.03799863
